Baseline_Results/k=2/max/local/Feature_Extraction/BloodMNIST/Net/Run_3/Best_Weights.pt (torch, 15869 bytes, 4 tensors)

conv1.weight f4 [3, 3, 3, 3]
0.49676976 0.4020077 0.17273499 0.32319856 0.29410952 -0.31773558 0.40059793 -0.081251584
-0.38769022 -0.03643579 -0.18388866 -0.28733322 -0.06391775 -0.44502315 -0.6052509 -0.11832834
-0.77053386 -0.68125284 -0.19571574 -0.002658803 -0.32994172 0.10359588 -0.1296189 -0.74305415
0.00020865796 -0.47531307 -0.47117892 -0.5036168 -0.1646897 -0.1699403 -0.26719773 -0.058639225
-0.0010713866 -0.37884924 -0.17875987 -0.2920158 0.01895659 0.12357759 0.24986643 0.27936792
0.6665533 0.560834 0.18569034 0.38660303 0.34699595 0.27430898 0.4444896 0.31958848
0.3773222 0.7475893 0.35463256 0.2771189 0.374542 0.37412494 0.6392385 0.8723613
0.67236304 0.5516326 0.8290348 0.871746 0.76035994 0.58754504 0.5277444 -0.5861022
-0.34210634 -0.13670377 -0.493614 -0.046648942 -0.26531616 -0.25980595 -0.25370988 -0.22017571
-0.4925469 -0.63401645 -0.5886923 -0.47852468 -0.24552962 -0.42835304 -0.44989207 -0.28052282
-0.19364975
00000000: 9b58 fe3e f4d3 cd3e 71e1 303e 487a a53e
00000010: 8695 963e 3dae a2be 2c1b cd3e 3b67 a6bd
00000020: 557f c6be b23d 15bd 4f4d 3cbe 571d 93be
00000030: 4fe7 82bd 13da e3be b9f1 1abf 2156 f2bd
00000040: b541 45bf 9666 2ebf b569 48be 503f 2ebb
00000050: 1fee a8be 142a d43d d1ba 04be cc38 3ebf
00000060: 32cb 5a39 3c5c f3be 5d3e f1be 08ed 00bf
00000070: 6ba4 28be d404 2ebe 24ce 88be af2f 70bd
00000080: c56d 8cba 87f8 c1be d40c 37be 1883 95be
00000090: da4a 9b3c 3f16 fd3d fcdc 7f3e 5009 8f3e
000000a0: 3da3 2a3f d192 0f3f 9c25 3e3e d5f0 c53e
000000b0: 74a9 b13e 3a72 8c3e 2494 e33e 1aa1 a33e
000000c0: 6030 c13e 0362 3f3f 6692 b53e 87e2 8d3e
000000d0: f8c3 bf3e 4e8d bf3e 22a5 233f 1253 5f3f
000000e0: fc1f 2c3f cb37 0d3f a03b 543f bf2a 5f3f
000000f0: f3a6 423f 5a69 163f 421a 073f cb0a 16bf
00000100: 9028 afbe 13fc 0bbe f9ba fcbe f612 3fbd
00000110: 85d7 87be 4905 85be 43e6 81be be75 61be
00000120: 1b2f fcbe e74e 22bf 8ab4 16bf 3001 f5be
00000130: 1e6c 7bbe 1751 dbbe 4158 e6be b0a0 8fbe
00000140: 1f4c 46be

conv1.bias f4 [3]
0.62389284 0.62424225 0.6804591
00000000: 71b7 1f3f 57ce 1f3f 9132 2e3f

fc.weight f4 [8, 432]
-1.191206 0.2872163 -0.70843005 0.00648522 -0.12357244 0.00082610134 -0.14590599 0.14703342
-0.54660213 -0.19042149 -0.018976092 -0.22493964 -0.38141397 -0.1032118 0.019925611 0.048918992
0.10772998 0.19830748 0.46433777 0.08896241 -0.050003182 0.3587055 0.2897726 -0.04170326
-0.2658005 0.1453252 0.12303053 0.29204938 0.27005792 0.19580424 0.10812886 0.35968992
0.16119885 -0.02877114 -0.4560639 -0.70805544 -0.22953075 0.15028381 0.25917712 0.23178507
0.16978961 0.19193642 0.011745552 0.24215698 0.3164724 0.27555826 0.49336368 -0.28369895
0.19012266 0.046867326 0.15623109 0.18687312 -0.113715746 0.0045055496 -0.09510039 -0.0017436554
0.010323159 0.18829413 0.4290172 -0.08738756 -0.08068597 0.20754623 0.01834835 0.0136087965
0.013425629 -0.04962427 -0.21046184 -0.24952887 -0.024645068 0.122375354 0.23263931 -0.006646544
0.13287234 0.30750465 0.11344681 -0.056662448 0.024048572 0.059320115 -0.25478205 -0.24836758
-0.010158305 0.1949945 0.019927453 -0.050897054 0.22205892 0.1466422 0.09522796 0.1272627
-0.11796009 0.01101893 -0.040327635 -0.32803535 -0.059299763 -0.017249493 -0.025707526 -0.09418963
-0.2145692 -0.011571777 0.24290018 0.20546313 0.14165369 0.037613228 0.05354974 -0.14408295
0.13651085 0.28880042 0.12645614 -0.12862977 0.0659959 0.3632381 0.2022226 0.2550708
0.32172996 0.17839669 0.21107928 0.06514431 0.08367032 -0.023200348 0.15192391 -0.31088933
0.30268 -0.12873347 0.3614306 0.005609013 0.28492218 0.17275287 0.21281047 -0.055439983
0.13642587 0.344545 0.16762719 -0.28312826 -0.76809233 0.013154123 -0.16753037 0.19782026
-0.12751232 0.24640986 0.21151093 -0.057499755 -0.29258272 -0.42969766 0.04526509 -0.81690407
0.10701033 -0.0038444742 0.025535943 -0.08299509 -0.033188052 0.08626214 0.09806518 0.07140296
-0.019683562 -0.00722383 0.0720685 0.12558888 -0.012171452 -0.050835997 -0.04085296 0.03830491
0.009275128 -0.019866591 0.048284806 0.062618665 -0.006310601 -0.0986264 0.082890205 0.16596009
0.04847731 -0.04507025 -0.038331624 0.05526288 -0.021173127 0.017061705 0.2359697 -0.007105489
-0.15421675 -0.04505987 -0.1682258 -0.09583535 -0.09971795 -0.09092307 -0.03538859 -0.004618407
0.14955948 0.10914897 0.069265746 -0.2267675 0.19873913 0.012443803 0.002737999 -0.039276227
-0.04205434 0.047095165 -0.066807225 0.18328789 0.03287915 -0.28989983 -0.13665982 -0.0627791
0.12927437 0.05166885 -0.031364724 -0.1133552 0.09115111 -0.056489833 0.07567391 -0.27995014
-0.14401689 0.34116906 0.2154435 -0.26848072 -0.012182466 0.012250508 -0.052996147 -0.1527504
0.001301534 0.04643729 -0.01491855 -0.5364697 0.005140332 0.13623354 0.007602345 -0.06321102
-0.6246973 0.124960154 0.0017961294 -0.026383625 -0.04838664 -0.11294977 0.24475078 0.16479085
-0.27235383 0.0357493 0.10265504 -0.25370234 0.049183097 -0.13941848 0.020537034 -0.037744798
-0.021350624 -0.040979743 0.19296497 0.14838146 -0.014409684 0.11350345 -0.24501406 -0.391778
0.029056948 0.021359237 -0.10669914 0.012559159 0.08034869 -0.2265339 -0.062393583 0.073213935
00000000: 7079 98bf 040e 933e ac5b 35bf f881 d43b
00000010: 8c13 fdbd b98e 583a 6168 15be ee8f 163e
00000020: 1eee 0bbf dafd 42be c073 9bbc 9456 66be
00000030: b148 c3be b560 d3bd 093b a33c 485f 483d
00000040: 89a1 dc3d 1e11 4b3e aebd ed3e ed31 b63d
00000050: 23d0 4cbd 3fa8 b73e 135d 943e 0ad1 2abd
00000060: 0117 88be 21d0 143e 6ef7 fb3d 7f87 953e
00000070: 0845 8a3e e880 483e aa72 dd3d 4729 b83e
00000080: 5011 253e 74b1 ebbc 3581 e9be 1f43 35bf
00000090: 1c0a 6bbe 00e4 193e ddb2 843e 1159 6d3e
000000a0: 54dd 2d3e fb8a 443e 6a70 403c 00f8 773e
000000b0: ac08 a23e f915 8d3e 2a9a fc3e fd40 91be
000000c0: 84af 423e f4f7 3f3d 0bfb 1f3e ab5b 3f3e
000000d0: cde3 e8bd 4aa3 933b fec3 c2bd 5e8b e4ba
000000e0: 7822 293c 2dd0 403e 24a8 db3e 40f8 b2bd
000000f0: b03e a5bd 0087 543e 474f 963c 6ef7 5e3c
00000100: 2bf7 5b3c d242 4bbd 4f83 57be 7f84 7fbe
00000110: 74e4 c9bc ee9f fa3d 0039 6e3e 41cb d9bb
00000120: b00f 083e 4071 9d3e cd56 e83d e216 68bd
00000130: 8301 c53c a6f9 723d cb72 82be 1254 7ebe
00000140: 056f 26bc a3ac 473e e63e a33c 6e79 50bd
00000150: 6a63 633e 5f29 163e e006 c33d 2751 023e
00000160: 0f95 f1bd be88 343c 972e 25bd 40f4 a7be
00000170: 4fe4 72bd cf4e 8dbc 9798 d2bc 7ee6 c0bd
00000180: 07b8 5bbe 8d97 3dbc d3ba 783e ed64 523e
00000190: aa0d 113e 5410 1a3d f956 5b3d 7b8a 13be
000001a0: 80c9 0b3e a6dd 933e b87d 013e 86b7 03be
000001b0: dc28 873d 58fa b93e 7113 4f3e a498 823e
000001c0: cab9 a43e 9fad 363e 2b25 583e 616a 853d
000001d0: 585b ab3d a80e bebc f191 1b3e e32c 9fbe
000001e0: dff8 9a3e b5d2 03be 6e0d b93e d0cb b73b
000001f0: 52e1 913e 21e6 303e fdea 593e 0915 63bd
00000200: 39b3 0b3e 3468 b03e 76a6 2b3e 30f6 90be
00000210: b3a1 44bf 6484 573c 158d 2bbe 6591 4a3e
00000220: 9792 02be de52 7c3e 5296 583e dd84 6bbd
00000230: 67cd 95be 5501 dcbe e367 393d a020 51bf
00000240: 3b28 db3d 93f3 7bbb c130 d13c 54f9 a9bd
00000250: 32f0 07bd 34aa b03d 66d6 c83d b73b 923d
00000260: 6c3f a1bc e1b5 ecbb a698 933d 5f9a 003e
00000270: c56a 47bc 6839 50bd 6f55 27bd 9ce5 1c3d
00000280: b5f6 173c 43bf a2bc 4ac6 453d 373e 803d
00000290: 28c9 cebb a3fc c9bd 57c2 a93d 71f1 293e
000002a0: 2590 463d 959b 38bd 9f01 1dbd 545b 623d
000002b0: 4473 adbc fdc4 8b3c 0ba2 713e 29d5 e8bb
000002c0: ffea 1dbe b390 38bd 6243 2cbe 5345 c4bd
000002d0: ed38 ccbd e035 babd a0f3 10bd 0256 97bb
000002e0: 1f26 193e 7f89 df3d 33db 8d3d bd35 68be
000002f0: 4582 4b3e 18e1 4b3c 0070 333b 1ce0 20bd
00000300: 2c41 2cbd dce6 403d 3ad2 88bd d2af 3b3e
00000310: 4aac 063d c06d 94be 8df0 0bbe 5492 80bd
00000320: 8060 043e b7a2 533d 4c78 00bd c526 e8bd
00000330: 6fad ba3d e261 67bd ecfa 9a3d a055 8fbe
00000340: 2a79 13be b6ad ae3e 399d 5c3e 4e76 89be
00000350: f798 47bc 5bb6 483c 7d12 59bd 9a6a 1cbe
00000360: 3c98 aa3a 0735 3e3d ef6c 74bc 1456 09bf
00000370: 3b70 a83b ce80 0b3e 181d f93b c774 81bd
00000380: 2aec 1fbf 1ceb ff3d 1a6c eb3a 7922 d8bc
00000390: 1231 46bd 3652 e7bd f39f 7a3e efbe 283e
000003a0: f671 8bbe dc6d 123d ce3c d23d 46e5 81be
000003b0: 3774 493d b8c3 0ebe 483d a83c 4a9a 1abd
000003c0: 81e7 aebc 60da 27bd 9c98 453e 4ff1 173e
000003d0: 9816 6cbc 7f74 e83d f7e4 7abe 2097 c8be
000003e0: d608 ee3c 91f9 ae3c 1485 dabd eec4 4d3c
000003f0: db8d a43d 81f8 67be 6a90 7fbd 30f1 953d

fc.bias f4 [8]
-0.16779944 -0.3505761 -0.16645618 0.17140776 -0.073878564 0.49592215 -0.28879216 -0.04213752
00000000: 9ed3 2bbe b67e b3be 7d73 2abe 8485 2f3e
00000010: a54d 97bd 82e9 fd3e 91dc 93be 6498 2cbd
