Baseline_Results/k=2/avg/local/Feature_Extraction/BloodMNIST/Net/Run_3/Best_Weights.pt (torch, 15869 bytes, 4 tensors)

conv1.weight f4 [3, 3, 3, 3]
0.6887978 0.49349067 0.09891049 0.3829185 0.30270466 -0.30226162 0.3589192 0.03901686
-0.37660328 0.41588423 0.08055153 -0.2037531 0.249617 -0.2960205 -0.6056181 0.07935746
-0.6619383 -0.71513027 0.6651932 0.5862764 0.15987119 0.61688966 0.13887602 -0.305932
0.1930211 -0.23720957 -0.65351427 -0.5412006 -0.2544976 -0.26094815 -0.40779573 -0.36125022
-0.20981164 -0.35871547 -0.34456286 -0.18432859 0.011863052 0.18138804 0.40703967 0.2353332
0.52768236 0.60392636 0.349569 0.4312839 0.6602665 0.2720088 0.6122026 0.29351968
0.37893063 0.64107823 0.30708203 0.35659647 0.31395105 0.46189463 0.56328744 0.8095878
0.68548685 0.45407706 0.746764 0.87519073 0.82634944 0.6614689 0.6142572 -0.54359275
-0.29772994 -0.13972928 -0.47688615 -0.039340965 -0.27302003 -0.17952831 -0.18567306 -0.19678168
-0.769952 -0.7933231 -0.50986296 -0.79344755 -0.39263773 -0.29887474 -0.59250885 -0.28251216
-0.10277542
00000000: 0d55 303f cfaa fc3e 9591 ca3d e50d c43e
00000010: 1bfc 9a3e 09c2 9abe 42c4 b73e 25d0 1f3d
00000020: 25d2 c0be c7ee d43e 33f8 a43d a7a4 50be
00000030: 999b 7f3e 0090 97be ca09 1bbf 2a86 a23d
00000040: ca74 29bf c712 37bf 1a4a 2a3f 3616 163f
00000050: 46b5 233e 7bec 1d3f 8435 0e3e 1ea3 9cbe
00000060: 53a7 453e 11e7 72be b64c 27bf 1f8c 0abf
00000070: 824d 82be ff9a 85be 9aca d0be caf5 b8be
00000080: ddd8 56be 8ea9 b7be 8b6a b0be a2c0 3cbe
00000090: 3f5d 423c c9bd 393e 8167 d03e 30fb 703e
000000a0: 3116 073f eb9a 1a3f b5fa b23e 3ed1 dc3e
000000b0: 3a07 293f bd44 8b3e 4fb9 1c3f 3648 963e
000000c0: 3203 c23e b41d 243f db39 9d3e d093 b63e
000000d0: 31be a03e 747d ec3e 9b33 103f 2541 4f3f
000000e0: 117c 2f3f ca7c e83e ed2b 3f3f 800c 603f
000000f0: a38b 533f 0756 293f f63f 1d3f e528 0bbf
00000100: 0f70 98be 3115 0fbe 6c2a f4be fe23 21bd
00000110: 48c9 8bbe 45d6 37be 1421 3ebe 2381 49be
00000120: 931b 45bf 3917 4bbf 6186 02bf 611f 4bbf
00000130: d007 c9be 1c06 99be a9ae 17bf 6fa5 90be
00000140: eb7b d2bd

conv1.bias f4 [3]
-0.12926225 1.0850511 -0.00080634037
00000000: 535d 04be f4e2 8a3f 9660 53ba

fc.weight f4 [8, 432]
0.058971465 -0.119348586 0.00043519706 -0.17319433 -0.16823207 -0.1309737 0.036205977 0.10012009
0.025080577 0.046903115 -0.043167993 -0.095769435 0.07680632 -0.13320504 -0.10430598 0.24683341
0.3508723 0.25272393 0.30343708 0.23829286 0.13964741 0.16390754 0.0668246 -0.17549972
0.090082884 -0.114627354 0.13223834 0.29370755 0.29814675 0.35995108 0.38856018 0.5192841
0.37077883 0.35131788 0.19969709 -0.080139294 -0.11379811 -0.012832228 0.13731638 0.22876592
0.3094796 0.16294134 0.11101636 0.48898634 0.27134138 0.5742925 0.49498105 -0.025914619
0.06441356 0.1363197 0.24265191 0.2944505 0.18435094 -0.25660563 -0.34485358 -0.057113025
0.023373613 0.9805038 0.8826811 0.1366879 -0.027508954 0.19705473 0.30136183 0.19754541
-0.060580228 -0.26800904 -0.6875333 -0.51482993 -0.24748744 -0.08525346 0.7801872 0.26752144
0.19130023 0.21282248 0.12566447 0.04000759 0.15320258 -0.25951657 -1.3305644 -1.2689232
-0.13113387 -0.40278628 0.0862997 0.080535926 0.23419285 0.11530408 0.19057329 0.28549647
-0.3154893 -0.5761586 -1.0656002 -1.0451984 -0.046972867 0.044301715 0.14175363 -0.11988126
0.081759185 0.26317143 0.39134184 0.26868033 0.07118262 0.029000508 -0.47508952 -0.37237144
0.10678733 0.64171934 0.31852344 -0.14810151 0.14029787 0.21939747 0.43110952 0.4957898
0.4844974 0.41757858 -0.308274 -0.4236835 -0.32562423 0.10524211 0.15811169 -0.03844243
-0.012240189 0.10412335 0.17979817 0.481951 0.32741016 0.4133502 0.5070733 0.23792449
0.1513111 0.067570314 0.08401844 0.032904 -0.10901402 -0.19529065 -0.12176626 0.1578781
0.32890838 0.069978476 0.19053827 0.24013399 0.121863216 0.09888085 -0.012030725 -0.15576337
0.21298838 0.06723658 -0.026876757 -0.16405906 -0.106549144 0.028956069 -0.019225413 -0.061780766
-0.044735625 -0.02119676 0.0071581784 0.24812454 0.1691667 -0.02415627 -0.10816543 -0.14021671
-0.16002315 -0.07785535 -0.06897724 -0.046380896 0.004497735 -0.03769382 -0.006277135 0.15021051
0.019503731 -0.13788725 -0.25371608 -0.18711647 -0.0356807 -0.04094566 -0.11803059 -0.10655391
-0.10941465 0.025320103 -0.01441737 0.02955624 -0.029292144 -0.1987606 -0.2679566 -0.06916083
0.025090737 0.02050231 -0.35608783 -0.56505764 -0.0898304 0.01117119 0.008740082 0.13532838
-0.103834905 -0.16623428 -0.04452134 -0.054408636 -0.26296827 0.30531177 0.21118689 -0.57821834
-0.28246644 -0.06071885 0.027880365 0.19202147 -0.12501365 -0.11781346 -0.08286739 -0.31777707
0.5103724 0.97396696 0.7426765 0.18356323 -0.55714816 -0.21900126 0.13796513 0.12202456
-0.11836055 -0.049278863 -0.32928568 -0.63233227 0.5637473 0.5535497 0.11271235 -0.17691834
-0.9553832 -0.24630141 0.15626197 0.08547451 -0.15909764 -0.102374494 -0.045532998 -0.4342924
0.042395316 0.35319775 0.1487187 -0.3495105 -0.77050006 -0.17203705 0.18153502 0.047593325
-0.12730792 -0.1347507 -0.049212027 -0.08864228 -0.57735205 -0.40750903 -0.42963308 -0.946997
-0.33796474 -0.07569064 0.08539164 0.06406767 -0.02459029 -0.23219664 -0.11568803 -0.018924931
00000000: 108c 713d 086d f4bd 292b e439 db59 31be
00000010: 0745 2cbe f81d 06be b84c 143d c30b cd3d
00000020: c875 cd3c 7b1d 403d ecd0 30bd c422 c4bd
00000030: a24c 9d3d e766 08be 609e d5bd e6c1 7c3e
00000040: 89a5 b33e 0865 813e 1b5c 9b3e 0b03 743e
00000050: bbff 0e3e 61d7 273e 56db 883d 33b6 33be
00000060: 607d b83d bfc1 eabd 7d69 073e d660 963e
00000070: b1a6 983e 824b b83e 5cf1 c63e ceef 043f
00000080: b9d6 bd3e f0df b33e 657d 4c3e 1220 a4bd
00000090: fc0e e9bd 443e 52bc aa9c 0c3e 9d41 6a3e
000000a0: 1c74 9e3e 18da 263e 8c5c e33d 6b5c fa3e
000000b0: 42ed 8a3e d504 133f 286e fd3e e54a d4bc
000000c0: 42eb 833d 6497 0b3e be79 783e 37c2 963e
000000d0: 7ec6 3c3e d061 83be a690 b0be 59ef 69bd
000000e0: 057a bf3c 4c02 7b3f 63f7 613f eaf7 0b3e
000000f0: 755a e1bc b7c8 493e 194c 9a3e 5849 4a3e
00000100: f922 78bd 7b38 89be 2f02 30bf e5cb 03bf
00000110: 596d 7dbe 5e99 aebd 59ba 473f 92f8 883e
00000120: 35e4 433e 23ee 593e 30ae 003e 00df 233d
00000130: 23e1 1c3e 5bdf 84be ef4f aabf 136c a2bf
00000140: f547 06be 013a cebe e6bd b03d 05f0 a43d
00000150: 40d0 6f3e 8c24 ec3d a525 433e 982c 923e
00000160: d087 a1be 217f 13bf 9665 88bf 10c9 85bf
00000170: 9f66 40bd b775 353d dd27 113e 4e84 f5bd
00000180: 5c71 a73d 68be 863e f55d c83e 7890 893e
00000190: 32c8 913d 7992 ed3c ef3e f3be 78a7 bebe
000001a0: 51b3 da3d b847 243f 8115 a33e eca7 17be
000001b0: 3faa 0f3e bba9 603e 63ba dc3e 29d8 fd3e
000001c0: 0b10 f83e dccc d53e 17d6 9dbe 0bed d8be
000001d0: 38b8 a6be 2d89 d73d 08e8 213e cf75 1dbd
000001e0: 138b 48bc 9f3e d53d 031d 383e 48c2 f63e
000001f0: 4ea2 a73e a3a2 d33e 8ecf 013f 7aa2 733e
00000200: 4cf1 1a3e 4e62 8a3d dc11 ac3d 58c6 063d
00000210: be42 dfbd 46fa 47be 9760 f9bd ccaa 213e
00000220: ae66 a83e e050 8f3d 771c 433e afe5 753e
00000230: 6c93 f93d 0b82 ca3d 851c 45bc 6f80 1fbe
00000240: a019 5a3e 55b3 893d a52c dcbc 19ff 27be
00000250: 7036 dabd 4735 ed3c 9d7e 9dbc d40d 7dbd
00000260: b43c 37bd d4a4 adbc 278f ea3b 5c14 7e3e
00000270: 093a 2d3e 5fe3 c5bc d685 ddbd f894 0fbe
00000280: 1cdd 23be a072 9fbd f043 8dbd e5f9 3dbd
00000290: bc61 933b d664 1abd 6db0 cdbb c9d0 193e
000002a0: 4ac6 9f3c 5132 0dbe 13e7 81be 769b 3fbe
000002b0: ed25 12bd a3b6 27bd 06ba f1bd f038 dabd
000002c0: ca14 e0bd 1b6c cf3c d536 6cbc ee1f f23c
000002d0: 14f6 efbc e687 4bbe 9c31 89be 31a4 8dbd
000002e0: 178b cd3c 76f4 a73c 2551 b6be 9ea7 10bf
000002f0: 00f9 b7bd 5e07 373c 9032 0f3c 8693 0a3e
00000300: 65a7 d4bd 5239 2abe 025c 36bd 97db 5ebd
00000310: c7a3 86be d351 9c3e 6041 583e 1e06 14bf
00000320: 719f 90be 54b4 78bd 5d65 e43c 47a1 443e
00000330: 9403 00be 2f48 f1bd 61b6 a9bd adb3 a2be
00000340: c4a7 023f e655 793f 0c20 3e3f 00f8 3b3e
00000350: 43a1 0ebf de41 60be bb46 0d3e 03e8 f93d
00000360: 0467 f2bd a2d8 49bd 2298 a8be 87e0 21bf
00000370: be51 103f 6fb5 0d3f bcd5 e63d 152a 35be
00000380: fe93 74bf 7036 7cbe 2303 203e 430d af3d
00000390: 7eea 22be b8a9 d1bd cf80 3abd 935b debe
000003a0: b6a6 2d3d 56d6 b43e b749 183e 0af3 b2be
000003b0: 7e3f 45bf 7b2a 30be 51e4 393e 38f1 423d
000003c0: 025d 02be 16fc 09be 8d92 49bd 158a b5bd
000003d0: 58cd 13bf 06a5 d0be def8 dbbe 656e 72bf
000003e0: b709 adbe b203 9bbd d0e1 ae3d e935 833d
000003f0: 9371 c9bc f5c4 6dbe d9ed ecbd 7508 9bbc

fc.bias f4 [8]
0.06992908 0.13399716 -0.034078237 0.54987043 -0.15088108 -0.07150348 -0.5521275 -0.5224204
00000000: fa36 8f3d 8d36 093e 9f95 0bbd 4fc4 0c3f
00000010: 9280 1abe 6b70 92bd 3a58 0dbf 58bd 05bf
