Baseline_Results/k=2/avg/local/Feature_Extraction/BloodMNIST/Net/Run_1/Best_Weights.pt (torch, 15869 bytes, 4 tensors)

conv1.weight f4 [3, 3, 3, 3]
000000 ae 9f 9b be 0b 96 4a be 66 b7 8b bc bc 50 57 be
       -0.30395263 -0.197838 -0.017055225 -0.21026891
000010 ae 9b d7 be 8d c4 92 be 7a 68 a1 be 64 cc 08 bf
       -0.42110962 -0.2866558 -0.31525022 -0.53436875
000020 f6 81 a0 be 6c 53 16 bf 8a 74 10 bf 6f 5b ea be
       -0.31349152 -0.5872104 -0.56427824 -0.45772883
000030 aa 1c d3 be 7c be ce be 8b 7f 2f bf 64 66 fe be
       -0.41232806 -0.40379703 -0.6855399 -0.49687493
000040 25 11 e0 be 54 2c 9d be 6d a5 a8 3e 41 fb 29 3e
       -0.4376308 -0.30697882 0.3293871 0.16599752
000050 ff c1 66 3e 56 13 1b bd 96 49 d1 be 5d 51 12 bf
       0.22534941 -0.037860237 -0.40876454 -0.571554
000060 c1 c2 46 3e d4 9f bd be ec 63 71 3c e6 41 44 3f
       0.1941023 -0.37036002 0.014733296 0.76663053
000070 35 14 9e 3e 4c b2 4c 3e b6 17 28 3f 6d 32 76 3e
       0.30874792 0.1998989 0.6566118 0.24042673
000080 90 c4 05 3d 84 af 73 3f be 5e 24 3f 68 49 a3 3e
       0.03265816 0.9518969 0.64207065 0.31891942
000090 fc 24 c1 be 4a b9 40 bf 90 0c 16 bf a1 0a fc be
       -0.3772353 -0.7528273 -0.5861292 -0.4922686
0000a0 dc dc 62 bf 5a c3 68 bf 01 06 d7 bd 0c 35 f5 be
       -0.88618255 -0.9092308 -0.10499192 -0.47892034
0000b0 e2 27 4c bf be b9 81 3c 50 b6 18 be 1b 6d df bc
       -0.79748356 0.01583564 -0.14913297 -0.027273705
0000c0 f6 a5 87 3e b0 c9 d9 be d4 ed 0b bf 45 fc d9 3d
       0.26493806 -0.42536688 -0.5465977 0.1064382
0000d0 41 e3 18 be 73 20 04 bf 19 55 28 bf 6b e2 c5 be
       -0.1493044 -0.51612014 -0.6575485 -0.38649306
0000e0 f2 f4 72 be 24 a6 e2 bd 68 93 40 3e de e1 d3 3e
       -0.23726252 -0.11066845 0.18806231 0.4138326
0000f0 93 3e 98 bd 51 f1 88 3e dc e8 d1 3e d9 34 02 bf
       -0.0743381 0.2674661 0.4099797 -0.5086189
000100 47 ad 93 bd 38 b5 31 bd 98 72 86 be 7f 1d fa 3e
       -0.072107844 -0.043385714 -0.26259303 0.4885063
000110 aa bb 36 3f 17 a5 ca 3c b4 72 32 3f 20 1f 57 3f
       0.713801 0.024736924 0.69706273 0.8403187
000120 87 e1 f8 be d6 c7 aa be 08 60 62 be bb 72 c2 be
       -0.48609564 -0.33355588 -0.22106946 -0.37978157
000130 57 d6 99 3e 7a 4c 34 3f 3f 73 80 be 63 31 e3 3d
       0.3004634 0.70429194 -0.25087926 0.11093404
000140 c7 a0 ec 3e
       0.46216413

conv1.bias f4 [3]
000000 29 12 94 3e 7d 89 cb be 9c 20 13 3f
       0.28920105 -0.39753333 0.5747163

fc.weight f4 [8, 432]
000000 e4 d3 89 3e 35 e1 f5 3d 0b 4a b9 3e eb 4d 62 3e
       0.26919472 0.120058455 0.36189303 0.22100036
000010 bb ff a7 bd 55 fc 71 3d a5 e3 f7 3d 44 09 2f 3e
       -0.082030736 0.059078533 0.121039666 0.17093378
000020 02 5b 0c 3f 00 df 4b 3f f3 16 28 3f c7 72 56 3e
       0.54826367 0.79637146 0.6566002 0.20942222
000030 96 63 b4 be be 2e 10 be c4 49 c2 bd 59 0f db be
       -0.35232228 -0.1408033 -0.09486726 -0.42785147
000040 83 1f c5 be be d9 13 bd a8 4e 51 be db ec ff bd
       -0.38500604 -0.036096327 -0.20440161 -0.124963485
000050 59 e5 7f 3e e2 8e a5 3e ef e3 22 3e 41 11 88 bc
       0.24989833 0.32335573 0.15907262 -0.01660979
000060 57 c6 5f 3d 84 71 88 3e eb 43 b4 3e 92 90 9b bc
       0.05463251 0.26649106 0.35208067 -0.018989835
000070 01 e8 81 3b 1d 1a 57 3d 4e 93 d5 bb b8 81 82 3b
       0.0039644246 0.052515138 -0.006517804 0.003982749
000080 70 f4 08 3d e1 ee 69 be 54 e4 1f bf eb 51 00 3e
       0.03343624 -0.22845031 -0.62457776 0.12531249
000090 f5 e3 b4 3e bc 36 dd 3e 98 8a 2b 3e 21 29 a4 bd
       0.35330167 0.43205822 0.16752088 -0.08015657
0000a0 5f 75 25 bc ac 06 72 bc 68 c9 8a 3d 8a 03 fd 3d
       -0.010098784 -0.0147720985 0.067766964 0.12354191
0000b0 05 8f 03 bd 74 4e f2 3b 25 14 fc 3c a8 ac 28 3e
       -0.032118816 0.0073946062 0.030771324 0.16472113
0000c0 1b d4 1f 3c bc 99 0a 3e ea 16 97 3d ca f6 08 bd
       0.00975516 0.13535208 0.073774174 -0.03343848
0000d0 63 0e 83 3d 57 99 02 3e ed 28 38 3e f9 8f 15 3e
       0.063992284 0.12753807 0.17984362 0.14605702
0000e0 6a 3b a0 3c 8b 3c c2 3d b4 e6 42 3e 98 26 74 3d
       0.01955958 0.09484204 0.19033319 0.05960712
0000f0 78 b4 a9 be b9 26 7a bd ec 8d 5d 3e 04 e2 3a 3d
       -0.331455 -0.061072085 0.2163617 0.0456257
000100 c2 eb 65 3d 9a 7f 53 3e f9 94 78 3e 07 e8 0c 3e
       0.05613304 0.20654145 0.24275579 0.13760386
000110 99 30 1f 3e d7 3a 36 3d b5 df f9 bc f3 a4 a9 3d
       0.15545882 0.044489708 -0.03050218 0.08283415
000120 14 a9 b0 bd b9 99 40 bd 3c c9 2c 3e b8 b0 44 3d
       -0.08625999 -0.0470216 0.1687364 0.048020095
000130 2c 55 94 3d ea 67 51 3e a5 01 71 3e ca 37 4c 3e
       0.07242808 0.20449796 0.23535784 0.19943157
000140 b7 45 7c 3d 61 df a9 3d 1f c5 78 bb 9b 73 91 bd
       0.061589923 0.08294559 -0.003795929 -0.07102128
000150 b8 02 4c 3e 3e da cf bc 52 93 11 3d e0 5f 93 3d
       0.19922912 -0.02537262 0.035540886 0.07196021
000160 18 e0 4a 3d 94 e6 fe 3d bd 89 47 3e 09 cc d3 3c
       0.04953012 0.12446323 0.19486137 0.025854127
000170 6d 14 45 bb d9 0b b5 3c df 2f 64 bc 93 f6 5b be
       -0.003007199 0.022100376 -0.013927429 -0.2148078
000180 8b c9 ac 3e d7 ab 59 3e 08 a4 27 3d e1 d7 89 bc
       0.33747515 0.21256958 0.040927917 -0.016826572
000190 5b 95 08 bd 58 27 c7 3d 75 8e 1c 3e 52 af f4 3c
       -0.03334556 0.09724301 0.15288718 0.029868755
0001a0 a4 48 ef bd 22 54 54 3d 63 cd 3a bd d1 29 5d be
       -0.11683777 0.051838048 -0.04560603 -0.21597983
0001b0 d5 bf 2b 3d d5 7a a9 3e c5 b0 45 3e d1 d5 55 3c
       0.041930992 0.33101526 0.19305713 0.013051466
0001c0 b2 10 b7 3c 3f 45 d6 3d 3f a9 d7 3d db fa c7 bc
       0.022346828 0.104624264 0.10530328 -0.02441161
0001d0 fc 57 c5 bd 0c 82 d1 3d 1a 61 d7 bd df 43 7f 3e
       -0.09635922 0.102298826 -0.105165675 0.24928235
0001e0 c2 72 a9 be 41 2f 4a 3e 1f 0a e7 3e 8e a5 27 3e
       -0.33095366 0.19744588 0.4512491 0.16371748
0001f0 f2 b3 6b 3d c8 d0 7a 3d 83 31 66 3d fe f1 a6 bc
       0.057544656 0.061234266 0.05619956 -0.020379063
000200 a8 29 cb bd 02 28 ff bd d7 dc a6 3c 9b dc b5 3e
       -0.09920055 -0.12458803 0.020368977 0.3551987
000210 12 d3 80 bd 11 fe 4e 3d 74 23 9c 3e 63 c2 4a 3e
       -0.062902585 0.050535265 0.304958 0.19800715
000220 0c 38 31 3d 13 5f 23 3e 7f 3e 06 3d fc 90 cd bd
       0.04326634 0.15954237 0.032774445 -0.10037419
000230 0d b5 05 be d3 57 42 3d 34 12 11 3e f6 af 9b bf
       -0.13057347 0.047447037 0.141671 -1.2163074
000240 0c b0 8b bf 87 6a 3b bf 1c 95 37 bf 71 e4 b2 be
       -1.09131 -0.7320942 -0.717119 -0.34939912
000250 40 fe 46 be cb 01 90 be e6 ec f0 be 1e ac ea be
       -0.19432926 -0.28126368 -0.4705574 -0.4583444
000260 8b 93 0b bf 00 d6 4a bf a7 c3 15 bf 68 07 0f bf
       -0.5452201 -0.7923279 -0.58501667 -0.55870676
000270 ef 2e 90 bf 04 de f5 be d3 0d 89 bd de 71 21 bc
       -1.1264323 -0.48020947 -0.0669209 -0.009853808
000280 94 3d 9d 3e d9 01 a0 3d aa 24 4d be 93 58 01 bd
       0.30711043 0.078128524 -0.20033517 -0.03157861
000290 98 ee a0 bd e7 35 8d be 26 45 93 be 17 42 a0 be
       -0.07858008 -0.27580187 -0.28763694 -0.31300423
0002a0 79 35 3f bf ac 2e 68 be a9 33 9d 3d bf 06 84 3e
       -0.7469097 -0.22674054 0.07675869 0.25786397
0002b0 75 69 c5 3e ab 9f 80 3e 57 d4 2b 3e 3f 20 87 3e
       0.3855702 0.25121817 0.1678022 0.2639179
0002c0 39 a6 e0 3d 32 6b 1e bd 36 93 96 be 37 a8 c4 be
       0.109692045 -0.03867645 -0.29409188 -0.38409588
0002d0 27 b9 9a be fe 23 14 bc c9 50 f7 3d d5 42 97 3e
       -0.30219385 -0.009041784 0.120759554 0.29543176
0002e0 ab 49 ac 3e 91 1a 5a 3e a1 ec 29 3e 20 b9 87 3e
       0.33649954 0.21299197 0.16594173 0.26508427
0002f0 43 8f 84 3e 8b 53 23 3e f8 d5 d5 3d 6f df 85 be
       0.2589055 0.15949838 0.10441202 -0.2614703
000300 c0 ea f0 be 82 fd 1e be 6f 30 85 3d 13 8d 98 3e
       -0.470541 -0.15526393 0.065033786 0.2979513
000310 12 83 76 3e 2b 68 1c 3d d9 83 cb bd a8 1c ed 3d
       0.24073437 0.03818528 -0.09937257 0.11577731
000320 a7 31 2a 3e 5f 7a 81 3e 39 0a 53 3e 8b 34 de be
       0.16620503 0.25288674 0.20609368 -0.43399462
000330 f0 01 7a be aa a7 c4 3d 6b 58 3e 3e 43 2a 0f 3e
       -0.24414802 0.09602292 0.18588416 0.13980965
000340 6f bf 01 3d 79 58 b7 be 65 3e f4 be 26 45 46 be
       0.031676706 -0.35809687 -0.47703853 -0.19362316
000350 26 7a 83 3d 3a 91 de 3d 35 c9 f1 3d 24 ec 99 be
       0.06419782 0.108675435 0.11805955 -0.30062973
000360 0e 68 21 be 81 21 16 3e a6 d7 97 3e 89 3b 01 3e
       -0.1576235 0.14661218 0.29656714 0.12620367
000370 30 c4 16 be d9 bd fe be cd 90 34 bf 39 14 8e be
       -0.14723277 -0.49754217 -0.7053345 -0.27749804
000380 f4 88 ac 3d 1a 69 47 3d 33 b1 f3 3d 0c a6 5d bd
       0.08424559 0.048684217 0.118990324 -0.054113433
000390 22 69 8a bd b9 9d 23 bd b7 a7 4e 3e f2 85 08 3e
       -0.06758334 -0.039945338 0.20181166 0.13332346
0003a0 ba c6 61 bd 97 30 8b be 85 f1 03 bf a8 c3 03 be
       -0.05512116 -0.2718551 -0.51540405 -0.12867606
0003b0 11 42 83 3e 93 af 84 3e f0 ab 0d 3e 36 4c 8d be
       0.25636342 0.25915202 0.1383512 -0.27597207
0003c0 3c 17 85 3d b1 d2 1a be f9 00 20 3d f7 2d 25 3e
       0.06498572 -0.15119435 0.039063428 0.16130815
0003d0 3b 72 37 3e 36 29 4b bc 83 30 49 be c2 33 c8 3d
       0.17914669 -0.012399962 -0.19647412 0.09775497
0003e0 47 8b cc 3e 40 97 bc 3e 2f 27 4f 3e e6 61 74 be
       0.3995001 0.36834145 0.20229791 -0.2386547
0003f0 2b 04 89 be 4a 9e 2c be 7a 66 fd 3d c7 b9 99 3e
       -0.26760992 -0.16857257 0.123730615 0.3002455

fc.bias f4 [8]
000000 20 08 61 bf f8 98 bb be be 4c c4 3d c2 ed 8a be
       -0.8790302 -0.36640143 0.0958495 -0.2713452
000010 a6 33 9c be 0b fb 84 3f 27 64 c5 3e e9 d0 ad 3e
       -0.30508155 1.0389112 0.38552973 0.33948448
