Baseline_Results/k=2/max/local/Feature_Extraction/BloodMNIST/Net/Run_2/Best_Weights.pt (torch, 15869 bytes, 4 tensors)

conv1.weight f4 [3, 3, 3, 3]
0	0xbee13c04	-0.439911
1	0x3e288c87	0.16459857
2	0x3e7774b4	0.24165612
3	0x3e061fbf	0.13098048
4	0x3ebe9a7b	0.37227234
5	0x3f024830	0.508914
6	0x3eb48f1b	0.3526543
7	0x3f0b21bb	0.54348344
8	0x3f25f277	0.64823097
9	0xbf4319f1	-0.7621146
10	0xbee6fed4	-0.45116293
11	0xbe897060	-0.26843548
12	0xbedff33f	-0.4374027
13	0xbe43f593	-0.19136648
14	0x3decddff	0.1156578
15	0xbe67d2cf	-0.22639011
16	0xbe1dca0f	-0.1540911
17	0xbe4ed772	-0.20199373
18	0xbe83c1cf	-0.25733802
19	0x3dd3b8ff	0.103380196
20	0x3e8e7438	0.27823043
21	0x3e0d4965	0.13797529
22	0x3f193df3	0.5986015
23	0x3f2dde92	0.6791774
24	0x3dd8c276	0.105839655
25	0x3f1d3b6e	0.6141881
26	0x3ecce18f	0.40015838
27	0xbdfbf0d0	-0.12301791
28	0xbdc926b6	-0.09821837
29	0xbede79ed	-0.43452397
30	0xbe9cf7e6	-0.30657881
31	0xbdc18fa7	-0.09451228
32	0xbe269d89	-0.16271032
33	0xbe7ec37b	-0.24879257
34	0xbe47abf8	-0.19499195
35	0xbf30ca6a	-0.6905886
36	0x3eda4998	0.42634273
37	0x3e9e3d04	0.30905926
38	0x3ebb0676	0.36528367
39	0x3f12aeaf	0.57297796
40	0x3f3257e0	0.69665337
41	0x3e961fb0	0.2932105
42	0x3e8cf61a	0.2753151
43	0x3ebb0324	0.36525834
44	0xbeb33d1f	-0.3500757
45	0x3e7a8d53	0.24467973
46	0x3e3e4b01	0.18583299
47	0x3ead6688	0.33867288
48	0x3ef19314	0.47182524
49	0x3ed75442	0.4205647
50	0x3edf0cad	0.43564358
51	0x3eea4dcb	0.45762476
52	0x3e4d87dd	0.20071359
53	0xbcf5303f	-0.029930232
54	0x3f570d77	0.8400492
55	0x3f83bcd5	1.0292002
56	0x3f4ea936	0.80726945
57	0x3f87ad8b	1.0599836
58	0x3f960409	1.1719981
59	0x3f70eeba	0.9411427
60	0x3f01d1a5	0.5071052
61	0x3f1ef045	0.6208537
62	0x3eb5728d	0.35438958
63	0xbecac48e	-0.39603084
64	0xbf04ee53	-0.51926154
65	0xbf09a0da	-0.53761065
66	0xbe373cb2	-0.17894247
67	0xbebe7a4c	-0.3720268
68	0xbee24a09	-0.4419711
69	0xbe8f6fb0	-0.28014898
70	0xbe99bcfb	-0.30026993
71	0xbf0f259b	-0.55916756
72	0xbf324529	-0.6963678
73	0xbf1b439f	-0.60650057
74	0xbf509a4f	-0.81485456
75	0xbee36148	-0.44410157
76	0xbf4227d3	-0.75842017
77	0xbf3da9aa	-0.7408701
78	0xbf029371	-0.5100623
79	0xbebed653	-0.3727289
80	0x3e715393	0.23567037

conv1.bias f4 [3]
0	0xbe9bb2e7	-0.3040993
1	0x3f51d3d5	0.81963855
2	0x3c15df73	0.009147513

fc.weight f4 [8, 432]
0	0xbd38b795	-0.045096952
1	0x3e0e7d41	0.13914968
2	0x3dbf6140	0.09344721
3	0x3dd25a64	0.10271147
4	0x3e09f75e	0.1347327
5	0x3e70d85a	0.23520032
6	0x3d12015c	0.035645828
7	0x3dcba25c	0.09943077
8	0xbc8e6202	-0.017380718
9	0xbe3a95e9	-0.18221249
10	0x3b29ea46	0.0025926991
11	0xbd91730a	-0.0710202
12	0xbd27ae83	-0.04093791
13	0xbcee1399	-0.02906208
14	0x3b9e0858	0.004822772
15	0x3d69d1b6	0.05708476
16	0x3d828371	0.06372727
17	0x3dac0f43	0.084013484
18	0x3df405c7	0.119151644
19	0x3d747160	0.059678435
20	0x3d7f52ef	0.06233495
21	0x3e16eddc	0.14739174
22	0x3e3a0332	0.18165281
23	0x3e92b6d7	0.2865512
24	0xbd1ad916	-0.037804686
25	0xbe097855	-0.1342481
26	0x3da9f510	0.08298695
27	0x3dad48da	0.08461161
28	0x3d29450b	0.04132561
29	0x3d2f26a0	0.042761445
30	0x3ea58fdf	0.32336327
31	0x3e24d0a4	0.16095215
32	0xbd3eb9bd	-0.046563853
33	0x3e1b3236	0.15155873
34	0x3db5d4d7	0.088784866
35	0x3e085b7a	0.13316146
36	0xbde976ef	-0.11399638
37	0x3d5310be	0.05152964
38	0xbdafdd68	-0.08587152
39	0x3e663c76	0.22484002
40	0x3eee4cb4	0.46542895
41	0xbd06c374	-0.032901242
42	0xbe95b17f	-0.2923698
43	0x3d219ea1	0.03945792
44	0x3ee760d5	0.45191064
45	0x3e76e8ac	0.24112195
46	0x3e950903	0.29108438
47	0x3c90919c	0.017647557
48	0xbd83f7d4	-0.06443754
49	0x3d8743f4	0.06604758
50	0x3e0c97c5	0.1372977
51	0x3e50fbd1	0.2040856
52	0xbcfe6b7c	-0.031057112
53	0xbe851092	-0.25989205
54	0xbd67350a	-0.056447066
55	0xbe7dcd6d	-0.24785395
56	0x3d9f69b9	0.07783837
57	0xbcf3cf02	-0.029761795
58	0x3e708aa7	0.23490392
59	0xbd685942	-0.056725748
60	0xbd2b8241	-0.041872267
61	0xbd6772c8	-0.05650595
62	0x3db4a4f9	0.088205285
63	0x3c9891cf	0.018624214
64	0xbca0283f	-0.01955044
65	0x3de0065b	0.10938712
66	0xbd673a18	-0.056451887
67	0xbed8018b	-0.42188677
68	0xbcd06cc6	-0.025442492
69	0x3c8df3a3	0.01732809
70	0x3ddb05c2	0.106944576
71	0xbd8da8bb	-0.069169484
72	0xbe0ca120	-0.1373334
73	0x3cb0f749	0.02160229
74	0x3e5fe559	0.21864833
75	0xbec1a219	-0.37818983
76	0xbeab67e3	-0.33477697
77	0xbed70b3e	-0.42000765
78	0xbf0d652c	-0.552325
79	0xbded74b4	-0.11594525
80	0xbed27899	-0.41107634
81	0x3d4cd5ed	0.050008703
82	0x3e6b8cee	0.23002979
83	0x3e0b8d38	0.1362809
84	0xbd77a0dd	-0.060456146
85	0xbcd67dea	-0.026183087
86	0x3ed57d00	0.4169693
87	0x3d877600	0.066143036
88	0xbe357857	-0.17721687
89	0xbe9d3543	-0.30704698
90	0xbe9d93f7	-0.3077695
91	0xbe11753e	-0.1420488
92	0xbd94d822	-0.072677866
93	0x3e278e51	0.16362883
94	0x3e614337	0.21998297
95	0x3cf5a1a5	0.029984305
96	0xbe2e2dc7	-0.1700965
97	0x3decc1ba	0.11560388
98	0x3ea9e875	0.33185163
99	0x3ee769dc	0.45197952
100	0xbc1e7468	-0.009671308
101	0xbe939bfc	-0.28829944
102	0xbe98dd60	-0.29856396
103	0x3d895655	0.0670592
104	0x3e0d3432	0.13789442
105	0x3e4f1a1e	0.20224807
106	0x3e40bbe4	0.18821675
107	0x3e2a9ffa	0.16662589
108	0xbd6ef3ef	-0.058338102
109	0x3a8112f3	0.0009847566
110	0x3e5a3c4e	0.21312067
111	0x3e00eed6	0.12591109
112	0x3e0c7438	0.13716209
113	0x3e53cc50	0.20683408
114	0x3d88fa8b	0.06688412
115	0x3db7265e	0.08942865
116	0x3e003b04	0.12522513
117	0x3ecf13e6	0.4044487
118	0x3e175490	0.14778352
119	0x3cea36b3	0.028590536
120	0x3c62bef1	0.013839469
121	0x3c1df1ef	0.009640201
122	0x3e04c7f2	0.12966898
123	0x3ecf610d	0.4050373
124	0x3db550b8	0.088532865
125	0x3e28c80a	0.16482559
126	0x3e15a36b	0.1461312
127	0x3e6763a8	0.2259661
128	0x3ea6841b	0.32522663
129	0x3df5fba8	0.1201089
130	0x3e0cb4b8	0.13740814
131	0xbd27b001	-0.040939335
132	0x3bc2e60a	0.005947833
133	0x3e3e6fe5	0.18597372
134	0x3e442ecb	0.19158475
135	0x3c9266f9	0.017871367
136	0x3e63bf90	0.22241044
137	0xbcb8ebba	-0.02257334
138	0x3e4a2129	0.19739212
139	0x3defab32	0.11702575
140	0x3db272f4	0.08713332
141	0x3e28c079	0.16479672
142	0x3dda6fda	0.10665865
143	0x3c88319d	0.01662522
144	0x3e7681b8	0.24072921
145	0xbd7cf3ba	-0.061755873
146	0x3dd84d98	0.10561675
147	0xbd8e82be	-0.06958531
148	0xbde49fff	-0.11163329
149	0xbce19d05	-0.027540693
150	0x3d92820e	0.07153712
151	0x3ca0c3ef	0.019624678
152	0x3b8b74b4	0.0042558555
153	0x3de8e943	0.11372616
154	0x3c8a9d7a	0.016920794
155	0x3e6491df	0.2232127
156	0x3e027ff1	0.12744118
157	0xbd3e6c17	-0.0464898
158	0x3cc57e0d	0.024107957
159	0xbdb0c96c	-0.08632168
160	0x3c829c2d	0.015943611
161	0x3cb8fd25	0.022581646
162	0x3e539da4	0.20665604
163	0x3e4f89eb	0.20267455
164	0x3d6dca10	0.05805403
165	0x3da113df	0.07865118
166	0x3cd28faf	0.02570328
167	0xbc1c3efd	-0.009536502
168	0x3e08e7cd	0.13369675
169	0xbb6d0130	-0.0036164038
170	0xbd83310c	-0.06405839
171	0x3d914cbe	0.070947155
172	0x3e2efcef	0.17088674
173	0xbd8c1716	-0.06840341
174	0x3dc2600b	0.09490975
175	0x3d1d9a44	0.038477197
176	0xbdcf757c	-0.1012983
177	0xbde76cee	-0.113000736
178	0xbc5702eb	-0.013123254
179	0xbeaad09c	-0.3336228
180	0xbe1db0fb	-0.15399544
181	0xbe27bccd	-0.16380616
182	0x3ad5a2ea	0.0016299163
183	0x3d182f63	0.037154566
184	0xbde64ef4	-0.11245528
185	0xbec879b1	-0.39155343
186	0xbe5aa16a	-0.21350637
187	0xbef71d9e	-0.48264784
188	0xbdc89df7	-0.097957544
189	0xbd917b6f	-0.07103621
190	0x3db92db7	0.090419225
191	0xbcbadebf	-0.022811292
192	0xbcac99e9	-0.021069484
193	0x3d9a54cf	0.07535707
194	0xbda43c5d	-0.08019326
195	0xbd8735e4	-0.06602076
196	0xbe3a1a24	-0.18174034
197	0xbf2c5d09	-0.6732946
198	0xbef5309b	-0.47888646
199	0xbe7a9b3b	-0.24473278
200	0xbe72cacb	-0.23710172
201	0xbc289060	-0.010288328
202	0xbe4d02a2	-0.20020536
203	0xbdcb510a	-0.09927566
204	0x3c564b5e	0.013079492
205	0x3e4c03cd	0.19923325
206	0xbd921d12	-0.07134451
207	0xbea411a3	-0.32044706
208	0xbf2554d5	-0.6458257
209	0x3c18d05d	0.009327021
210	0x3ea305ac	0.31840265
211	0xbecbea77	-0.3982732
212	0xbeaf39c4	-0.3422376
213	0xbe4d7df0	-0.20067573
214	0xbe1bd131	-0.15216519
215	0xbe038fea	-0.12847868
216	0xbde47003	-0.11154177
217	0x3da1d6d5	0.07902304
218	0xbe015869	-0.12631382
219	0xbee42f47	-0.4456732
220	0xbe6992ef	-0.22809957
221	0x3e49bac9	0.19700159
222	0xbd04e7e2	-0.032447703
223	0x3ea27a5e	0.31733984
224	0xbec7ad05	-0.3899919
225	0xbdc6be74	-0.09704295
226	0x3e07abda	0.1324915
227	0xbead5a15	-0.3385779
228	0xbda977d3	-0.08274808
229	0x3e0aefce	0.1356804
230	0x3e1e6a99	0.15470351
231	0xbeaaacff	-0.3333511
232	0xbef55024	-0.47912705
233	0x3e41a7f7	0.1891173
234	0x3e929f0d	0.2863697
235	0x3e232199	0.15930785
236	0xbecd4136	-0.40088814
237	0xbd5e48f9	-0.05426881
238	0xbc52666c	-0.012841802
239	0xbe915652	-0.2838617
240	0x3dfd2778	0.12361044
241	0x3db244df	0.08704542
242	0x3d9f1aeb	0.07768806
243	0x3e358c6a	0.17729345
244	0xbf0cb040	-0.54956436
245	0xbe02e402	-0.1278229
246	0xbce8042e	-0.028322306
247	0xbeab3eab	-0.3344625
248	0x3e18056a	0.14845815
249	0xbe71539b	-0.23567049
250	0xbe613d04	-0.21995932
251	0xbe007134	-0.12543184
252	0x3e3b238f	0.18275283
253	0xbda6c9da	-0.08143969
254	0xbd47060e	-0.04858976
255	0xbe28d0aa	-0.16485849

fc.bias f4 [8]
0	0xbd8a0672	-0.067395106
1	0xbe44b3b3	-0.19209175
2	0x3eb9a659	0.36259726
3	0x3f2d03ef	0.6758413
4	0xbe41cb11	-0.1892512
5	0xbda99558	-0.08280438
6	0xbf1df194	-0.61696744
7	0xbf172170	-0.59035397
