Baseline_Results/k=5/max/local/Feature_Extraction/BloodMNIST/Net/Run_3/Best_Weights.pt (torch, 9789 bytes, 4 tensors)

conv1.weight f4 [3, 3, 3, 3]
00000000: 7588 3abe 33cd f7be 2d95 9dbe af89 f7be
00000010: b3bd 0cbf cdc5 29bf cc07 d3be e097 19bf
00000020: bfbe 22bf 4184 173e 8b22 1dbe ccae d1bd
00000030: 481e 87bc 3b96 dfbe 1a0c c5be 1fd4 0cbd
00000040: 9813 02bf a750 babe 933f b93d d8be 52be
00000050: bb2c cd3c f0a0 343e 4cd4 2abf 3ef9 81be
00000060: 87f0 2b3e d26f 9ebe b8f8 b53d 76f8 dcbe
00000070: 6972 123e a9d8 1c3e 017e 2a3d ea4b 7c3e
00000080: a1a1 ac3e 9b0f 80be 2b97 313e 82c8 e63c
00000090: e7f8 a5be 3582 b93d bd60 9e3e 7122 8c3e
000000a0: d0e0 3d3f b4b0 293f f327 e2bc 0112 fc3e
000000b0: 53bb bf3e 3f60 5b3e 2550 0d3f c978 aa3e
000000c0: 1d6a d93e b32d 133f 8991 0a3e badb 1cbe
000000d0: 6502 cf3d 5635 133c 0502 283f c3ac 423f
000000e0: 3047 603f 19f2 543f 1c05 3e3f 97bd 513f
000000f0: 1ce5 573f 8ad1 3d3f ce21 2b3f 02cc 5fbf
00000100: 817d 2abf 86c7 cfbd 69bc 1dbf bca0 a2be
00000110: b8e2 e2be c04b debe 18a4 64be 0adf 1bbe
00000120: 3656 efbe 6130 0bbf 4d93 80be f74c 38be
00000130: 24de 06be 32d5 efbe 2db6 fbbe abd7 b8bd
00000140: 57c2 12bf
-0.18216117 -0.48398742 -0.30777875 -0.48347232 -0.5497696 -0.66317445 -0.41216886 -0.5999737
-0.63572305 0.14796545 -0.15345208 -0.10238418 -0.016493931 -0.43669304 -0.38485795 -0.034381982
-0.5081115 -0.36389658 0.09045329 -0.20580614 0.025045743 0.17639518 -0.6673019 -0.2538547
0.16790973 -0.30944687 0.0888533 -0.4315831 0.14301457 0.15317024 0.041624073 0.24638334
0.33717063 -0.25011906 0.17342822 0.028171781 -0.3241646 0.09058038 0.3093318 0.27370027
0.7417116 0.6628525 -0.02760694 0.49232486 0.37447605 0.21423434 0.55200416 0.33295277
0.4246377 0.57491606 0.1353208 -0.15318194 0.101078786 0.008984884 0.6562808 0.76044863
0.87608624 0.8318191 0.74226546 0.81929916 0.8433397 0.74147856 0.66848457 -0.87420666
-0.66597754 -0.10145478 -0.61615616 -0.31763256 -0.44313598 -0.43417168 -0.22328222 -0.15221801
-0.4674546 -0.54370695 -0.25112382 -0.1799811 -0.13170677 -0.46842343 -0.49162427 -0.090255104
-0.5732779

conv1.bias f4 [3]
00000000: 3fe1 b9be 85a0 c03e 9225 1bbf
-0.36304662 0.37622467 -0.606042

fc.weight f4 [8, 243]
00000000: 07b2 bf3e 6cc4 303e 02f5 e13d 3f42 d23b
00000010: b703 a2bc 2194 8b3d e710 413e 3378 363e
00000020: 9797 d03e 1e36 6f3e 7a50 3bba 7d76 023d
00000030: 4600 34bd 8643 4abe 980b 4cbd 6dd0 df3c
00000040: bfb2 bcbd f9ab 0e3e 0e6e 2a3e 091b 863d
00000050: 508e 523d 09cb e33d 4216 303d db5e 803c
00000060: 1915 3cbd 9881 84bd aabf 0c3e 06fd e4ba
00000070: 6115 c6bc 1009 2a3e 6fbd 1f3e f6e7 2e3d
00000080: 3c76 8a3d 2aa6 143c 6257 24be 46b1 133d
00000090: 62ef d2bd b7ae 23be f86e e93c 490f 093e
000000a0: 8d07 84bd 5024 b3bd 2306 f8bd 9273 debd
000000b0: 478b 03be 7489 0ebe fd2b 00bd 66e3 d33d
000000c0: 4b45 033e d2a1 a2bd abda 123d ba78 a93a
000000d0: b066 dcbd 93ef 7bbd cea0 113e 066d 0e3d
000000e0: ecbf 013e 8b4e 6f3e dc6d b6bc 1dd8 e73d
000000f0: 9e65 323e 760f 4a3d 16e4 3c3e 8e67 363e
00000100: 6f90 97bd f74a a83d d29a d43d 423e bfbd
00000110: 8ef6 efbc 305e b03d d939 bc3d f7de 813c
00000120: 07ff be3e bbfe b53d 9b19 333e 8f4b df3c
00000130: 2da3 a4bb 064c 883c a3ec 8c3d 09d0 0b3d
00000140: 121f 753e ddd8 c6bd f9cb 8bbd 26ec 1fbd
00000150: 277e 893d e59d 2dbd b132 f5bd 7afb 45bd
00000160: 144d 74bd 942f 7ebc 3b54 4d3c 6a40 6b3d
00000170: ab56 313c 14c0 323d d13f c13d c03c c33d
00000180: 913c 6e3d b086 543d 7f77 efbc 9d26 413d
00000190: c70a cf3d 3c7e 7b3d 377c 113d 12db 923d
000001a0: e878 cebd d579 ba3c a4a1 2dbd 6321 8dbd
000001b0: 0d25 b23d a16a 99bc d6b6 2bbe 9567 e7bd
000001c0: d772 97bc 1d68 7dbd 7659 1abe 5f1a 123c
000001d0: 60ac febc 155a e13d 9bce c83c 3dd1 80bd
000001e0: 0c03 52be 7046 21bf a58f 56be cf90 1d3d
000001f0: f9b6 dc3d 047f 95bd df1c b8bd 8407 7cbd
00000200: 6bc4 e53c 9b87 d53b 4996 7bbf af38 d8bd
00000210: 1620 473d 1e04 3fbd ecc6 8e3d ca3c a23d
00000220: fc07 cf3b 5820 c8bd 3781 55be 5576 0fbe
00000230: c5c5 8fbe a3bc 25be b568 3bbd 7810 073c
00000240: 0238 9d3d fee4 443d f05d 67bd 455c 2fbe
00000250: 89c0 093e 073e 2bbd a7f0 47bd 7b8b 2d3c
00000260: 7ecd 95bd c9da d83d f74b 9c3b bc51 82bc
00000270: 0bfd c03b 25f6 c3bd d0f7 ea3b 3b4f a1bd
00000280: ea03 22bd d513 85bd 7992 aebe a555 2dbe
00000290: 0fe4 a0bc 1e5c e3bd 7114 7fbd 6851 8bbc
000002a0: 8eec c1bd 3156 c1bd bb73 4abe ba78 77be
000002b0: 5c4c 34be efc9 abbd e00b 94bb b83b 523d
000002c0: ccf8 f3bd 6232 ecbd 6374 25be 14f9 82be
000002d0: 40af 67be 6450 8bbd 000d 22bd f4e3 7f3d
000002e0: 673f 0c3e 1028 243e 2f35 74bb 604d 4e3c
000002f0: 112a b0bd 04ce ecbd ba26 59bd b3ca 25bc
00000300: cdb2 c63e f827 c83e 04f6 413e b84c 203e
00000310: 25ab 4e3e e8e7 7abd 8296 90bd d3bd dd3b
00000320: eb62 3a3e fb0f b33e 01a8 00be 6430 1c3e
00000330: 2356 cf3d ca30 d73d 9ae1 823d 3792 dbbd
00000340: 7234 133d d74b ae3e 067b d1ba f2b8 35be
00000350: fb16 74be f567 143c 78c7 813e 3272 5c3d
00000360: f86d 02be 66c7 08bd b69f 043e 4069 48be
00000370: 0ae6 90bc a842 e73d 773a 793e a9b0 223e
00000380: dea8 ab3c e09d 22be 18cb 37be ccb8 7a3d
00000390: ed85 863e 3efc 983e f44d bd3e 4cba 8a3e
000003a0: 3473 093e e420 a63b 5454 74be 93c8 52be
000003b0: babe 0abd 30b4 47bd d126 ff3d 7f00 833e
000003c0: 670b 243e c088 f73d fc6a b1bd b29a 2bbd
000003d0: a3bf c93d 5c42 c9bd 09aa c73d aeab 393e
000003e0: d282 7b3e 1f1e 1b3e 27e6 363d 87d4 e03b
000003f0: a511 bebd 58b3 d53d 3b51 9cbd 5401 423e
0.37440512 0.17262429 0.1103306 0.0064165886 -0.019777162 0.06815363 0.18854104 0.1781929
0.40740654 0.23360488 -0.0007145476 0.03185128 -0.043945573 -0.1975232 -0.049815744 0.027321065
-0.092137806 0.1393279 0.16643545 0.06548125 0.05140525 0.1112271 0.042989977 0.01567023
-0.045918558 -0.064700305 0.13744989 -0.0017470426 -0.024180116 0.1660502 0.15599607 0.042701684
0.06760833 0.00907282 -0.16048959 0.036057733 -0.10299565 -0.15984617 0.028495297 0.13384737
-0.06446753 -0.087471604 -0.121105455 -0.10861887 -0.12846099 -0.13919622 -0.03129195 0.10346107
0.12819402 -0.07941021 0.03585307 0.0012929656 -0.107617736 -0.061507773 0.14221498 0.03477194
0.12670869 0.23369806 -0.022269182 0.11320517 0.17421576 0.04933115 0.18446383 0.1781294
-0.074005954 0.082174234 0.10381092 -0.093380466 -0.029292371 0.08611715 0.09190721 0.015853388
0.37303945 0.088864766 0.17490236 0.027257709 -0.005024335 0.016637813 0.06881072 0.034133945
0.23937634 -0.09709332 -0.06826014 -0.039043568 0.06713515 -0.042386908 -0.11972559 -0.04833553
-0.05964382 -0.015514273 0.012532289 0.057434477 0.010823886 0.04364021 0.09436 0.095330715
0.05816323 0.05188626 -0.029231785 0.047155965 0.101094775 0.061399683 0.03551885 0.071706906
-0.10081655 0.022763172 -0.04239048 -0.06891134 0.08698473 -0.018727602 -0.16768965 -0.112990536
-0.018487377 -0.06186687 -0.15073189 0.00891742 -0.031088054 0.1100351 0.02451258 -0.06289909
-0.20508975 -0.62998104 -0.20953234 0.03846818 0.10777087 -0.07299617 -0.08989882 -0.061530605
0.028047761 0.0065164096 -0.9827619 -0.105576865 0.048614584 -0.046634786 0.06971535 0.07921751
0.0063180905 -0.09771794 -0.20850073 -0.14009984 -0.28080574 -0.1618524 -0.045754153 0.008243673
0.07676698 0.048069946 -0.05648607 -0.17125042 0.13452353 -0.0418072 -0.04881349 0.010592337
-0.07314585 0.10588605 0.004769798 -0.015908115 0.00588954 -0.09568433 0.007170655 -0.0787644
-0.039554514 -0.06497923 -0.34096125 -0.16927202 -0.019639997 -0.11101554 -0.062275354 -0.017006591
-0.09468947 -0.09440268 -0.1977071 -0.24167147 -0.17607254 -0.08388125 -0.004518017 0.051326483
-0.119126886 -0.11533047 -0.1615768 -0.25580657 -0.22625446 -0.06802443 -0.03956318 0.062473252
0.13696061 0.16030908 -0.0037263145 0.01259169 -0.086017735 -0.11562732 -0.05301545 -0.010119128
0.3880829 0.39092994 0.18941504 0.15654266 0.20182474 -0.06125632 -0.07059957 0.0067670136
0.18201797 0.3497313 -0.12564088 0.15252835 0.10123851 0.10507353 0.06390686 -0.10721248
0.035938688 0.34042236 -0.0015982098 -0.17746332 -0.23836891 0.009057988 0.25347495 0.053819843
-0.12737262 -0.033393286 0.1295155 -0.195714 -0.017687816 0.112920105 0.24338709 0.15887703
0.020954546 -0.15880537 -0.17948568 0.061211392 0.26274052 0.29879946 0.36973536 0.27095258
0.13422853 0.005069839 -0.23860294 -0.20584325 -0.033873297 -0.048755825 0.124585755 0.25586316
0.16019975 0.1208663 -0.08662984 -0.041895576 0.09851005 -0.0982711 0.097492285 0.18131897
0.24561623 0.15148209 0.044653084 0.0068612727 -0.09280709 0.10434598 -0.07632681 0.18945819

fc.bias f4 [8]
00000000: e01b d2bd 014b ddbe 5bf3 4fbe 1c44 973e
00000010: 3514 3dbe ae9d f13e f503 9ebe 6c53 e3bd
-0.10259223 -0.43221286 -0.20307676 0.2954415 -0.1846474 0.47190613 -0.30862394 -0.11099896
