Baseline_Results/k=4/avg/local/Feature_Extraction/BloodMNIST/Net/Run_2/Best_Weights.pt (torch, 11645 bytes, 4 tensors)

conv1.weight f4 [3, 3, 3, 3]
0	0xbcf0a535	-0.029375652
1	0x3ec56ae0	0.38558102
2	0x3cf3434d	0.029695177
3	0x3ea92847	0.33038542
4	0x3ec75091	0.38928655
5	0x3e402e80	0.18767738
6	0x3e90110d	0.2813801
7	0x3ea5b053	0.32361087
8	0x3e6ca5b6	0.23110089
9	0xbe9f7db7	-0.311506
10	0xbdadbb5c	-0.084830016
11	0xbe8b8d36	-0.27256173
12	0xbe01e7ff	-0.12686156
13	0x3cdbb546	0.026819836
14	0x3d1341ad	0.035951305
15	0xbe6a11a5	-0.22858293
16	0xbe7c7a62	-0.2465606
17	0xbee1c8f5	-0.4409863
18	0x3eabda2d	0.33564892
19	0x3f034dfa	0.5129086
20	0x3ea6e9ac	0.32600152
21	0x3f16cfdf	0.58910936
22	0x3f790684	0.9727557
23	0x3f644fed	0.8918446
24	0x3e5f4673	0.21804218
25	0x3f475609	0.77865654
26	0x3f114a59	0.5675407
27	0xbe4995e3	-0.19686083
28	0xbd98fad7	-0.07469719
29	0xbf02226a	-0.5083376
30	0xbecd848c	-0.40140188
31	0xbdcfc495	-0.10144917
32	0xbd9612c4	-0.07327798
33	0xbe94eaf5	-0.29085508
34	0xbe07d6a9	-0.1326548
35	0xbea11b84	-0.31466305
36	0x3e89376b	0.26800093
37	0x3ebb16eb	0.36540923
38	0x3ea0f579	0.3143728
39	0x3ec70e8c	0.38878286
40	0x3f35bf1a	0.7099472
41	0x3ef049bc	0.46931255
42	0x3e3511ff	0.17682646
43	0x3f0595a7	0.52181476
44	0x3e820bc6	0.25399607
45	0x3e04c49b	0.12965624
46	0x3e80e6d0	0.25176096
47	0x3da5f864	0.081040174
48	0x3ea7990b	0.3273395
49	0x3ef49ded	0.47776738
50	0x3ec4cfc1	0.38439754
51	0x3e7c1f71	0.24621369
52	0x3e5817a5	0.2110277
53	0x3ce1f7c8	0.027583972
54	0x3f8b47e3	1.0881313
55	0x3f813003	1.0092777
56	0x3f2517e1	0.6448956
57	0x3fa9cf7e	1.3266447
58	0x3f9ccadf	1.2249411
59	0x3f68ad31	0.9088927
60	0x3f47d561	0.78059965
61	0x3f3e20e5	0.74268943
62	0x3f06c773	0.52648085
63	0xbeb151cc	-0.3463272
64	0xbefdbd4f	-0.49558493
65	0xbf12761d	-0.57211477
66	0xbc6a8798	-0.014314555
67	0xbe6b4b93	-0.22978048
68	0xbeb16630	-0.34648275
69	0xbe94e7ab	-0.29083
70	0xbe8c8b4b	-0.27450022
71	0xbedf40af	-0.43604037
72	0xbf7158a5	-0.94275886
73	0xbf83cad8	-1.0296278
74	0xbf8d69ac	-1.1047873
75	0xbf04a14c	-0.5180862
76	0xbf78d559	-0.9720054
77	0xbf5f82ec	-0.87309146
78	0xbf33866d	-0.7012699
79	0xbf591ba5	-0.8480781
80	0xbe8c7544	-0.27433217

conv1.bias f4 [3]
0	0x3ec6c41c	0.38821495
1	0x3faec9d3	1.3655342
2	0x3d76cd9e	0.060254686

fc.weight f4 [8, 300]
0	0x3dfaf1e7	0.122531705
1	0x3d701dc1	0.058622126
2	0x3da64fa3	0.08120658
3	0x3dbaed30	0.09127271
4	0x3e297262	0.1654754
5	0x3e590378	0.2119273
6	0x3e2b06ba	0.16701785
7	0x3dd4aacd	0.1038414
8	0x3dc0281d	0.09382651
9	0x3e04648b	0.12928979
10	0x3db2a1d9	0.08722276
11	0x3d35a119	0.044343088
12	0x3e1c9726	0.15292034
13	0x3e292da6	0.1652132
14	0x3dd8e992	0.10591425
15	0x3dc347b2	0.09535159
16	0x3ddc0a20	0.10744119
17	0x3d8cac98	0.06868857
18	0x3e02043e	0.12696931
19	0x3e00e008	0.12585461
20	0x3de4f345	0.111792125
21	0x3d7a78fa	0.06115053
22	0x3e23bfa2	0.15991071
23	0x3e490f0c	0.19634646
24	0x3d0a8e02	0.033826835
25	0xbd9a83a3	-0.07544639
26	0xb8e1023c	-0.00010729252
27	0x3dd9f358	0.10642117
28	0x3dd4f007	0.10397344
29	0x3e379c56	0.17930731
30	0x3c4ab3fb	0.012372012
31	0xbd105824	-0.035240307
32	0x3d54ea1b	0.051981073
33	0xbdcfa20b	-0.10138329
34	0xbe73ac86	-0.23796281
35	0xbea3eb7e	-0.32015604
36	0xbeb0153c	-0.343912
37	0xbe11ebcf	-0.1425011
38	0x3ba09ada	0.0049012722
39	0x3e0d295f	0.13785313
40	0x3df653f6	0.12027733
41	0x3cf0ec83	0.029409653
42	0x3cfcb90c	0.030849956
43	0xbe953753	-0.29143772
44	0xbd97fd1e	-0.07421325
45	0x3e12ab2a	0.14323106
46	0xbef3d78f	-0.47625396
47	0xbe33f5bc	-0.17574209
48	0x3db6cb10	0.0892545
49	0x3de6941a	0.11258717
50	0x3db95736	0.09049837
51	0xbd6ad085	-0.057327766
52	0x3ded559f	0.115885966
53	0xbeb64908	-0.35602593
54	0x3e44462e	0.19167396
55	0x3f1efc5c	0.6210382
56	0xbec1b0a4	-0.3783008
57	0xbd7a6e9a	-0.061140634
58	0x3e13e046	0.14441022
59	0x3ddeff8b	0.10888585
60	0x3e39f275	0.18158896
61	0x3d8078d9	0.0627305
62	0x3dd5ead6	0.10445182
63	0xbe87cb9b	-0.26522526
64	0xbec5ecf8	-0.38657355
65	0xbe87bfd6	-0.26513547
66	0xbf4744e8	-0.7783952
67	0xbe04ed62	-0.1298118
68	0x3e0ebcb7	0.13939176
69	0x3e0d78a3	0.1381555
70	0x3e0c9352	0.13728073
71	0x39067f44	0.00012826646
72	0x3da74ae9	0.08168585
73	0xbd0b9ab0	-0.03408307
74	0xbe86ce15	-0.26329103
75	0xbe404c5b	-0.18779127
76	0xbea76702	-0.32695776
77	0x3db47430	0.088112235
78	0x3e38483d	0.17996307
79	0x3e38a457	0.1803144
80	0x3d06fd60	0.03295648
81	0xbcb0cde4	-0.021582551
82	0x3d83f8d9	0.06443948
83	0x3e101982	0.1407223
84	0x3d21334d	0.039355565
85	0x3dc7fc39	0.097649045
86	0x3e2a6162	0.16638711
87	0x3e803c05	0.2504579
88	0x3e5ba8e4	0.21451145
89	0x3e5d8e12	0.21636227
90	0x3e0ff5cb	0.14058606
91	0x3e24fc0a	0.1611177
92	0x3de2a54e	0.110666856
93	0x3e3f2e19	0.18669929
94	0x3db7a77f	0.08967494
95	0x3e0b20df	0.13586758
96	0x3e22f905	0.15915306
97	0x3e8c66a7	0.27422068
98	0x3e49c184	0.19702727
99	0x3e854715	0.26030794
100	0x3dd2fd87	0.10302263
101	0xbe1cb270	-0.15302444
102	0xbe0f0bd7	-0.1396936
103	0xbdb33346	-0.08750014
104	0xbcf3b84d	-0.029750967
105	0x3d8266b6	0.06367247
106	0x3dfac1fc	0.12244031
107	0xbd924499	-0.0714199
108	0xbdb1ff75	-0.08691303
109	0xbc1a77c1	-0.009427966
110	0x3db466f6	0.08808701
111	0xbe15bd5f	-0.1462302
112	0xbe06b38c	-0.13154429
113	0xbda0a6c3	-0.07844307
114	0xbd7ff12a	-0.06248585
115	0xbe22a2fd	-0.15882488
116	0xba9fa1d3	-0.0012178965
117	0xbd9348dd	-0.07191632
118	0xbe2740bf	-0.16333292
119	0xbd95c249	-0.073124476
120	0xbcb51378	-0.02210401
121	0xbdcb1aa4	-0.09917191
122	0xbdb49243	-0.0881696
123	0x3b0ce70b	0.0021500017
124	0xbe953164	-0.29139245
125	0xbe63eaac	-0.22257489
126	0xbe0bb42f	-0.13642953
127	0xbd685e20	-0.05673039
128	0xbdfacd2f	-0.12246167
129	0xbdc27210	-0.09494412
130	0xbdb2e48d	-0.08734999
131	0xbe00eb57	-0.12589775
132	0xbe33ecf2	-0.17570856
133	0xbe50694a	-0.20352665
134	0xbf2e51c5	-0.6809352
135	0xbf02d21f	-0.5110187
136	0xbecb8a89	-0.3975413
137	0xbe1e5bb8	-0.15464675
138	0xbd9ed358	-0.07755154
139	0x3d14ccf9	0.03632829
140	0x3cab9f53	0.020949995
141	0xbe1d4518	-0.15358388
142	0xbe2daae6	-0.16959724
143	0xbf1aa29f	-0.6040439
144	0xbefc5a3e	-0.492876
145	0x3e1a0f64	0.15044934
146	0xbf26ec47	-0.6520428
147	0xbe7eecd7	-0.24895035
148	0xbdd9e85e	-0.10640024
149	0xbd018a63	-0.031626116
150	0x3d89e419	0.06732959
151	0xbe7ee471	-0.24891831
152	0xbd5ac108	-0.053406745
153	0xbee0a335	-0.43874517
154	0x3eb2875d	0.348689
155	0x3fd4b0c1	1.6616441
156	0xbe587333	-0.21137695
157	0xbe0d2e07	-0.1378709
158	0xbda738b7	-0.081651144
159	0xbe293623	-0.16524558
160	0xbb32174a	-0.0027174526
161	0xbe130305	-0.1435662
162	0xbd2fc3ef	-0.042911466
163	0xbed20550	-0.41019678
164	0xbf3803bb	-0.7188069
165	0xbc580bd8	-0.0131864175
166	0xbf65a84a	-0.89709914
167	0xbec00be6	-0.37509078
168	0xbd0684cf	-0.0328415
169	0xbd79f6bc	-0.06102632
170	0xbd3ca1cb	-0.046052735
171	0xbe4f294c	-0.20230597
172	0xbd01c84b	-0.031685155
173	0x3da5d412	0.0809709
174	0xbebd582e	-0.36981338
175	0xbe9c0d2e	-0.30478805
176	0xbf20e63c	-0.6285131
177	0xbebae197	-0.36500236
178	0xbe17aa8b	-0.1481115
179	0xbe3cf238	-0.18451774
180	0xbb5a6d0e	-0.0033329162
181	0xbe88eed0	-0.267447
182	0xbe465a27	-0.19370328
183	0xbd799a37	-0.060938086
184	0xbe78613a	-0.24255839
185	0xbe532dfc	-0.2062301
186	0xbea6ba49	-0.32564
187	0xbe8ad387	-0.27114508
188	0xbe9fc1fa	-0.3120268
189	0xbe26b11c	-0.162785
190	0x3d096a70	0.033548772
191	0xbdec4dfd	-0.115383126
192	0xbe63a719	-0.22231711
193	0xbe10d5d3	-0.14144067
194	0xbe4f8641	-0.20266058
195	0xbe90be0b	-0.2826999
196	0xbe92d687	-0.28679296
197	0xbe86cd44	-0.2632848
198	0xbe884eb9	-0.2662256
199	0xbd5ce42f	-0.05392855
200	0xbedc4268	-0.43019414
201	0xbe45d510	-0.19319558
202	0xbdea5b77	-0.11443227
203	0xbdcf93d7	-0.1013562
204	0xbccf572e	-0.025310125
205	0xbda4c5a0	-0.080455065
206	0xbd0aa7ff	-0.03385162
207	0xbd339e70	-0.04385227
208	0xbe4fc619	-0.20290412
209	0xbee62bb8	-0.4495523
210	0xbe9e5299	-0.30922392
211	0xbd15a3f7	-0.036533322
212	0x3de578dd	0.112046935
213	0x3e0b44f4	0.13600522
214	0x3e621904	0.22079855
215	0x3d1e197a	0.038598515
216	0x3cef2f3f	0.029197333
217	0x3e21d674	0.15804464
218	0x3c72b763	0.014814231
219	0xbd84f2e2	-0.06491639
220	0xbe087a84	-0.13327986
221	0x3e311062	0.17291406
222	0x3e69a174	0.22815496
223	0x3e8a23db	0.2698048
224	0x3e90e16f	0.28296992
225	0x3e0959e4	0.13413197
226	0x3d317a76	0.04332968
227	0x3e63b268	0.22236025
228	0x3e804c2b	0.25058112
229	0x3e2c9bc4	0.16856295
230	0xbd0f2d8b	-0.034955543
231	0x3dea70ba	0.11447282
232	0x3dbd62a3	0.09247329
233	0x3d1e3fd2	0.038635083
234	0xbda2fab5	-0.07957975
235	0xbd82b8ec	-0.06382927
236	0xbe3f4180	-0.1867733
237	0x3d8bbb3f	0.06822824
238	0x3e9789a9	0.29597214
239	0x3e67e7ec	0.22647065
240	0xbdd0769f	-0.10178875
241	0x3bd0134e	0.0063499575
242	0xbcaaea74	-0.02086375
243	0xbe1c8826	-0.15286312
244	0xbe9a199f	-0.30097672
245	0x3e0d77c2	0.13815215
246	0xbe67e6c6	-0.22646627
247	0xbee2a995	-0.44270006
248	0x3d12abbd	0.035808314
249	0xbb88c177	-0.0041734534
250	0x3d3edb54	0.046595886
251	0x3d9d7bb3	0.076896094
252	0xbc8d376e	-0.017238345
253	0x3db02b8e	0.086020574
254	0xbf1cf0d3	-0.6130497
255	0x3f0a55f1	0.54037386

fc.bias f4 [8]
0	0x3e55d90d	0.2088358
1	0xbe51f51f	-0.20503663
2	0x3e4d454c	0.20045966
3	0x3f45c087	0.772469
4	0x3e08725d	0.13324876
5	0x3e249186	0.16071138
6	0xbf5b4976	-0.8565897
7	0xbfb4d955	-1.4128824
