Baseline_Results/k=3/avg/local/Feature_Extraction/BloodMNIST/Net/Run_1/Best_Weights.pt (torch, 13629 bytes, 4 tensors)

conv1.weight f4 [3, 3, 3, 3]
000000 63 c5 9d be 6e 1d a9 be ec 3e aa 3b ca 38 70 be
       -0.30814657 -0.33030266 0.005195489 -0.23459163
000010 55 7b 37 bf 0f 17 f7 be a3 93 00 be 77 6b 1d bf
       -0.71672565 -0.4825978 -0.12556319 -0.61492103
000020 a2 f4 10 bf 40 86 fd be 9f 57 07 bf ee 30 9f be
       -0.5662328 -0.49516487 -0.52868074 -0.31092018
000030 39 55 b6 be 60 cb d8 be 13 35 19 bf 1f 02 b8 be
       -0.35611895 -0.42342663 -0.5984661 -0.35939118
000040 5a 5b b8 be 5c 29 60 be fa eb 00 3f ab 00 ba 3e
       -0.36007196 -0.21890777 0.5036007 0.36328635
000050 5e d4 53 3f 28 b7 94 3e 3a 9b 00 be a7 63 ed 3d
       0.8274592 0.29045987 -0.12559214 0.11591273
000060 b9 04 41 3f 63 ce 6f 3e 18 00 35 3f ad 02 09 3f
       0.7539783 0.23418574 0.7070327 0.5351971
000070 89 c9 24 3e 63 a3 f0 3d c3 f0 b5 3e c3 11 5d 3e
       0.16092505 0.117499135 0.3553525 0.21588807
000080 2a 77 34 3e 27 9d 24 3f 6d 2b f6 3e d7 c6 b4 3e
       0.17623582 0.64302295 0.48080006 0.35307953
000090 97 90 bc be c2 d6 0c bf 8e 4d c3 be 6b d0 00 bf
       -0.36829063 -0.55015194 -0.38145107 -0.5031802
0000a0 41 2a 0c bf 1b c2 f7 be 10 79 7e be 0b 52 a4 be
       -0.54751974 -0.48390278 -0.24850869 -0.32093844
0000b0 8e 1f 04 bf 02 e2 c5 3d 4c 32 5b 3e a8 4f d4 3e
       -0.5161065 0.09662248 0.21405905 0.41467023
0000c0 cf 34 87 3e bc da 49 3e 53 a1 cd 3e 99 d0 c8 bd
       0.26407477 0.19712347 0.40162143 -0.09805412
0000d0 7d 23 7b 3d 19 09 05 bd 2c 3e 5b bf a0 5a 18 bf
       0.06131314 -0.03247938 -0.8564174 -0.5951328
0000e0 02 2e 18 bf e0 60 af be 74 3b 60 bd 91 ca 38 3c
       -0.594452 -0.34253597 -0.0547442 0.011278764
0000f0 3d ee 88 be 4d 5c 55 3d 5c b8 21 3c 21 b2 a9 be
       -0.2674426 0.052089978 0.009870615 -0.33143714
000100 cd f8 9a 3d 0a 8b 82 3d 6f af 1e be 74 4b 12 3f
       0.07566986 0.06374176 -0.1549661 0.5714638
000110 30 ad 35 3f 72 ea 93 3e ff e8 6a 3f da 03 6c 3f
       0.7096739 0.28889805 0.91761774 0.92193377
000120 4c 9c d3 bd fe f6 2c 3d a8 29 5d 3d 86 2b 1b be
       -0.10332546 0.042227738 0.053994805 -0.15153322
000130 76 34 11 3f 10 91 5b 3f 63 d6 48 3d 80 06 db 3e
       0.56720674 0.8576822 0.04903258 0.42778397
000140 5e 77 29 3f
       0.66197765

conv1.bias f4 [3]
000000 38 1f 1a 3c db b1 72 be 4a 96 6a 3f
       0.009406857 -0.23700659 0.9163557

fc.weight f4 [8, 363]
000000 dd 3f 3a 3e e7 10 f3 3d 2c cc 8a be 8a 5a 5b be
       0.18188424 0.11868458 -0.27108896 -0.21421257
000010 32 5d 40 be 7b a5 8b be e7 d5 6a be e9 5f 49 be
       -0.18785551 -0.2727469 -0.2293316 -0.19665493
000020 ab c6 c0 3e a4 aa 78 3e 6a c0 b8 3e 18 dc 64 3e
       0.37651572 0.24283844 0.360843 0.22349584
000030 c6 2e 3f 3e 50 19 fd bd 05 ff b3 3d 4b 78 9a 3d
       0.18670186 -0.123583436 0.087888755 0.07542475
000040 e8 f3 c8 3d b0 0f d6 3d 67 ad 17 3e a6 a9 0f 3d
       0.098121464 0.10452211 0.14812241 0.0350739
000050 81 73 c1 be 16 0e 2d bf 06 3a 81 3e 71 e5 44 be
       -0.37783435 -0.6759962 0.2523958 -0.1922815
000060 15 d1 21 be a8 df 0a 3e aa 11 14 3e b6 86 d3 3d
       -0.15802415 0.1356188 0.14459863 0.103284284
000070 22 6c f9 3d 75 a7 34 3e 5d 09 87 3e 7b 1e 62 bd
       0.12178828 0.17642005 0.2637433 -0.05520485
000080 0c 17 de bd 94 2e 6c 3e ba ba 77 bd 40 84 d0 3d
       -0.108442396 0.23064643 -0.06048081 0.10181475
000090 ca df a0 3d 7f 24 99 3d 7d ac c4 3d 39 df 22 3d
       0.078551844 0.07477664 0.09603212 0.039763663
0000a0 ac 4b 6f 3d 70 12 da 3d 57 0a 81 3d 02 70 c4 3d
       0.058421776 0.10648048 0.063008 0.09591676
0000b0 76 45 7d 3d 45 fd 6d 3d 7e 5e 45 3e 78 d7 01 3e
       0.06183382 0.058102865 0.19274327 0.12679851
0000c0 48 22 ff 3d a7 8d e4 3d dc 81 e7 3d 15 23 d4 3d
       0.124577105 0.111598305 0.113040656 0.10358254
0000d0 e4 72 4e 3e 61 1d 1f 3e f7 cc 3e 3e c4 e7 92 bc
       0.20161015 0.15538551 0.18632875 -0.01793278
0000e0 78 67 88 3d d7 f6 28 3e b4 8c 56 3e 5c 1e 33 3e
       0.0666036 0.16500412 0.20952111 0.1749205
0000f0 2c 15 17 3e 33 e7 c4 3d b3 85 c4 3c c9 4c bc 3c
       0.1475417 0.0961441 0.023989534 0.022985833
000100 88 9f 8b 3c 02 d5 01 be 4d ff 5a 3d 3a c1 1b 3c
       0.017043844 -0.12678912 0.05346613 0.009506518
000110 0f 99 2d 3e ed f6 c0 3d ae 6b 28 3e e4 84 28 3e
       0.16952918 0.09422097 0.16447327 0.16456944
000120 2a a0 15 3e a4 4c d9 3c 4a fe 02 3b ef b1 49 bd
       0.14611879 0.026525803 0.0019987994 -0.049241956
000130 8c 65 e9 bd 29 0b 1c 3e ca 33 6f bd 93 18 1f 3c
       -0.11396322 0.15238632 -0.058399 0.009710449
000140 d2 d7 1f bd b1 dc 9b 3d 3b 1c 40 3e 95 04 63 3d
       -0.03902418 0.07610453 0.18760769 0.05542429
000150 55 c0 f0 bb 7c df 51 bc d1 90 a0 bd 56 2c f2 3c
       -0.0073471465 -0.0128096305 -0.078401215 0.029562157
000160 1e 78 03 3e e8 78 f8 3c 8c 7d 58 3d f1 79 98 bd
       0.1283879 0.03033109 0.052854106 -0.074451335
000170 54 1a ab bc b5 22 6f 3c 94 e1 13 3d 71 ea c0 bd
       -0.020886578 0.014595677 0.0361038 -0.09419716
000180 27 68 5b bd 0e 45 05 bd c0 1d 7e 3d 76 ad 14 3e
       -0.053566124 -0.03253656 0.06204009 0.14519295
000190 b9 38 cc 3d f5 0f ce 3d 61 84 f9 3c f3 31 d7 bb
       0.099717565 0.10061637 0.030458631 -0.0065672337
0001a0 e7 c3 ab bc b7 4f ea bc 2f d5 df bd cb f8 c8 bd
       -0.020967437 -0.028602464 -0.109293334 -0.098130785
0001b0 77 fa 58 3b 92 28 9b bc 88 3b 44 bf cb a2 cc 3d
       0.0033108273 -0.018940244 -0.7665334 0.09991988
0001c0 94 d2 a9 3e 6b 12 aa 3e fd d0 ef 3d 09 48 93 3d
       0.3316847 0.33217177 0.11709783 0.07191474
0001d0 4e d0 b9 3d 85 9e 17 3e 62 35 02 3e 26 fd 57 3d
       0.09072934 0.14806564 0.12715676 0.052731656
0001e0 df ae 2b bf 5d f3 58 bf e3 25 89 be dc c0 2c 3d
       -0.6706371 -0.8474634 -0.26786718 0.042176113
0001f0 23 67 2d 3e 8e e0 cf 3d 01 96 49 3d 82 95 a4 3d
       0.16933875 0.10150252 0.04921532 0.08036329
000200 0b d3 d4 3d 7f f4 06 3e 62 c7 c0 bc 59 20 ac be
       0.10391816 0.13179205 -0.023532573 -0.3361843
000210 c5 64 23 bf 58 d7 d6 bd 28 6e 0f 3e e0 58 74 3e
       -0.6382564 -0.10490292 0.14006865 0.23862028
000220 07 eb 0a 3e 91 2c 2d 3e 59 c4 0a 3e 0d 8c 43 3e
       0.13566218 0.16911532 0.13551463 0.19096394
000230 e6 ab 61 3e 0b db a0 3d 00 cc bb bc f0 f7 c3 be
       0.2203823 0.07854279 -0.022924423 -0.382751
000240 31 40 72 bd 1c 58 77 3e c6 92 b2 3e 3f d7 5a 3e
       -0.05914325 0.24154705 0.34877604 0.21371172
000250 83 10 57 3e ee 51 14 3e 32 ce 13 3e 29 a5 3b 3e
       0.21002392 0.14484379 0.14434126 0.18324722
000260 86 e8 f9 3d b4 c1 3a 3e 62 b5 98 be 31 92 92 3c
       0.122025535 0.18237954 -0.29825884 0.017891975
000270 25 91 9b 3e f2 0c ab 3e 8c 93 ae 3e b9 0a 17 3e
       0.30384174 0.33408314 0.34096944 0.14750184
000280 6e bc 20 3e 35 ab 91 3d 42 3d a1 bb 2b 11 e1 bc
       0.1569688 0.07112733 -0.0049206326 -0.027474007
000290 11 09 27 3e 25 96 34 be 57 28 f4 3c 9d ea 87 3e
       0.16312052 -0.176354 0.029804392 0.26546183
0002a0 98 2b 91 3e e6 8b 1d 3e 26 82 11 be 30 c1 36 be
       0.28353572 0.15385398 -0.14209804 -0.17847133
0002b0 61 f6 25 be 5a f0 ec bd ed 68 2f be b1 43 a3 3d
       -0.16207267 -0.11569281 -0.1712987 0.079718955
0002c0 66 6b e4 bd 52 c9 34 3d 33 b7 68 3e 73 b5 74 3e
       -0.11153297 0.044137307 0.22726135 0.23897342
0002d0 96 c6 ca bd 60 90 ff be 30 05 f6 be f4 9e 9f be
       -0.099011585 -0.49914837 -0.48050833 -0.3117596
0002e0 46 16 7e be b7 f2 86 be 3d 46 cb bc 06 87 3b be
       -0.24813184 -0.26357052 -0.024813766 -0.18313226
0002f0 a2 14 cb 3d 47 c0 23 3e 2c 00 2d 3e 15 40 58 be
       0.09916045 0.15991317 0.16894597 -0.21118195
000300 3c 69 15 bf 78 9e f9 be ca d2 74 be bb a8 bb 3b
       -0.583637 -0.48753715 -0.23908535 0.0057269013
000310 93 c6 1c be f5 e2 92 3d 08 ac 55 be 65 85 b1 3c
       -0.15310125 0.07172195 -0.20866406 0.021670053
000320 03 fe 28 3e 2c 78 41 3e bd 10 28 be af 3c ce be
       0.16503148 0.18893498 -0.16412635 -0.40280673
000330 b2 54 80 be a0 c4 cd bc b7 d6 e4 3d d4 fd 95 bd
       -0.25064617 -0.025118172 0.11173766 -0.073238045
000340 97 00 a3 3d d2 c1 93 be a3 a6 81 bc 1e 9f f7 3d
       0.07959097 -0.2885881 -0.015826529 0.12090896
000350 7e 1e 15 3e de f2 a8 ba 26 60 57 be 9e c9 81 bd
       0.14562413 -0.0012889763 -0.21032771 -0.063372836
000360 d7 b6 93 3d 57 c3 11 3e f2 f2 52 3d ad 76 c7 3d
       0.07212608 0.14234672 0.051501222 0.097394325
000370 0d ec ca be 09 4b 11 be 5f 59 96 3d 01 74 0d 3e
       -0.39633217 -0.1418878 0.07341265 0.13813783
000380 20 ba 6b 3d 83 2c 01 be 6e 6c e2 bc 19 da 92 3d
       0.05755055 -0.12614636 -0.027639594 0.07170505
000390 b8 5f e5 3d 79 59 b2 3d 25 ee 35 3e bb f0 2b bf
       0.111998975 0.08708472 0.17766626 -0.671642
0003a0 b6 12 5c be 0f 4f e4 3d e5 5b 07 3e 1b 3b 3f 3e
       -0.21491513 0.11147892 0.13218649 0.1867489
0003b0 37 b4 57 3e e8 fa 85 3e 69 e6 88 3e 26 7d 9c 3e
       0.2106484 0.2616799 0.2673829 0.3056423
0003c0 dd 26 a6 3e 00 60 9e 3e 06 e7 9b 3c f2 b5 13 be
       0.32451525 0.30932617 0.019031059 -0.14424875
0003d0 64 cd 7a bd db 9f 1b bd 46 50 5d 3d d7 29 73 3e
       -0.061231032 -0.037994247 0.054031633 0.2374643
0003e0 7d 75 48 3e b8 86 3f 3d 15 e7 01 be db fe d1 bd
       0.19576068 0.046759337 -0.12685807 -0.10253688
0003f0 f5 87 bc 3d 4c 03 0e be 69 3f 76 bd 19 8a 6e 3d
       0.09205619 -0.13868445 -0.060119066 0.05823717

fc.bias f4 [8]
000000 5a 36 34 bf e7 cb 4f 3e 6e 7f 4f 3f c1 bd 10 be
       -0.70395434 0.20292626 0.8105382 -0.14134885
000010 98 5f 5d bb cb a8 f1 bd 7f 1e 7c 3e 89 e5 88 bd
       -0.0033778902 -0.11799773 0.24621008 -0.06684405
