Baseline_Results/k=5/avg/local/Feature_Extraction/BloodMNIST/Net/Run_3/Best_Weights.pt (torch, 9789 bytes, 4 tensors)

conv1.weight f4 [3, 3, 3, 3]
0.4697466 0.6184802 0.58228177 0.4851654 0.32039326 -0.29295743 0.46063203 -0.25351784
-0.57600594 -0.4339827 -0.6903083 -0.4750706 -0.6093353 -0.964491 -0.89717597 -0.4607692
-1.1058857 -0.870889 0.44665778 0.58559805 0.6136912 0.5122228 0.21935159 -0.074239515
0.20263188 -0.41398504 -0.5557285 -0.73026794 -0.3133852 -0.34592035 -0.42844564 -0.25317
-0.26543579 -0.4441917 -0.29854304 -0.40573236 0.24568191 0.47022542 0.5907756 0.55124265
0.90723884 0.7030555 0.5929169 0.68973666 0.6210974 0.3639475 0.6910747 0.5027683
0.35389525 0.6866497 0.2161008 0.0804682 0.2368616 0.21993521 0.48004115 0.7021202
0.52543664 0.402473 0.70740986 0.7520327 0.6451634 0.54509807 0.5171497 -0.62692535
-0.42378363 -0.31332475 -0.5268022 -0.077856235 -0.38619894 -0.43739623 -0.4019042 -0.38216546
0.11658037 -0.07665902 0.14788349 0.09166198 0.40972164 0.35278174 0.0021899466 0.28804255
0.43196
00000000: a082 f03e b854 1e3f 6b10 153f 9967 f83e
00000010: 960a a43e 84fe 95be f6d7 eb3e 17cd 81be
00000020: 2075 13bf fb32 debe 0bb8 30bf 743c f3be
00000030: 66fd 1bbf e2e8 76bf 53ad 65bf f1e9 ebbe
00000040: aa8d 8dbf 95f2 5ebf 54b0 e43e c1e9 153f
00000050: de1a 1d3f 0921 033f b49d 603e e30a 98bd
00000060: bb7e 4f3e d9f5 d3be 3944 0ebf d7f2 3abf
00000070: 0674 a0be 791c b1be 3a5d dbbe 809f 81be
00000080: 33e7 87be 186d e3be a2da 98be 27bc cfbe
00000090: 0a94 7b3e 63c1 f03e 123d 173f 3d1e 0d3f
000000a0: ce40 683f 72fb 333f 67c9 173f 9592 303f
000000b0: 3d00 1f3f 5457 ba3e 46ea 303f 6cb5 003f
000000c0: c231 b53e 46c8 2f3f 8749 5d3e 83cc a43d
000000d0: d98b 723e b236 613e f4c7 f53e 26be 333f
000000e0: 0483 063f f110 ce3e d018 353f 3785 403f
000000f0: 6e29 253f 8c8b 0b3f ec63 043f 2e7e 20bf
00000100: 2bfa d8be 1a6c a0be 82dc 06bf 1773 9fbd
00000110: debb c5be 66f2 dfbe 63c6 cdbe 31ab c3be
00000120: b0c1 ee3d 67ff 9cbd c56e 173e 47b9 bb3d
00000130: 09c7 d13e cf9f b43e 3585 0f3b 507a 933e
00000140: dc29 dd3e

conv1.bias f4 [3]
-0.36530852 1.5865502 0.1357168
00000000: b809 bbbe 1414 cb3f 58f9 0a3e

fc.weight f4 [8, 243]
-0.6853783 -0.22455308 0.0014833733 0.18271863 0.35793665 0.20437722 0.13661057 -0.010935903
-0.26085493 -0.20626213 0.017117037 0.16334535 0.2518503 0.23294203 0.12664545 0.15483241
0.018942758 -0.071716346 0.15384167 0.3232771 0.29919094 0.34742075 0.35203192 0.2402612
0.1734845 0.05939353 0.043744855 0.21808793 0.27812842 0.34054673 0.15756735 0.1042772
0.13929074 0.05373209 -0.11077884 0.1450112 0.1923805 0.109224625 0.14340292 0.050422546
-0.13307053 -0.024885869 -0.025042437 -0.01898837 0.1310184 -0.034701824 0.1152945 0.17246017
0.009891572 -0.07423953 0.18539523 0.058787286 -0.09406159 0.04968544 0.036106426 0.12522945
0.1491233 0.06307166 -0.025323376 0.17416346 0.08963819 -0.13944617 -0.07339456 -0.098255076
0.010053334 0.15090862 0.05695499 0.045504086 0.08994683 0.026711354 -0.10785848 -0.24594378
-0.24572091 0.13439463 0.31280437 0.25168094 0.35584015 0.36696795 0.18273422 -0.06126744
-0.44513816 0.05561359 -0.10970859 -0.043986198 -0.008496397 -0.14130269 -0.10281525 0.0038912536
-0.11647735 -0.021399891 0.092897534 -0.01517164 0.051088218 0.10118901 0.099649414 0.13768953
0.084446505 -0.044414144 -0.079082504 -0.013704453 0.029488545 0.23880632 0.22866488 0.19728087
0.2594568 0.27049398 0.06857929 -0.10417598 -0.10369628 -0.14952496 0.13492522 -0.45197055
-0.54949504 -0.5822396 -0.025991632 0.05492572 -0.12725401 -0.07795568 -0.022980614 0.40845922
-0.49531326 -0.19630766 -0.7301229 0.14064862 0.21980704 -0.21514504 -0.12477749 -0.025471888
0.42066336 -0.5333619 -0.7793621 -1.2233822 -0.033812497 0.08611219 -0.18043804 0.024152206
-0.011656025 0.26363796 -0.08207383 -0.28703904 -0.6389596 -0.08782225 0.0077337287 -0.22119622
-0.047148418 -0.08125487 0.10164499 0.16999775 0.11962079 0.034942836 0.07799864 -0.057952605
-0.22399518 0.0022143743 -0.16233395 -0.13526952 -0.03851956 -0.24741206 -0.22625066 -0.122716285
-0.2135369 -0.23134054 -0.4682836 -0.30138275 -0.096098624 -0.1269216 -0.12155732 0.026047511
-0.012019927 -0.08667039 -0.16096683 -0.25701034 -0.09572255 0.1418386 0.2290031 0.3034311
0.18084925 0.23277314 0.026382819 -0.106852256 -0.19286159 0.08858635 0.28764942 0.20518713
0.2193415 0.12841211 0.114554904 0.086923435 0.009491391 -0.20113586 0.050400224 0.16366006
-0.24346046 -0.20521493 -0.4029027 -0.15781526 0.0989918 -0.041466895 -0.11474675 0.124018505
0.23251985 -0.3824518 -0.21442562 -0.4853698 -0.12517868 0.068011835 0.05572404 -0.12921183
0.16758254 0.103969365 -0.5573542 -0.44286948 -0.74718744 -0.3037327 0.10491224 -0.00093011954
-0.058429528 0.18425937 0.121306844 -0.43875018 -0.37510985 -0.46899587 -0.09258931 0.05679588
0.023579553 -0.08895257 0.013568613 0.1706554 -0.084737554 -0.01231861 0.019747058 0.19043426
0.19355766 0.09588414 -0.16376251 0.0016483796 0.108912274 0.018459901 0.06202127 0.09635083
0.19857132 0.24428986 0.06459788 0.8956553 0.40533504 0.33228067 0.23407476 0.19929665
0.28247538 0.27521536 0.41316098 0.64140606 0.66170394 0.14676023 0.07910719 0.02921826
00000000: f474 2fbf 3ef1 65be c06d c23a 981a 3b3e
00000010: 7943 b73e 4348 513e a4e3 0b3e 802c 33bc
00000020: c78e 85be 6136 53be 0739 8c3c 0144 273e
00000030: 86f2 803e 5b88 6e3e 58af 013e 638c 1e3e
00000040: d82d 9b3c 05e0 92bd ac88 1d3e 9384 a53e
00000050: 8e2f 993e 22e1 b13e 873d b43e 0807 763e
00000060: eca5 313e a146 733d ce2d 333d 7152 5f3e
00000070: d966 8e3e 245c ae3e 5659 213e 498f d53d
00000080: 3ba2 0e3e 2e16 5c3d 04e0 e2bd d17d 143e
00000090: 65ff 443e 29b1 df3d 37d8 123e df87 4e3d
000000a0: a443 08be 73dd cbbc cc25 cdbc 808d 9bbc
000000b0: b029 063e 8023 0ebd 861f ec3d 6699 303e
000000c0: 4310 223c e50a 98bd 3fd8 3d3e f0ca 703d
000000d0: 5da3 c0bd f682 4b3d 55e4 133d 263c 003e
000000e0: c7b3 183e b72b 813d f872 cfbc e857 323e
000000f0: 3a94 b73d faca 0ebe e34f 96bd f539 c9bd
00000100: bdb6 243c ca87 1a3e a349 693d 7e62 3a3d
00000110: 0b36 b83d c5d1 da3c e8e4 dcbd b0d8 7bbe
00000120: 439e 7bbe bf9e 093e e527 a03e 53dc 803e
00000130: ae30 b63e 39e3 bb3e ae1e 3b3e 91f3 7abd
00000140: 26e9 e3be 13cb 633d e6ae e0bd df2a 34bd
00000150: 7934 0bbc a7b1 10be cd90 d2bd 6704 7f3b
00000160: ad8b eebd d34e afbc 1041 be3d 7892 78bc
00000170: e141 513d 2f3c cf3d fe14 cc3d 7cfe 0c3e
00000180: 4af2 ac3d 9beb 35bd 02f6 a1bd a488 60bc
00000190: f691 f13c a589 743e 2027 6a3e ff03 4a3e
000001a0: 86d7 843e 307e 8a3e 4c73 8c3d 375a d5bd
000001b0: b75e d4bd 121d 19be d629 0a3e af68 e7be
000001c0: b5ab 0cbf a80d 15bf 67ec d4bc cbf9 603d
000001d0: e04e 02be 3aa7 9fbd d741 bcbc 9121 d13e
000001e0: b399 fdbe e004 49be 56e9 3abf 3106 103e
000001f0: 1915 613e fb4e 5cbe 578b ffbd 6caa d0bc
00000200: 3061 d73e 688a 08bf 4684 47bf ca97 9cbf
00000210: f97e 0abd 965b b03d c0c4 38be d9da c53c
00000220: eaf8 3ebc 8efb 863e 5316 a8bd c8f6 92be
00000230: db92 23bf 27dc b3bd 386b fd3b 4381 62be
00000240: b31e 41bd f468 a6bd 402b d03d e413 2e3e
00000250: bffb f43d 3820 0f3d c0bd 9f3d b65f 6dbd
00000260: fe5e 65be 091f 113b df3a 26be 1884 0abe
00000270: b0c6 1dbd 9659 7dbe 41ae 67be ad52 fbbd
00000280: 6ba9 5abe 89e4 6cbe dec2 efbe d74e 9abe
00000290: 5bcf c4bd bcf7 01be 0bf3 f8bd 9761 d53c
000002a0: 3aef 44bc 3f80 b1bd 7dd4 24be dc96 83be
000002b0: 2f0a c4bd 233e 113e ca7f 6a3e 525b 9b3e
000002c0: 8c30 393e 155c 6e3e c820 d83c 5bd5 dabd
000002d0: 827d 45be c36c b53d c946 933e 931c 523e
000002e0: 0f9b 603e 777e 033e c39b ea3d ea04 b23d
000002f0: c781 1b3c 8ff6 4dbe 7770 4e3d 8196 273e
00000300: b34d 79be dd23 52be 4349 cebe 539a 21be
00000310: 36bc ca3d 31d9 29bd 5800 ebbd 6afd fd3d
00000320: af19 6e3e b9d0 c3be 6492 5bbe 6482 f8be
00000330: d72e 00be ca49 8b3d e43e 643d 1b50 04be
00000340: c29a 2b3e e4ed d43d c4ae 0ebf cabf e2be
00000350: ad47 3fbf da82 9bbe 3adc d63d 44d3 73ba
00000360: cd53 6fbd 7dae 3c3e b96f f83d dda3 e0be
00000370: 660e c0be 3a20 f0be 779f bdbd cca2 683d
00000380: e829 c13c c42c b6bd e34e 5e3c 4ac0 2e3e
00000390: e28a adbd ffd3 49bc 95c4 a13c 3301 433e
000003a0: fb33 463e e75e c43d 5cb1 27be 710e d83a
000003b0: 660d df3d 3839 973c 040a 7e3d 9553 c53d
000003c0: 4856 4b3e 1f27 7a3e e54b 843d aa49 653f
000003d0: 1388 cf3e b120 aa3e 4bb1 6f3e 6c14 4c3e
000003e0: 9da0 903e 07e9 8c3e d689 d33e 3033 243f
000003f0: 6e65 293f 5048 163e f302 a23d 225b ef3c

fc.bias f4 [8]
-1.121999 -0.20869404 0.8746324 -0.20741013 -0.46657896 0.8076655 0.4101915 -0.31573704
00000000: aa9d 8fbf e4b3 55be e9e7 5f3f 5263 54be
00000010: 70e3 eebe 2bc3 4e3f 9f04 d23e 49a8 a1be
