Baseline_Results/k=2/avg/local/Feature_Extraction/BloodMNIST/Net/Run_2/Best_Weights.pt (torch, 15869 bytes, 4 tensors)

conv1.weight f4 [3, 3, 3, 3]
00000000: ae6a aabe 4949 173e c51a 8d3b 10e5 643e
00000010: e3d5 973e 41e3 7d3e 3530 c63e 8121 bb3e
00000020: 43e7 b83e 9d2c 1cbf f6d9 a3be 364f 9cbe
00000030: 47fe 72be 4684 8abd 3274 cd3d ef76 c9bd
00000040: 3605 27be d3b7 85be 1549 08be a8a8 5b3e
00000050: b75b 373e b698 bf3e 2868 4e3f 5f37 403f
00000060: dba3 9c3e 5d24 343f 187d 043f 7bc8 123d
00000070: e290 b93c 304b 0abf 7fa6 a1be 76de ddbd
00000080: 2923 eabd 946e 92be 6f53 c3bd 17a0 c5be
00000090: a3a7 f23e dece b93e 0e77 de3d 7aca cb3e
000000a0: 1be6 103f a2ce 8a3e d12f 4f3d 6bc8 dd3e
000000b0: 72e9 d8bc cf9a c43e 3a77 143e 4e76 8d3c
000000c0: 4ec5 ac3e 1937 1c3e a284 7a3e 0c0f 953e
000000d0: b714 ee3d baf0 92bd 3836 6b3f 1ab6 6a3f
000000e0: 4814 023f f21f 953f 22e4 753f d324 4f3f
000000f0: c7bc ff3e edb3 013f 6658 ef3e 4ed6 83be
00000100: 6059 ccbe 0b0b 05bf 7955 adbc cb5b a8be
00000110: 8c51 9abe 3166 acbe 4d67 a6be 56c4 c4be
00000120: 967a 1bbf b560 4dbf 2e34 91bf 17c4 60be
00000130: 6f2e 88bf 5691 70bf 82d6 9abe ea04 19bf
00000140: bee1 9d3d
-0.33284515 0.1477405 0.0043061697 0.22353005 0.2965537 0.24793722 0.38708654 0.36549
0.3611394 -0.61005574 -0.32002228 -0.30529183 -0.23729812 -0.067635104 0.10031928 -0.09837138
-0.16310582 -0.2611681 -0.13309129 0.21451056 0.1790608 0.37421197 0.8062768 0.7508449
0.30593762 0.70367986 0.5175338 0.035835724 0.022652093 -0.5402098 -0.3157234 -0.10833447
-0.114324875 -0.2859999 -0.09537398 -0.385987 0.47393522 0.3629064 0.10862552 0.39802915
0.56601113 0.27110773 0.05058271 0.4331697 -0.026478503 0.3839936 0.14498606 0.017268326
0.33744282 0.15255393 0.24464658 0.29113042 0.11625045 -0.07174821 0.91879606 0.91684115
0.50812197 1.1650374 0.9605123 0.80915564 0.49948713 0.5066517 0.4674713 -0.2574944
-0.39911938 -0.51969975 -0.02115892 -0.32882532 -0.3014034 -0.33671716 -0.32500687 -0.38431042
-0.60733926 -0.8022569 -1.1344049 -0.21949802 -1.063917 -0.93971765 -0.3024178 -0.59773123
0.077090725

conv1.bias f4 [3]
00000000: b905 053e 3f3e 7b3f 1a8f 0a3e
0.12990464 0.98141855 0.13531151

fc.weight f4 [8, 432]
00000000: 644a 94bc c92c 72bd edb2 9b3d 6f7a 433d
00000010: cb2e 1e3e 348a 403e 959e 103e c42f fe3d
00000020: 5bcc 063e 7ccd 973d dc55 4dbd b493 90bc
00000030: 5bfe c53c 1a52 b2bd de7e 263e b53f 893e
00000040: 9396 e13d 6ba0 b23d d38f 613e d1b6 1f3e
00000050: 673e 173e 9342 b93d 9afb cd3c 1c6c b13d
00000060: 5264 72bd 99a4 2ebd b9cc 173e ccca 463e
00000070: e43e c23d cb4b 843d 2b5d 28bd 13de a4bd
00000080: 894c 98bc 0eb2 a63d 678a 073e 397c e13d
00000090: b30e 4e3b e547 363d 49b2 c23d e099 333e
000000a0: 528c 173e 05ab 143e bc26 a6bd 07c4 d4bd
000000b0: 6124 a13d 6a52 843d 5468 9c3d a5e8 2e3e
000000c0: b57c f73c 8296 943d 7dee b73d 9b94 963d
000000d0: aeb0 f73c f8e4 f23d 1d82 32bc 7a0f 8abc
000000e0: 3b9f e43c 6471 6abd 5ac1 fcbc babd e13d
000000f0: 36d7 a83d b237 d93d 32f8 c9bd df19 d9bd
00000100: 57bc 593e 0eb4 c8bd f202 abbe ba8c 88bd
00000110: 3115 1ebe 9fbd 8bbd 2e2a 893c d574 31bc
00000120: 6b61 e7bc ee44 ca3d f759 14bd d28c 7bbe
00000130: df5a 483d fc64 02bf 3cc4 70bf d437 62be
00000140: ab39 c9be 5171 1cbe 1f15 1b3e f075 963d
00000150: 252c 1b3c 7a27 1f3e 55f6 213e 7434 03be
00000160: 0135 2a3e e92e 90be 48fc f4be aeef cf3d
00000170: 5ea5 6dbe 9f4c b7bc c6bc 423e b694 2a3e
00000180: 2d6a d5bb e06e e63d ef92 113e bb1d 5b3d
00000190: f170 2c3d b525 4dbe a19f afbe 8879 31be
000001a0: 24a0 92bc c906 b13d 0338 613e fa93 323e
000001b0: 86d0 6c3b 56b2 a53c 4006 0d3e 77ac 543c
000001c0: 4d61 e0bc a733 583d 190b a4bd 59a5 2ebe
000001d0: 1768 153e adbd 583e ba5c 4d3e b0d3 be3d
000001e0: 1b28 a6bd c7e6 d3bd b577 a4bc 35d6 943d
000001f0: f96e 533d 91a4 433e b07e 443e 60cb 333e
00000200: 47ed 593e b8e4 3a3e 8fd8 913d 949f e53c
00000210: 52b2 d73d 02e5 103e ffb0 9f3d 2aea c83d
00000220: aaea 1f3e 4891 863d b33a d63d 0640 503e
00000230: 7397 643e 85b9 663e bf72 2c3e bad5 543e
00000240: c82f a83e 09ac d8bd 0a38 8dbd 7146 adbd
00000250: 016a 22be 224a c23c c5a4 993d 3308 2e3d
00000260: 492d 433d 7ff4 6d3d 7371 703d f723 423d
00000270: 61b6 7d3e 62ea e6bd a79f 02be 6eaf 333d
00000280: c81a 5ebd 32be 88bd 80ee a73c cbbc 1fbd
00000290: 92bc 78bd 922d e2bc 55d8 9bbd 9574 0ebe
000002a0: f3dc 0b3e e0de f5bd f4ab 9bbd ac7a f6bc
000002b0: 17bc c5bd e469 18be b86a 62bd 85c6 013d
000002c0: b3a6 febd 697a 1bbe 56d7 38bd 89b9 8ebd
000002d0: ad32 1f3d 3512 17be c07a e7bd f5da 0abe
000002e0: e96c 99be 5f9e ddbe 0427 c6be 1b3a a9be
000002f0: f2ff 8abe 9302 34bd a24e 8cbd 20f7 d337
00000300: db79 e7bc 1039 87bd cc6d c23c cba6 b9bc
00000310: 9159 32bf 4e09 31bf c466 23bf e747 47bf
00000320: 9e68 3ebf 622f 2e3d 42c6 3cbd 4ae5 91bd
00000330: 0e8b b63c 05da 80bd 57d4 2d3c 21ed c3be
00000340: c4e9 49bf f5b3 583e b612 bb3d fb1d ad3e
00000350: c783 06bf f5c5 90be 2d72 63bd 81be c1bd
00000360: 9a6e 653d b995 d7bd c40d 1abe 1be7 05bf
00000370: 9cec 76be 14d3 8d3e 9b21 30bf 4bd8 563e
00000380: b51e 3fbd c981 09bf d024 77bd 7734 71be
00000390: 700e 0b3d 1bf4 8dbd db03 053e a82f 79be
000003a0: efcb 2fbf 5628 0b3f e07f 813e c5da 073f
000003b0: 37a1 cfbe 4a33 5dbe a7e5 4e3d f707 c4bd
000003c0: dea2 733d ff04 fabd 1703 dd3d 9554 6abd
000003d0: 97df aabf 02cf 63be ee42 e53e a640 23bf
000003e0: 509e 82bf f6a2 edbb 6e11 123d a4ed b6bc
000003f0: 8d4d aa3d 9bf6 16be da7f 0ebe 6101 063d
-0.018101878 -0.05912474 0.07602487 0.047724184 0.15447538 0.1880272 0.14122994 0.12411454
0.13163893 0.0741224 -0.05013071 -0.017648555 0.024169138 -0.08707066 0.16259333 0.26806417
0.11015048 0.087220035 0.22027521 0.15597083 0.14769898 0.09045901 0.025144387 0.08663198
-0.059177704 -0.04263744 0.14824189 0.19413298 0.09484652 0.06459769 -0.041104477 -0.0805017
-0.018591182 0.0813943 0.1323639 0.11010022 0.0031441867 0.044502158 0.095066614 0.17539167
0.14799622 0.14518364 -0.08112857 -0.10388952 0.07868267 0.06461032 0.076370865 0.17080934
0.030210832 0.072552696 0.08981035 0.07352563 0.030235615 0.118600786 -0.010895279 -0.016853083
0.027907958 -0.057237044 -0.030853916 0.110225156 0.08244173 0.10606326 -0.098617926 -0.10600638
0.21263252 -0.09799968 -0.33400685 -0.066674665 -0.15437771 -0.06823277 0.016743746 -0.010831078
-0.028244695 0.098764285 -0.03621861 -0.24565437 0.048914786 -0.5093534 -0.9404943 -0.22091609
-0.3930181 -0.15277602 0.15144776 0.073467135 0.009470974 0.15542403 0.15816624 -0.12812978
0.16621782 -0.2816079 -0.47848725 0.10153137 -0.23207614 -0.022375403 0.19017324 0.16658291
-0.0065129013 0.112516165 0.14216207 0.05349515 0.042099897 -0.20033915 -0.34301475 -0.17331517
-0.017898627 0.08643872 0.21994023 0.17439261 0.0036135032 0.020226639 0.13771915 0.012980572
-0.027390147 0.052783635 -0.08009929 -0.17055263 0.14590488 0.21166106 0.20054904 0.0931772
-0.08113118 -0.10346752 -0.020076612 0.07267419 0.051619504 0.19105746 0.19188952 0.1755805
0.2128192 0.18251312 0.071213834 0.028030194 0.10532059 0.1414986 0.07797431 0.09810288
0.15616861 0.06570679 0.10460415 0.20336923 0.22323398 0.22531708 0.16840647 0.20784655
0.32848954 -0.10579688 -0.06895454 -0.08460701 -0.1586075 0.02371699 0.075021304 0.042488288
0.04765061 0.058094498 0.058701944 0.04739758 0.24776603 -0.11275174 -0.12756215 0.043868475
-0.05422476 -0.06676902 0.020499468 -0.038998406 -0.06072671 -0.02760962 -0.076096214 -0.1391166
0.13658504 -0.12005401 -0.07601157 -0.030087791 -0.09655016 -0.14884144 -0.055277556 0.031683464
-0.12434139 -0.15183415 -0.045127235 -0.06968982 0.038866688 -0.14753039 -0.113027096 -0.13560088
-0.29965904 -0.4328489 -0.38701642 -0.33052143 -0.27148396 -0.043947767 -0.068509355 2.5268237e-05
-0.028256347 -0.06602681 0.023733996 -0.02266254 -0.6966792 -0.6915482 -0.6382868 -0.7784409
-0.74378383 0.042525657 -0.04608751 -0.071238115 0.022283103 -0.06291584 0.010609708 -0.38266852
-0.78872323 0.21162398 0.09134428 0.33811936 -0.52544826 -0.2827603 -0.05552881 -0.09460164
0.05601368 -0.10526604 -0.15044314 -0.52305764 -0.24113697 0.27700102 -0.6880128 0.20980947
-0.046660144 -0.5371366 -0.06033784 -0.2355517 0.033949316 -0.06931325 0.12989752 -0.24334586
-0.6867055 0.5435842 0.25292873 0.5306819 -0.40552685 -0.21601596 0.050511982 -0.09571832
0.059481494 -0.12207984 0.10791605 -0.05720957 -1.3349484 -0.22246936 0.44777626 -0.6377052
-1.0204563 -0.0072520925 0.035661153 -0.022330113 0.08315573 -0.1474251 -0.13915959 0.03271616

fc.bias f4 [8]
00000000: 727a 7d3d 9fd3 c83d 7c07 cb3c dee0 1e3f
00000010: 4419 f03b fad1 a0bd 051d 06bf 777a 7bbf
0.06188435 0.098059885 0.024783842 0.6206187 0.0073272306 -0.0785255 -0.5238803 -0.9823374
