Baseline_Results/k=3/avg/local/Feature_Extraction/BloodMNIST/Net/Run_2/Best_Weights.pt (torch, 13629 bytes, 4 tensors)

conv1.weight f4 [3, 3, 3, 3]
00000000: 99b8 89be 5400 403e 2c1d 05be eecc 483e
00000010: 5be3 8b3e 7d2b c33d 00b7 6d3e 91be 803e
00000020: b804 583e 5052 d2be 68e1 03be b84f 84be
00000030: 175b 18be 9275 0a3d d589 d53d 14d2 1ebe
00000040: c1e6 28be 3187 97be 7538 7a3e be6e ec3e
00000050: 7d9a 8a3e 03f0 153f 71b8 6f3f 2715 4d3f
00000060: 1a9a ba3e 4344 4b3f 56e9 1a3f fc9c e2bd
00000070: 0c01 093d ad12 f3be b044 e4be 4ad7 fabd
00000080: 89f9 8dbd 07ab adbe 855c 27be 482e afbe
00000090: 66fb b43e e088 003f 97ae a83e 8f38 893e
000000a0: ea67 233f c8df d33e bdef 81bd 6433 a23e
000000b0: c21d 5a3d 69bd 803e 9228 963e 73da 353e
000000c0: 3a76 4d3e 42b6 813e 3899 ac3e 6a83 573e
000000d0: b853 c63d 5661 88bb 57cb 793f 95f6 653f
000000e0: 8ba3 d73e 3d84 a53f ff51 8c3f ec60 423f
000000f0: 7f48 243f 9493 1b3f 7aa3 e33e b06d c9be
00000100: 5030 11bf f012 3dbf 7b74 46bd 1f4e abbe
00000110: b583 e4be 3bfa a0be 4e9f abbe 02ae f0be
00000120: 098b 21bf 423b 47bf cca0 aabf cc91 253d
00000130: aafd 2ebf 1214 7abf c7a4 ecbd 8d33 97be
00000140: 07c8 5d3e
-0.2689865 0.18750125 -0.1299941 0.19609424 0.27321896 0.09529779 0.2321434 0.2514539
0.2109555 -0.41078424 -0.12878954 -0.2584207 -0.14878498 0.03380353 0.1042668 -0.15509826
-0.16494276 -0.2959533 0.24435599 0.4617824 0.2707099 0.58569354 0.9364081 0.801104
0.36445695 0.79401034 0.6051229 -0.11065099 0.033448264 -0.47475186 -0.44583654 -0.122480944
-0.06932361 -0.33919546 -0.16343887 -0.34214997 0.35348052 0.50208855 0.329457 0.26800963
0.63830435 0.4138167 -0.063445546 0.31679833 0.053251036 0.25144508 0.29327828 0.17759113
0.20064631 0.25334364 0.33710647 0.21046224 0.09683937 -0.004161994 0.97575897 0.8982938
0.4211696 1.2930981 1.0962523 0.7592914 0.6417312 0.6077206 0.4446066 -0.39341497
-0.56714344 -0.7385702 -0.04845093 -0.3345804 -0.44631734 -0.3144091 -0.33519977 -0.47007757
-0.63102776 -0.77824795 -1.3330321 0.040422246 -0.6835581 -0.97686875 -0.11554866 -0.29531518
0.21658336

conv1.bias f4 [3]
00000000: 3d09 953e 570a 883f 79db 6abd
0.2910861 1.0628155 -0.05733821

fc.weight f4 [8, 363]
00000000: aee1 2c3e 824a 283d 0c6e 8c3d 16e1 8a3d
00000010: aaa3 283e e95a 603e 6cd7 4c3e 5348 243e
00000020: 9b43 0e3e f86c 873d 8d7b 0a3e 0ad3 923d
00000030: 59f1 c73c 767c a43d 4141 5f3e b1e6 3f3e
00000040: 9bce 333d 9b88 a83d 8b31 3b3e 5fce fa3d
00000050: 0a06 cb3d 7185 1f3e 8755 4b3c 0906 423d
00000060: 6729 233e af9f cc3d 7621 25bd 9965 f5bd
00000070: 03fd 8ebd 6dfa 82bc 935a 49bc c434 b83b
00000080: d30b f83d 0fa9 423d 569e 843d 72ba 0f3d
00000090: d85e 953d 8c08 42bd 6957 8dbd 09be 88bd
000000a0: 21c7 e2bc 4fad bb3d bc13 083d 99db 373e
000000b0: a055 063e 5a56 043d 0814 983d faf1 0cbd
000000c0: bb2e b93d c0a6 403e 3a3d 8cbc b370 7abe
000000d0: c461 9ebd 05b0 1ebd 42d9 323d 2d2d 283e
000000e0: c2bf 5cbd 6c6a 023d c8ec 2cbe 3877 223e
000000f0: e486 f83d 258d d7bc 2cef dcbe f38b 8f3b
00000100: e726 90bb 7200 f03d 4677 103e 31dc f5bc
00000110: e75c 103e f520 61be 8f0a acbd d13b 2bbe
00000120: 4972 52be eef8 eabe 35f0 5dbc d032 883d
00000130: 80ed 0f3e 5ef2 213e d4c9 1b3d 8d6e 3e3e
00000140: 6816 68bb 2f8d 74be 15a2 9fbe 453a c3be
00000150: e4c5 c0be 2b5e bb3d 03d5 673e 667d 9e3e
00000160: be2e 9e3d 8122 d13b 14f4 413d 910f 033e
00000170: 5c96 1bbd 8c84 dbbc b2f5 21be e461 d0bd
00000180: acca 803d 2902 1b3e a1d5 f33d e12e 85bd
00000190: e527 7fbd bb6e 88bd bd13 cd3d b32a 113d
000001a0: 6350 253d a3e9 ca3c 4428 ce3d 7065 8e3d
000001b0: 0738 ff3d ad77 2a3e 06b4 973e 0e75 cd3d
000001c0: 8561 873d 641d 0e3d b79c f73d fab6 b23d
000001d0: bae5 273e 4e05 2c3e be4b 273e fab3 323e
000001e0: f220 8e3e 06bc 7a3e b32b a7bd 52ec 20be
000001f0: 295a 5ebe 790c 60bd ddd9 8f3d 34cd 053e
00000200: 496d a53d 847c 70bd b3b5 c1bd 58bb 093d
00000210: d3fe d03c d60b f7bd df2b 53be b0d5 07be
00000220: 2012 9abc 285c 14bd 2431 153d 3d6e bb3c
00000230: 065b 51bd 83ca d0bd dd1f e1bd 9d12 8dbd
00000240: 2f52 a1bd 47f3 b4bd 4660 1dbd 0ab1 e6bd
00000250: 154a 8fbe 1f71 46be 0abf 09be be55 18be
00000260: 34f5 0bbe 1d48 00bd eb0d 68bd 1332 e5bd
00000270: 9318 23be fe66 30be 54a7 f1be 40b4 d5be
00000280: ee2d f5be 7628 abbe 255e 89bd 529a 98bd
00000290: ea2d 5d3d 27fa 38bc 1759 92bd 6c80 1ebe
000002a0: 9b9a a4be 556d 18bf 6b2a c8be 8a2c 08bf
000002b0: a43a 20bf b079 dbbd 3710 17be cee8 693d
000002c0: 08c7 873b 5be4 56be ac7d 85be 0324 36bf
000002d0: 63b2 4cbe 81a7 bf3e 2be0 513e b916 3cbf
000002e0: 21dc 9bbe 2101 4ebe 7e7c 04be 8151 073b
000002f0: 3296 58be 592f 07be b4f3 17bf 258f c3bd
00000300: b343 303f 862b 443f 7437 f2be fcf2 8ebe
00000310: b98a 56be 0d29 c9bd d5ff 42bc 5d14 f0bc
00000320: fece c7bd dd58 82be c647 3ebf b559 d23c
00000330: 32bb adbe 08e4 73bf 218f 8ebe e53c 78bd
00000340: 8477 1ebd 229d 54bd 18eb edbd 1bec b0bd
00000350: 84a9 d83d 4f5a aabe ad78 7abe 3772 2bbf
00000360: 9c4d 17bf 2f07 5cbe 4781 10be 660e 8b3c
00000370: 20f9 8dbd b6f0 15be 8353 80be b0b8 bdbd
00000380: ac74 9ebe 8604 cfbe a827 f0be a422 c6be
00000390: d2dd 69be 3eb8 49be 2214 1dbe 8cd4 c53d
000003a0: 0669 fbbd f266 58be 8cf1 0abe b684 4cbe
000003b0: 2296 83be bd5d acbe 92b2 9abe c51f 69be
000003c0: 7029 9dbe 0251 36be cea8 b3be 0963 83be
000003d0: 8ce6 ebbd 294c 28be c3e5 ffbd 9104 f0bd
000003e0: 8003 97bc a361 76bc 10d6 7cbd 835c 63be
000003f0: 7909 04bf 9fae 6dbe 4309 d9bd db4f b33d
0.16882965 0.04108668 0.06856927 0.06781213 0.16468683 0.2190968 0.20004052 0.16043214
0.13892977 0.06612581 0.13523693 0.07169159 0.024407076 0.080315515 0.21802236 0.18740346
0.043898206 0.082291804 0.18280618 0.122463934 0.09913261 0.15578248 0.012410528 0.047369037
0.15933762 0.09991395 -0.040315114 -0.11982269 -0.06981852 -0.015988553 -0.012289661 0.0056215245
0.1211163 0.047524508 0.06475513 0.035089917 0.07293481 -0.047371432 -0.06901438 -0.06676871
-0.027682843 0.09163915 0.033221945 0.17954864 0.13118601 0.032308914 0.07425696 -0.034410454
0.09042116 0.1881361 -0.017119039 -0.24457054 -0.07733491 -0.038742084 0.043664224 0.16423483
-0.053893812 0.031839773 -0.168872 0.15865791 0.12135103 -0.02631242 -0.43151224 0.004380697
-0.004399169 0.11718835 0.14107999 -0.030012222 0.1409794 -0.21985228 -0.084004514 -0.16722037
-0.20551409 -0.45893043 -0.013546039 0.06650317 0.14055443 0.15815112 0.038034275 0.1859686
-0.0035413746 -0.23881982 -0.31178346 -0.38130394 -0.3765098 0.091488205 0.22639851 0.30955046
0.07723759 0.006382287 0.04735191 0.12798907 -0.03798519 -0.026796602 -0.15816382 -0.10174921
0.062886566 0.15137543 0.11905981 -0.06503082 -0.062293906 -0.06661745 0.100135304 0.03544111
0.040359866 0.02476961 0.10066274 0.069529414 0.12461858 0.16647215 0.29629534 0.10032092
0.06610397 0.034695998 0.12090438 0.08726306 0.16396227 0.16798899 0.16337487 0.17451468
0.2775951 0.24485788 -0.08162632 -0.15715149 -0.21714081 -0.054699395 0.07023976 0.1306656
0.08077485 -0.058712497 -0.094584845 0.03362593 0.025512135 -0.120628044 -0.20622204 -0.13265109
-0.01880747 -0.0362207 0.036423817 0.022879714 -0.051112197 -0.10194876 -0.109924056 -0.06888316
-0.078770034 -0.08835464 -0.03842189 -0.11264236 -0.27986208 -0.1937909 -0.13451782 -0.14876458
-0.13667756 -0.031318773 -0.0566539 -0.111911915 -0.15927343 -0.17226788 -0.47197974 -0.41739082
-0.47886604 -0.33429307 -0.0670741 -0.07451309 0.053998865 -0.01129011 -0.07145899 -0.15478677
-0.32149205 -0.5954183 -0.39094862 -0.5319296 -0.6258948 -0.107165694 -0.14752279 0.057106785
0.0041435994 -0.20985548 -0.26072443 -0.711487 -0.19989924 0.37432483 0.2049567 -0.7347217
-0.30441383 -0.20117618 -0.12938115 0.0020647945 -0.21151045 -0.13201655 -0.59356236 -0.09548787
0.688533 0.7662891 -0.47307932 -0.27919757 -0.20951356 -0.09822283 -0.011901815 -0.029306585
-0.097562775 -0.25458422 -0.7432827 0.025677541 -0.3393188 -0.95269823 -0.27843574 -0.06060495
-0.038688198 -0.051907666 -0.11617106 -0.086387835 0.105792075 -0.33272025 -0.24460097 -0.66971153
-0.591028 -0.21487115 -0.14111815 0.01697464 -0.069322824 -0.14642605 -0.25063714 -0.09263742
-0.3094839 -0.4043314 -0.46905255 -0.38698304 -0.22838524 -0.19699189 -0.15339711 0.09659681
-0.12275891 -0.2113302 -0.13568705 -0.199725 -0.2570048 -0.33665267 -0.30214363 -0.22766025
-0.30695677 -0.1780434 -0.35089725 -0.25661495 -0.11518583 -0.16435303 -0.124949954 -0.11719621
-0.018434286 -0.015037927 -0.061727583 -0.22203259 -0.51576954 -0.23211144 -0.1059747 0.087554656

fc.bias f4 [8]
00000000: df96 653e af98 51bc f41b 0f3c 2c95 013f
00000010: d285 223e dc91 683d c229 17bf 4acd 95bf
0.22420834 -0.01279275 0.008734692 0.50618243 0.15871361 0.056779727 -0.5904809 -1.1703274
