Baseline_Results/k=5/avg/local/Feature_Extraction/BloodMNIST/Net/Run_2/Best_Weights.pt (torch, 9789 bytes, 4 tensors)

conv1.weight f4 [3, 3, 3, 3]
00000000: 85f7 d9bd 2dfb e03e 069b cb3c 254c 9a3e
00000010: d37d e13e 2981 193e 4679 543e 38d4 4c3e
00000020: 447f 4c3d 80be 3d3d d15f 003f b0f5 343e
00000030: f46e ca3e 8405 3d3f 3dc4 143f fd56 6b3e
00000040: dfe9 8f3e 219d 06bd 44c8 00be c9ac dc3e
00000050: 75eb 5d3e 2187 093e 53fa 443f 6516 293f
00000060: 46b7 9dbe 95b7 a03e 032c 4b3d 61d0 e43e
00000070: e91b 2c3e 3037 0abd 99cc c3bd fe7e 6ebe
00000080: a1ed 583e 214a 873e f277 763e 3263 4a3e
00000090: d93c ae3f 52eb 423f ef8d 963f 27dd 4f3f
000000a0: 0b81 b63e 5d9b 5e3f ba3f 793f 4480 6d3f
000000b0: a2dd 823f ed90 fabd 945d cbbe c6b8 c9be
000000c0: 801b 91be 356f 0bbf 5a1f 8fbe d012 52be
000000d0: e2c2 afbe 17b3 10bf fa0f 633f f838 6e3f
000000e0: e037 3a3f e7f5 6b3f 19a3 803f 629c 763f
000000f0: 0e89 183f b5d4 2e3f 9e5a 1d3f 685e 90be
00000100: b403 ddbe 28b0 e5be 946d 00be 1839 88be
00000110: 6fdb 7abe 35a0 6cbe d908 65be 7f41 b7be
00000120: 8320 56bf 21ce 45bf cfee 29bf b409 44bf
00000130: 1478 7cbf 4ebd 24bf a7e6 1ebf fb57 30bf
00000140: 1f4a 59be
-0.10642914 0.43941632 0.024854194 0.3013622 0.4404131 0.14990677 0.20749387 0.2000283
0.049926057 0.046324253 0.50146204 0.17671847 0.39537776 0.7383654 0.58111936 0.22982402
0.28108117 -0.032864694 -0.12576395 0.43100575 0.21671851 0.13430454 0.76944464 0.66049796
-0.3080389 0.31390062 0.04960252 0.4469023 0.16807522 -0.033744037 -0.09560508 -0.23290631
0.21184398 0.26423743 0.24069193 0.19764403 1.3612319 0.7614032 1.1762065 0.81196827
0.35645327 0.86955816 0.97362864 0.9277384 1.0223887 -0.12234674 -0.39719832 -0.39398783
-0.28341293 -0.54466563 -0.27953607 -0.20514989 -0.3432837 -0.5652327 0.88696253 0.9305568
0.7274151 0.9217209 1.0049773 0.9633237 0.5958413 0.68293315 0.61466396 -0.28197026
-0.43166888 -0.4486096 -0.125418 -0.2660606 -0.2449777 -0.23107989 -0.22366656 -0.35792157
-0.8364336 -0.7726765 -0.6638002 -0.76577306 -0.98620725 -0.64351356 -0.620707 -0.6888425
-0.21219681

conv1.bias f4 [3]
00000000: 48ce e33f b118 d83e f23a 84be
1.7797327 0.42206338 -0.25826222

fc.weight f4 [8, 243]
00000000: 7d23 933e 429c 373e 0e04 2d3e 9043 853d
00000010: d100 aa3c e3f4 9c3d 30ad bb3d f655 bc3d
00000020: eb20 5e3e bd39 783e d792 b23d fecb 023e
00000030: c405 113e d584 bcbc 79da 293d 375b f53d
00000040: a6c3 423d 6be5 fa3d 3963 5c3e 7a74 783d
00000050: adbd 013e 4cb9 c8bd 5252 1dbe f459 3fbe
00000060: b009 cebc 4446 a2bc 57eb 0d3e e346 db3d
00000070: f9c8 5cbd 4d68 1fbe 65e0 70bf fcd4 74bf
00000080: 7441 89bf 27f2 05bf 84d9 51bc da5c 173d
00000090: d7f5 613d 685e 17be 0ea7 04be 3b6e 5bbf
000000a0: 9744 28be 1ef3 36bf 2812 d6be f81c ba3c
000000b0: 2967 d83d 1802 b93d bfcd 51bd a254 92bc
000000c0: ce2f 47bf ef65 c1be e6d1 83bf 71cf f5be
000000d0: 6c82 babc 7838 1a3d bde9 b33d 6a7f 663a
000000e0: 4d44 9bbd 2900 2abf eb1e 30bf 0e68 6bbf
000000f0: d3dc 8fbe 0b48 9b3d 847d b43d 86ed 593e
00000100: 4180 af3c 8e2d 85bb cd74 5dbe 25b7 75be
00000110: e6ad 76be 3c4a c53c 8da1 5e3e e55a 473e
00000120: 6f9c 303e 670b 063e 1568 873d a42e 773c
00000130: 6b00 25be ade3 20bd c561 fa3d 2a16 5a3e
00000140: c28c 813e 4b59 e6bc 4f68 50be fd01 10be
00000150: 0692 c5bd a3e4 a7bd ade9 ff3c 0281 243d
00000160: ddbc b5bd 3a21 f0bd dc94 bebd 8a2e e5bd
00000170: f298 d6bd 225c 6dbc 7521 17bd 6a3f f33c
00000180: ae64 21bd d79d 86bd a93c 12be 6302 02be
00000190: 7cdc 0fbe 442b a6bc b2cd 1a3e a75d 393e
000001a0: 21ad 143e 4a33 9a3c 6a83 40bd 9589 e3bd
000001b0: d603 96bd d7b0 00be deb2 0c3e 6eea 2f3e
000001c0: 52ce 0f3f 0250 033f 90b7 603e c7f5 463c
000001d0: f53c c03b c4ee a9bd 0e09 14be 3e60 8f3e
000001e0: 3c52 243f 04a9 ad3f 0ada 943f e105 123f
000001f0: 88e5 233e 52fb 1d3d ff12 3bbc 5f40 abbd
00000200: cbb2 ac3e 91d4 5d3f 0708 b03f 30a9 a03f
00000210: 0337 ce3e 57e6 4d3e 070d 1abe 7c59 93bd
00000220: 1894 94bd 2c34 c03d 6e47 113f 1693 413f
00000230: 60a7 e23e b0ae 6f3d 3aa4 92bd 7afc 76be
00000240: 3670 9abc e52c 31be 3802 93bd f372 283e
00000250: 04ef 223e f7b5 fd3d 6ee0 1e3a 0646 31be
00000260: 21b3 7dbe fc48 95bd f5da f1bd efac 03be
00000270: e0ef 51bd 2606 2bbd cd12 24be 607d 22be
00000280: ae77 57be b45c 06be 7e77 a5be 2527 74be
00000290: bf4b febd eb6e 5fbd c76e a8bd f1a5 0dbe
000002a0: 3b74 59bd 9e96 d5bd 1d6c 93be 8847 5fbe
000002b0: 896b b23d 3e37 633e adef 503e cd02 963e
000002c0: c131 5d3e d510 fe3d d22d 253e 6462 45bd
000002d0: e3e3 a6bc 3743 0c3e e9ef a43e 8046 bf3e
000002e0: 006e d43e 884a da3e 288d 643e 3639 7b3e
000002f0: b14b 063e 07c3 5bbd aa1d 0d3e 0c98 3b3e
00000300: 9dd2 a83d 6e9b 9a3e aab5 bc3e c709 e9bc
00000310: 77e5 fd3d b582 123e d8a9 bfbd e007 6e3e
00000320: dbbb fe3d 9f1e 233e b254 143f b810 2f3f
00000330: 550a 5bbd 87ad 2a3e fc38 283e 3f3f c83b
00000340: 3d68 643e fd4e 183e d530 a83d bc4f b23e
00000350: 8fcd 193f 2b5e 6cbe b4fe 043e 980e 103e
00000360: a581 493d 53df 803e 832a c33d c166 f8bd
00000370: 91e8 12be b2c9 9f3d 2209 6dbe 2c4d 1c3e
00000380: 342b 0f3e 9ee2 11bd deb3 883e 5f12 f83d
00000390: b6c6 4dbd 2136 763c b16d 203e 7386 1d3e
000003a0: ed05 983e f4f5 7d3e 84b0 3abe c817 1f3d
000003b0: b2c5 053e 2ff1 513d b8d7 b73d 2725 5d3e
000003c0: d0b5 3b3e 57ed 783e ebc8 2e3e 390e 3c3e
000003d0: 1370 253e 05d7 3e3c 58c4 3bbc be22 d5bd
000003e0: ea67 acbd 1a98 cc3b 1c63 f23d 8daa 393e
000003f0: 8c7b 2d3d b90c 1ebd 7cf9 babd 2e94 7dbd
0.28738013 0.17930701 0.16896078 0.06507027 0.020752342 0.07663896 0.09163892 0.09196083
0.21692245 0.24240775 0.08719414 0.1277313 0.14162356 -0.023012558 0.041468117 0.119802885
0.047549866 0.12250789 0.21522225 0.060657956 0.12670012 -0.098009676 -0.15363434 -0.18686658
-0.025151104 -0.019808896 0.13859306 0.1070688 -0.0539026 -0.15567131 -0.940924 -0.9563749
-1.07231 -0.5232262 -0.012808207 0.036953785 0.05516609 -0.14782107 -0.12954351 -0.85715073
-0.16432415 -0.7146472 -0.41810727 0.022718892 0.10566551 0.090336025 -0.051221605 -0.017862622
-0.7780732 -0.37773082 -1.0298431 -0.48009828 -0.022767268 0.03765151 0.087848164 0.000879279
-0.07581387 -0.66406494 -0.6879718 -0.9195565 -0.28098163 0.075821005 0.08813003 0.21282014
0.02142346 -0.0040642684 -0.21626587 -0.23995645 -0.24089774 0.02408325 0.21741314 0.19468267
0.17247175 0.13090287 0.06611649 0.015086804 -0.1611344 -0.03927963 0.12225679 0.21297517
0.25302702 -0.02811875 -0.2035229 -0.14063258 -0.096469924 -0.08197906 0.031239355 0.040162094
-0.088739134 -0.117250875 -0.093057364 -0.11190517 -0.10478391 -0.014487298 -0.03689714 0.029693324
-0.039402656 -0.06573074 -0.14280953 -0.12696223 -0.14048952 -0.020284303 0.15117529 0.18102132
0.14519168 0.018823285 -0.047000326 -0.11110226 -0.073249504 -0.12567459 0.13740107 0.17179272
0.56174195 0.5129396 0.21945024 0.012143559 0.0058666416 -0.08297494 -0.14456579 0.28003114
0.6418798 1.3567204 1.162904 0.5704022 0.16005528 0.038569756 -0.011418103 -0.08361887
0.33730158 0.86652476 1.375245 1.2551632 0.40276346 0.20107399 -0.15044032 -0.07194802
-0.07254809 0.09384951 0.5674962 0.7561506 0.44268322 0.058516204 -0.0716023 -0.2411975
-0.018852334 -0.17302282 -0.071781576 0.164501 0.1591149 0.12388223 0.00060606643 -0.17311868
-0.24775364 -0.07289311 -0.11809341 -0.12858938 -0.051254153 -0.04175391 -0.16022797 -0.1586814
-0.21041748 -0.13121301 -0.32317728 -0.23843057 -0.12416791 -0.05454914 -0.08224254 -0.13832833
-0.05308936 -0.104291186 -0.2879342 -0.21804631 0.08711917 0.22189042 0.20403929 0.29299012
0.21601011 0.12405554 0.1613076 -0.048189536 -0.020372337 0.13697515 0.32214287 0.37358475
0.41490173 0.42634988 0.22319472 0.24533543 0.13114811 -0.05365279 0.13780847 0.1831972
0.08243296 0.30196708 0.3685735 -0.028447045 0.123972826 0.14307673 -0.09358567 0.23245192
0.12438174 0.1592965 0.57941735 0.68384886 -0.05347665 0.16667758 0.16427988 0.006111055
0.22305389 0.14873882 0.08212439 0.34826458 0.6007928 -0.23082797 0.12987787 0.14068067
0.049195904 0.25170383 0.09529593 -0.12128974 -0.1434653 0.07802142 -0.23148015 0.15263814
0.13981324 -0.03561651 0.26699728 0.12112879 -0.050238334 0.015027554 0.15666844 0.1538332
0.2969202 0.24800855 -0.18231398 0.03884104 0.13063696 0.0512554 0.08976692 0.21596204
0.18331075 0.24309288 0.17068832 0.183648 0.16156034 0.011647944 -0.011460386 -0.10407017
-0.084182575 0.006243718 0.1183531 0.18131466 0.04235415 -0.038586352 -0.091296166 -0.061908893

fc.bias f4 [8]
00000000: c6bc 2d3e b6aa 6abe c1f9 86bd f5ac 973f
00000010: 99b5 cb3e 3480 cf3e a539 a4bf 09bb c7bf
0.16966543 -0.22916684 -0.065906055 1.1849657 0.39786986 0.405275 -1.2830092 -1.5603954
