Baseline_Results/k=3/max/local/Feature_Extraction/BloodMNIST/Net/Run_3/Best_Weights.pt (torch, 13629 bytes, 4 tensors)

conv1.weight f4 [3, 3, 3, 3]
0.1998372 0.33345717 -0.2237176 0.22916101 0.07191614 -0.5385883 0.3155981 -0.36373937
-0.52388686 -0.23086439 -0.3049366 -0.5034774 -0.18422592 -0.47028577 -0.5970982 -0.16090795
-0.6637302 -0.56470954 -0.15182436 0.23462442 -0.015221188 0.035072338 -0.40796787 -0.69579333
0.20016733 -0.5265586 -0.0020474533 -0.46174583 -0.18024625 -0.0601029 -0.17057912 -0.13793106
-0.027499732 -0.29976797 -0.14167623 -0.27499497 0.16187748 0.12129268 0.40811357 0.41431472
0.51387066 0.4627659 0.31588346 0.3468705 0.29879737 0.3446704 0.5038478 0.46670622
0.49380937 0.6551114 0.2432664 0.16448045 0.2960425 0.122577816 0.8312905 0.7300215
0.59850156 0.5271444 0.7299074 0.98066235 0.79516786 0.6589571 0.6228038 -0.5373958
-0.47713238 -0.23854904 -0.5654403 -0.07797379 -0.15601209 -0.28725877 -0.17144375 -0.09506204
-0.39364457 -0.78575546 -0.52007717 -0.71159333 -0.136706 -0.043548673 -0.6281724 -0.079057954
-0.2503172
00000000: 1fa2 4c3e e6ba aa3e 3a16 65be 2fa9 6a3e
00000010: c548 933d ece0 09bf 1396 a13e 0c3c babe
00000020: 731d 06bf b767 6cbe a620 9cbe e5e3 00bf
00000030: b8a5 3cbe 4cc9 f0be 6ddb 18bf 0ec5 24be
00000040: 39ea 29bf ce90 10bf d877 1bbe 6241 703e
00000050: 4a62 79bc 03a8 0f3d 2ae1 d0be 831f 32bf
00000060: aaf8 4c3e 8bcc 06bf 912e 06bb f369 ecbe
00000070: 7992 38be 752e 76bd 4bac 2ebe cd3d 0dbe
00000080: 1e47 e1bc 307b 99be 9313 11be 24cc 8cbe
00000090: 36c3 253e 4c68 f83d 43f4 d03e 0f21 d43e
000000a0: 078d 033f a7ef ec3e 7abb a13e 0399 b13e
000000b0: f8fb 983e a378 b03e 2bfc 003f 1ef4 ee3e
000000c0: 95d4 fc3e 61b5 273f d41a 793e 906d 283e
000000d0: e292 973e 140a fb3d 74cf 543f b0e2 3a3f
000000e0: 6637 193f eff2 063f 36db 3a3f b00c 7b3f
000000f0: 1f90 4b3f 6ab1 283f 1270 1f3f c592 09bf
00000100: b24a f4be 3346 74be b2c0 10bf b9b0 9fbd
00000110: a2c1 1fbe 9513 93be f38e 2fbe e3af c2bd
00000120: c88b c9be 4527 49bf c723 05bf fb2a 36bf
00000130: a8fc 0bbe 1860 32bd e8cf 20bf 23e9 a1bd
00000140: 9329 80be

conv1.bias f4 [3]
0.29780477 0.40266612 0.43815958
00000000: de79 983e 412a ce3e 7456 e03e

fc.weight f4 [8, 363]
-1.2852061 -0.32372817 0.0024842431 0.1193074 -0.020151129 0.11198335 0.21321888 -0.0704894
0.007815553 -0.037287578 -0.72865623 -0.18434374 0.21306925 0.18250977 0.19941965 -0.000513346
0.20941608 0.11934925 0.3468604 0.14735432 0.03434896 -0.48000264 0.23871987 0.049668938
0.20292687 0.23489174 0.0064323763 0.076497085 0.01997075 0.1666961 0.19842821 0.14061941
0.35377103 -0.08254438 0.10385336 0.24254249 0.08493878 -0.081525736 -0.02644597 0.023265468
-0.0653652 0.09268846 -0.018431898 0.21853197 0.18281083 0.06661641 0.010270977 0.07296407
0.08006558 -0.0759197 -0.045175165 -0.13745205 0.039575625 0.098326325 0.2876173 0.10795001
0.19851041 -0.058153667 -0.072762944 0.0783652 0.056022756 -0.08916713 -0.18667799 0.044234358
0.1878872 0.11248972 0.10242757 0.09888057 -0.05219264 0.008246293 0.109617285 0.025476206
-0.12735608 -0.10600728 0.03512925 0.1208536 -0.074969426 0.12550952 0.10327732 0.00097435527
0.018765647 -0.014013234 -0.07568802 -0.13261084 -0.13831842 -0.021187512 -0.036452275 -0.031387657
-0.091968596 0.11542626 0.16228889 0.05755372 0.015966875 0.0036635022 -0.026199209 -0.04339927
0.119181246 0.20155439 0.13304621 0.40987733 0.1296338 0.10925411 0.12022228 0.0999302
0.1845432 0.11715609 0.08611974 0.059961665 0.12955922 0.19663526 -0.4789887 0.4005253
0.11458076 0.21564078 0.047612987 0.10486031 0.25275666 0.061123002 -0.021096166 0.1135962
-0.30509257 0.030317819 -0.03810845 -0.03993606 -0.060494877 -0.029837143 -0.0003127132 0.014538411
-0.017156208 -0.044056594 0.060758658 0.15910077 0.01120739 -0.00549271 0.07225618 0.07002214
0.054552853 0.06490537 0.12858109 0.10340787 -0.004249206 -0.011623881 0.02449307 0.035194047
0.08696402 0.074085645 0.03489476 -0.04818025 0.08604983 0.022974867 -0.10810542 -0.14066598
-0.031982567 0.03608416 -0.09231857 0.0038650108 0.010411327 0.020878723 -0.06500614 0.0038733773
-0.12943797 0.16038333 -0.07701231 0.043636654 0.033935405 0.046439253 0.06769835 -0.054036874
0.08164919 -0.12859398 -0.47452912 -0.1865815 -0.07449032 0.06859805 -0.04005777 -0.027580466
-0.0037062406 0.010677071 -0.015238036 -0.4053857 -0.37853134 0.24389686 0.024389748 -0.26858905
0.028586602 -0.045187745 -0.116508305 -0.018275453 -0.033529803 0.04247258 0.057048436 -0.095115244
0.19606176 -0.15956299 -0.17045207 0.032299656 0.045161407 -0.023746246 0.032729186 -0.013982892
0.08479123 0.022175126 -0.19538784 -0.39127967 -0.34428713 -0.09555993 0.05034903 -0.13786046
0.021122884 -0.047639284 -0.0073540215 -0.008113008 0.033863675 -0.0779903 -0.097886935 -0.16931994
-0.040136408 -0.0064466987 -0.059052773 -0.04316544 -0.04873701 0.048289474 -0.022199875 -0.13889335
-0.07976585 0.043297235 -0.1368529 -0.055035267 -0.10772673 -0.0037928459 -0.073867545 0.083824076
0.016669646 -0.015697023 -0.015536446 -0.057744294 -0.03657711 -0.036678035 -0.115571536 -0.06278556
-0.027613455 -0.08371077 -0.3185954 -0.2746027 -0.14865005 -0.13748336 -0.16444297 -0.082545705
-0.062740885 -0.1459989 -0.12900993 -0.18314047 -0.22114366 -0.2515684 -0.15302633 -0.069268785
00000000: a281 a4bf b3bf a5be afce 223b 7057 f43d
00000010: fb13 a5bc 8757 e53d 0d56 5a3e bf5c 90bd
00000020: ce0c 003c dcba 18bd 3789 3abf 9bc4 3cbe
00000030: d32e 5a3e d7e3 3a3e aa34 4c3e 1192 06ba
00000040: 2b71 563e 616d f43d b097 b13e 0de4 163e
00000050: 7fb1 0c3d e8c2 f5be fb72 743e a871 4b3d
00000060: 10cc 4f3e 7687 703e afc6 d23b 81aa 9c3d
00000070: b399 a33c 62b2 2a3e c430 4b3e 89fe 0f3e
00000080: 7a21 b53e 070d a9bd 12b1 d43d 0f5d 783e
00000090: 62f4 ad3d f7f6 a6bd 38a5 d8bc 3997 be3c
000000a0: 31de 85bd 73d3 bd3d 7efe 96bc d8c6 5f3e
000000b0: c332 3b3e 2f6e 883d 9a47 283c 306e 953d
000000c0: 6cf9 a33d ca7b 9bbd 9809 39bd 3bc0 0cbe
000000d0: 0d1a 223d 505f c93d 9342 933e e514 dd3d
000000e0: 5046 4b3e 8a32 6ebd bd04 95bd ef7d a03d
000000f0: 1e78 653d 429d b6bd 8428 3fbe 162f 353d
00000100: 8165 403e 0361 e63d 8cc5 d13d e581 ca3d
00000110: f3c7 55bd 761b 073c 077f e03d 7ab3 d03c
00000120: a269 02be 581a d9bd b0e3 0f3d 1882 f73d
00000130: 9289 99bd 9185 003e 0f83 d33d e06b 7f3a
00000140: 6aba 993c c397 65bc 5202 9bbd 23cb 07be
00000150: 58a3 0dbe 6f91 adbc fb4e 15bd 5890 00bd
00000160: 085a bcbd 9a64 ec3d 0f2f 263e 73bd 6b3d
00000170: f7cc 823c 5e17 703b b99f d6bc 6fc3 31bd
00000180: 4c15 f43d 4664 4e3e 443d 083e 71db d13e
00000190: b9be 043e 9ec0 df3d 1937 f63d 34a8 cc3d
000001a0: e5f8 3c3e 88ef ef3d 8c5f b03d 5d9a 753d
000001b0: 2cab 043e c15a 493e 023e f5be a711 cd3e
000001c0: 51a9 ea3d f0d0 5c3e d605 433d 01c1 d63d
000001d0: 5269 813e 1d5c 7a3d ded1 acbc 20a5 e83d
000001e0: 1835 9cbe 135d f83c 9b17 1cbd fe93 23bd
000001f0: 7ac9 77bd 066d f4bc a8f3 a3b9 8432 6e3c
00000200: 2d8b 8cbc b074 34bd 12de 783d 50eb 223e
00000210: 339f 373c 31fc b3bb 0cfb 933d c567 8f3d
00000220: d072 5f3d 1bed 843d c3aa 033e 81c7 d33d
00000230: ec3c 8bbb 1772 3ebc b1a5 c83c a227 103d
00000240: 311a b23d 37ba 973d cfed 0e3d a758 45bd
00000250: e53a b03d ca35 bc3c 6066 ddbd be0a 10be
00000260: 2700 03bd fccc 133d 8511 bdbd 1f4c 7d3b
00000270: 4594 2a3c db09 ab3c f021 85bd 7dd8 7d3b
00000280: 638b 04be 873b 243e a1b8 9dbd 59bc 323d
00000290: daff 0a3d 1637 3e3d 6fa5 8a3d c555 5dbd
000002a0: b137 a73d 24ae 03be 7bf5 f2be 390f 3fbe
000002b0: 628e 98bd 227d 8c3d 9e13 24bd 6ef0 e1bc
000002c0: 66e4 72bb e2ee 2e3c f5a8 79bc b78e cfbe
000002d0: dcce c1be 19c0 793e 02cd c73c 8184 89be
000002e0: 732e ea3c c916 39bd e89b eebd 67b6 95bc
000002f0: 8c56 09bd baf7 2d3d 9fab 693d c8cb c2bd
00000300: 6ac4 483e 7b64 23be fd8a 2ebe a54c 043d
00000310: 2bfb 383d 7d87 c2bc 0a0f 063d 8018 65bc
00000320: 06a7 ad3d 9ca8 b53c c013 48be cf55 c8be
00000330: 6746 b0be edb4 c3bd c93a 4e3d 4b2b 0dbe
00000340: e609 ad3c 6921 43bd 01fa f0bb 6cec 04bc
00000350: a3b4 0a3d 61b9 9fbd f278 c8bd 3562 2dbe
00000360: 1366 24bd d43e d3bb 52e1 71bd 3fce 30bd
00000370: 76a0 47bd 2fcb 453d 83dc b5bc 0f3a 0ebe
00000380: 475c a3bd 7158 313d 2b23 0cbe a96c 61bd
00000390: d59f dcbd 6591 78bb de47 97bd f5ab ab3d
000003a0: c88e 883c 0b97 80bc 948c 7ebc 4885 6cbd
000003b0: e1d1 15bd b53b 16bd c5b0 ecbd b795 80bd
000003c0: 9d35 e2bc 8d70 abbd f01e a3be ba98 8cbe
000003d0: b837 18be 70c8 0cbe bd63 28be b90d a9bd
000003e0: 4b7e 80bd bc80 15be 2e1b 04be 2d89 3bbe
000003f0: 7c73 62be 93cd 80be efb2 1cbe cbdc 8dbd

fc.bias f4 [8]
-0.34795004 -0.33826244 -0.19945036 0.26455683 -0.013895177 0.53876185 -0.24067158 -0.026099218
00000000: 8226 b2be bc30 adbe b73c 4cbe fe73 873e
00000010: 99a8 63bc 4cec 093f 9c72 76be 07ce d5bc
