Baseline_Results/k=2/max/local/Feature_Extraction/BloodMNIST/Net/Run_1/Best_Weights.pt (torch, 15869 bytes, 4 tensors)

conv1.weight f4 [3, 3, 3, 3]
00000000: 564a bbbe 7016 51be 6ada 38be 20ba aebe
00000010: b904 11bf 87f6 9dbe 70a4 0ebf 5f33 2dbf
00000020: 7592 c6be 48d5 02bf 31f7 d2be 489d e6be
00000030: 6fc9 a3be f964 87be c92b 19bf c1ef eebe
00000040: 96dd a8be f0fe 96be 3805 8f3e fa4f 913e
00000050: 68b5 d63c 03bd 56bd f71d cfbe 06ab 19bf
00000060: be3c 673d c09d c2be da38 97bd 8f0b 253f
00000070: 2b61 9d3e 9f2d 863e 7357 153f ac27 613e
00000080: 380f 693e 18e4 583f c0d9 233f 0949 c83e
00000090: bf71 f5be 9499 27bf 9f57 00bf 3d6a 13bf
000000a0: f1fe 40bf cf6f 30bf e2e8 a4be b6f3 05bf
000000b0: 797a 43bf bdbf 3bbe f790 8ebe 22d7 7dbe
000000c0: 65c2 0c3e e51f 16bf a0bf 16bf 7c19 203d
000000d0: 93cb 0dbe 55cd 4cbf c748 06bf 39e3 82be
000000e0: b4e0 d3bd b69b 4dbd 6f73 203e 5091 983e
000000f0: 7732 99bd ce1f 113e 8f94 1c3e 80ba 47be
00000100: 0f94 543e 3e52 403e 2ce0 8cbd 96b9 033f
00000110: c846 163f 6ed3 f03d 9fef 193f 0d80 0b3f
00000120: ff96 28be 8452 16bd 11b7 0cbe 736c adbd
00000130: baa8 dd3e 5ff4 023f def7 23be 7b2f 943d
00000140: 071c f73c
-0.3658015 -0.20418715 -0.18052068 -0.34126377 -0.5664783 -0.30852148 -0.5571966 -0.6765651
-0.38783613 -0.5110669 -0.41204217 -0.4504187 -0.3198962 -0.26444224 -0.59832436 -0.46667293
-0.32981557 -0.29491377 0.2793367 0.2838133 0.026209548 -0.05242635 -0.4045255 -0.60026586
0.056454413 -0.3801098 -0.073838905 0.6447076 0.30738196 0.2620668 0.5833656 0.2198779
0.22759712 0.84723043 0.64004135 0.3911822 -0.47938344 -0.65468717 -0.501337 -0.5758398
-0.7538901 -0.68920606 -0.32208925 -0.52325 -0.76358753 -0.18334861 -0.27844974 -0.24789098
0.1374603 -0.5864242 -0.58886147 0.039086804 -0.13847189 -0.8000081 -0.524548 -0.25563982
-0.10345593 -0.050197326 0.15669034 0.29798365 -0.074803285 0.14172289 0.15291046 -0.19504738
0.20759605 0.18781373 -0.06878695 0.51455057 0.58701754 0.11759077 0.6013126 0.54492265
-0.1646385 -0.036699787 -0.1374171 -0.08467951 0.4329279 0.5115413 -0.16012523 0.07235619
0.030164732

conv1.bias f4 [3]
00000000: e2b0 163f 9894 73be d384 9c3f
0.5886365 -0.23787153 1.2228035

fc.weight f4 [8, 432]
00000000: ee8e 123e c7db 3ebe 3b96 b73e e6fa b9be
00000010: 0195 15bf 5048 c03d 935c 1dbe 5208 8ebd
00000020: ec9c 7b3d a723 8b3e 08c8 303f 7da5 173e
00000030: 176f 21bf d2c2 68be be75 503d 9b64 d03b
00000040: 3699 afbd 9995 553d 5b45 d3ba 99b7 19be
00000050: 28ad 523e 4a86 773e fbb2 c73e 4dac 94be
00000060: e848 b03e 5d3a 973e 7b58 e23d 405f f83c
00000070: 0fc7 fabb 8d1c a03c 12d0 8a3d 6652 c73c
00000080: 4b92 8d3c 7c8e acbd 2f3a 24bf 1b57 1abe
00000090: 11fa 403e 51ec 773d 05c9 8abc 4ba5 803c
000000a0: 6b63 953d 7078 86bd de4e 893d 7a17 213e
000000b0: 9bd2 e43d 4682 7e3d 0d43 923e bbca a73d
000000c0: 2006 78bd 15a5 0d3e 1d5a 083e 79a8 c53d
000000d0: 6d51 0e3e 52e8 033d 75d4 363e 328e 863d
000000e0: fc5c cabc e0ba a03c b620 d13d faa6 3cbd
000000f0: fb68 e3be c736 843c 443b 9f3d b182 b4bd
00000100: 37d3 033e 6eb7 4e3e d522 aa3e b6f3 c63c
00000110: 9b11 c93d c6c9 983d 7c83 e93d 8cfe 083e
00000120: ba90 21be b62e 613d 8308 123e a5ac 583c
00000130: 8e39 363e 7804 633e 238a 863e 8d25 f23d
00000140: 71c3 16bc f8af e63d 73a7 f13d ed80 70be
00000150: c7cd 61be 8cf4 e23b 1066 06bd cd02 e63d
00000160: 45b5 583c 5f57 713d 5ff5 d33d 46bc 64bd
00000170: 1af8 c0bc 114f 0dbd f200 9e3d 7f12 5dbd
00000180: 5bd4 ce3c 148f ddbc b720 373e 6cb6 323d
00000190: 12f5 53bc 990b a63d b891 033e 6cf7 fbbc
000001a0: 4bf1 0abd 0788 fbbc 8097 823d fc6d 06be
000001b0: f083 6b3e 0559 9f3e aa69 4bbd 79de b53d
000001c0: ea47 d03c 01a5 993d 6c72 e53d ce3e c83d
000001d0: 7685 03be e205 1dbc fd02 2a3d 700a 123e
000001e0: 8e46 043d 2aa7 ca3e e322 e53d 2cba a1bd
000001f0: 254f 653d 691c 3cbd 993b 863e da85 2e3d
00000200: 8acf bdbe 3b0c e4bb f73d 25bd 883f 7bbd
00000210: e1be 8ebf 0533 be3e af03 1a3e ac3f bc3e
00000220: 699c 1ebe 15fb 613d d770 533e 23e9 02be
00000230: 14f9 b23b d998 5a3d e372 983e 7382 1dbf
00000240: ae10 65bf 9acc b6bd 40ae 8ebe 823a cbbe
00000250: 047a 8ebe 8c10 16be cee0 d6be 54d4 9fbe
00000260: 0628 1bbf 6c52 a7be 8c52 b2be 7b02 30bf
00000270: 3c28 5abf 0667 33be 55f3 5bbe 8934 133e
00000280: e8a3 803e fb86 84bd c354 643e 8d98 973d
00000290: 70ee 05bd 608f 6bbe 0b3d 7abe d756 dfbd
000002a0: 59b6 c7be 4c86 a0be 7fd3 af3e 59f3 653e
000002b0: 9c07 c63e 413c 893e 786d 7f3e d47f 883e
000002c0: d57d 673e 69fd c7bc beb4 7b3e 5379 1fbf
000002d0: b1ac ffbe a022 9d3e 9a55 183d 6e25 c53e
000002e0: 94c8 ae3e 3ebd ef3d cde0 063e 40ee 273e
000002f0: ee61 663e 6dfd 243c ec6f 983e 4809 bbbd
00000300: 733e 2bbd ce02 66be e6db dd3d f611 af3e
00000310: 8a64 5e3d 9293 66bd ccf3 25be 35b6 17be
00000320: 1407 833d 5816 103d 2a3b 453e 7e29 a5bc
00000330: e358 583d e5d5 663e be79 1b3e cfcc d5bc
00000340: 30da febd f71e afbe 0f52 fdbe 9572 adbe
00000350: 4a27 a23c 8e9a 7a3d 6261 793e e94c 7bbe
00000360: 3e78 b83e 0272 813e cf46 093e 3301 c5bb
00000370: 67aa 47be 3ab3 e1be 0146 22bf f239 96be
00000380: 26c6 ac3c 4f4c 173e e4fd 913a 629b c43d
00000390: 6922 7fbe 6ba7 5dbc 4286 1b3e 3b64 833a
000003a0: 2882 32be ebca 1ebe c8e2 aabe 2e5a 80be
000003b0: 73e1 413e e4a0 c43d d20a c93d dc3f 5a3e
000003c0: d00c 303e 4d4f 8dbb 0668 c2bd deb0 883d
000003d0: 0614 2d3e 87e6 0abc 9670 0ebe 308d 863d
000003e0: 8e31 0b3f 9cd6 a13e 6702 573d deb2 52be
000003f0: d8d0 01bf 35b2 1e3e 7153 2c3e d703 993e
0.14312336 -0.18638526 0.35856804 -0.36324233 -0.58430487 0.093887925 -0.15367346 -0.06935181
0.06142895 0.27175638 0.69055223 0.14809223 -0.63060135 -0.22730568 0.050893538 0.0063596494
-0.085741445 0.05214462 -0.0016118692 -0.15011443 0.20573866 0.24172321 0.3900374 -0.29037705
0.34430623 0.29536715 0.110520326 0.030318856 -0.007653124 0.019544864 0.067779675 0.024331283
0.017281672 -0.08425614 -0.6415128 -0.1507229 0.18845393 0.060528103 -0.016941557 0.015703818
0.07294353 -0.065659404 0.06704496 0.15731612 0.11172982 0.062135957 0.2856678 0.08192965
-0.060552716 0.13832505 0.13315625 0.09651274 0.13898249 0.03220398 0.17854483 0.0657009
-0.024702542 0.019620359 0.10211317 -0.04605768 -0.4441603 0.016139401 0.07774976 -0.0881399
0.12873541 0.2018716 0.332297 0.024286132 0.09817811 0.0746036 0.11402032 0.13378352
-0.15777865 0.054976188 0.1426106 0.013224755 0.17795393 0.22169673 0.26277265 0.118235685
-0.00920187 0.11264032 0.117995165 -0.23486681 -0.22051154 0.006926125 -0.032812178 0.11231003
0.013226812 0.058921214 0.10349535 -0.055843614 -0.023555804 -0.03449923 0.07715024 -0.053972717
0.025247743 -0.027045764 0.17883573 0.043631002 -0.012936847 0.08107681 0.12848556 -0.030757628
-0.03392152 -0.030704511 0.063765526 -0.13127893 0.22999549 0.31122604 -0.049661316 0.08880324
0.025424916 0.07502175 0.11203465 0.09777604 -0.1284388 -0.009583922 0.041506756 0.14261794
0.03229385 0.3958066 0.11188295 -0.078968376 0.05598368 -0.04592553 0.26217344 0.04260812
-0.37072402 -0.006959466 -0.040342297 -0.061339885 -1.1152002 0.371483 0.15040468 0.36767328
-0.15489353 0.05517109 0.20648514 -0.12784247 0.0054618213 0.053368423 0.29775152 -0.61527175
-0.89478576 -0.089257434 -0.27867317 -0.39693075 -0.27827466 -0.1465475 -0.41968387 -0.3121668
-0.60607946 -0.3268007 -0.34828603 -0.68753785 -0.8521764 -0.17519769 -0.21479543 0.1437551
0.2512505 -0.06471058 0.22297959 0.074021436 -0.032698095 -0.23003912 -0.24437349 -0.10905235
-0.39006308 -0.3135246 0.34341046 0.22456111 0.3867768 0.26803783 0.24944103 0.26660025
0.22606595 -0.024412828 0.24580666 -0.622945 -0.4993644 0.3069048 0.03719101 0.3850512
0.34137404 0.11706017 0.13171692 0.16399479 0.22498295 0.010070187 0.2977289 -0.0913263
-0.041807603 -0.22462007 0.10832958 0.3419339 0.0542951 -0.056293078 -0.16206282 -0.148156
0.063978344 0.03517756 0.1926085 -0.020161387 0.052819144 0.22542532 0.1518316 -0.026098637
-0.1244396 -0.34203312 -0.49476668 -0.33876482 0.019794125 0.06118255 0.24353555 -0.24541058
0.36029238 0.25282294 0.13405918 -0.006012106 -0.19498597 -0.44082052 -0.6338807 -0.29341084
0.021090578 0.14775203 0.0011138287 0.095999494 -0.2491547 -0.013528685 0.15187934 0.0010024378
-0.17432463 -0.15507095 -0.33376145 -0.25068802 0.18933658 0.09601 0.09816517 0.21313423
0.17192388 -0.004312432 -0.09492497 0.0667436 0.1690217 -0.008477814 -0.13910136 0.06569898
0.5437249 0.31609046 0.052492525 -0.20576045 -0.50709295 0.15497668 0.16828705 0.29885742

fc.bias f4 [8]
00000000: 71cb 08bf ebc3 23bf 895e 553d a94a 26bd
00000010: f9d2 1e3d 1dec 613f dd9a 1abe acb2 183e
-0.53435427 -0.6397082 0.05209211 -0.040598545 0.038775418 0.88250905 -0.15098138 0.14911908
