Baseline_Results/k=3/avg/local/Feature_Extraction/BloodMNIST/Net/Run_3/Best_Weights.pt (torch, 13629 bytes, 4 tensors)

conv1.weight f4 [3, 3, 3, 3]
00000000: 816e 883f 9091 753f da6c 053f 3e6f 763f
00000010: 622a 903e 37e2 00bf 74e0 2a3f 02a0 45bd
00000020: 0006 9abe 84b4 a3be d6a9 f3be 0988 ffbe
00000030: 8d91 80be 2d8d 49bf 6b93 72bf b21b b0be
00000040: 7dcb 72bf cf2c 50bf 172a ba3e b3e5 c93e
00000050: 0e12 55bd 775c 453f b735 2ebf 7bb0 f1bf
00000060: 197f 573e 56af 9bbf fab5 c1bf 2635 6ebf
00000070: 8b6d d9be 56a9 ecbe de4b 18bf e651 53be
00000080: c48e babd 911a 33bf cbb2 8fbe 9ea2 7cbe
00000090: a85a 43bc d51d 973e b0fe c03e 5979 bd3e
000000a0: 0cca 6e3f 8166 5a3f f83b 7e3e 458e 283f
000000b0: 32cf 2a3f a918 ba3d 5949 903e 80e7 803d
000000c0: a0ab 3b3d 4986 ac3e 743e 853d d328 bfbd
000000d0: 986a d93d 9108 833e df1b 343e 8152 173f
000000e0: 5197 f43e 2b1e 6e3d 322d 4e3f 46d3 8f3f
000000f0: 845a dc3e 67f3 383f 36f7 673f dcc4 7dbf
00000100: 573f dabe 526a 5fbe c476 5ebf ba31 8c3e
00000110: 56d9 8c3e be24 20bf 928e 2a3c 4ab1 883e
00000120: 806d 82bf 2315 53bf fa42 27bf 15a5 78bf
00000130: cc88 6e3d e20b 223e 077d 30bf 9e0f 853d
00000140: 79eb a33e
1.0658723 0.95925236 0.5211922 0.9626349 0.28157336 -0.50345176 0.6674874 -0.0482483
-0.30082703 -0.3197366 -0.47590512 -0.49908474 -0.25111046 -0.7873104 -0.9475619 -0.3439613
-0.9484175 -0.8131837 0.36360237 0.3943306 -0.05201917 0.77094215 -0.6805071 -1.8881983
0.21044578 -1.2162883 -1.513366 -0.9304985 -0.42466387 -0.46222943 -0.59490764 -0.2063671
-0.09109262 -0.6996241 -0.28066096 -0.24671409 -0.01192347 0.29514948 0.3769431 0.37006643
0.9327705 0.8531266 0.24827564 0.65842086 0.66722405 0.09086735 0.2818096 0.06294155
0.04581797 0.336962 0.065060526 -0.093339585 0.10616034 0.25592473 0.17588757 0.59110266
0.47771695 0.05813424 0.8053771 1.123635 0.43037808 0.722464 0.9061159 -0.9912851
-0.4262645 -0.21817902 -0.8689997 0.27381688 0.27509564 -0.62556064 0.010409968 0.2669776
-1.0189667 -0.8245413 -0.65336573 -0.97126895 0.05823593 0.15824845 -0.68940777 0.06497119
0.3201559

conv1.bias f4 [3]
00000000: c3e9 943d 45e8 d23f 6522 bf3d
0.07271149 1.6477133 0.09332732

fc.weight f4 [8, 363]
00000000: 4408 94bf 2dd1 14bf 01ae 33be 4f7b 81be
00000010: 75b4 80bd e0b9 22be 2269 2cbe 4f03 cfbd
00000020: 65b7 aabc 81f8 2e3e 16b0 05bf 87c8 0dbe
00000030: ddb5 bc3d f38f 563e 68cf 043e 887d 993d
00000040: 5c91 823e e8d9 033e 3c25 ac3e f555 6fbd
00000050: a4d1 edbe 8283 92bf b4f9 523e 5fec a8bd
00000060: 25e5 b83e 3bce a63e 51c7 8c3e 362a 9b3e
00000070: a38d 123e 43c2 cc3e 508c a93e 2f38 bc3e
00000080: 5b9f 38be 899d 00be 4ef0 803d 5f35 803e
00000090: 3cb4 2c3e 6f8e 423c a994 9f3d 4d54 bc3d
000000a0: bd5c 993d 5004 893e acb1 b63d 623a fe3d
000000b0: 12bc 01bd fea3 1e3e 9374 943e b6e5 463e
000000c0: 7dae 563e 50b0 693d 4ba8 cc3d 6443 933c
000000d0: 6c85 bc3e 8917 a63e 3bfc c63e 38b6 a2bd
000000e0: c425 d03e 97fc 773e 71ee ab3d 025a 933d
000000f0: e342 173b 6789 16be 3d0d 48be 31df 143e
00000100: 8608 bcbc 1519 45be 8485 dcbd ce99 853e
00000110: 6860 2b3e 16ab 3e3e 10d2 493e fc3a adbc
00000120: fb6b 0fbe ce59 e9bd f0b6 3c3e 9dc8 8f3d
00000130: d293 d7be 7c69 39be d44e cb3d c1c3 0a3e
00000140: d364 df3d 78a1 8e3d cd8c 35bd 4c41 16be
00000150: fa06 dcbd 950a be3d 211d 513e 0549 f1be
00000160: a483 34be 5f76 4a3e 8ab7 893e 76ae 813e
00000170: 57ce 273e 08c1 c63d 6d7a 3c3d fd12 233d
00000180: 4be4 9e3e 3f55 da3e 9f66 6cbe 2378 853e
00000190: 8cc2 c23e 5afb 9c3e 4c19 903d 430c eb3d
000001a0: 5bfd 483e c525 903d ab53 afbc ee48 b13e
000001b0: cbef ca3e dd7f 83be 40b4 87bf aa73 853e
000001c0: aa57 9d3e 19fc 1e3e 5cd7 413e 1b0a f1bc
000001d0: 9ef6 913c 5217 a1be 32fa 533e b3a5 febe
000001e0: f64c b3bf a6ee 8dbd 2310 59bd 9815 0d3d
000001f0: d7c4 493d 7413 cb3d 1c5a 2c3e c0ce d43d
00000200: 0112 b2bd dbe7 40be 2693 13bd b212 8f3e
00000210: 6df5 afbd b628 05bc 3030 243e 2060 193e
00000220: d075 173e ee0d e13d ac31 453d 2069 6d3d
00000230: bf76 2dbd d9b7 58bd 6273 fd3d 32e5 e3bd
00000240: cdf0 273d 5a47 293d afd5 91bd b486 b7bd
00000250: fcb2 fdbd 26cd 32be 218f f9bc f896 26bd
00000260: 8dee 95bd 0977 2c3c df2b 10be dfb1 8fbd
00000270: 4f9f d03c ff13 e4bd 10d8 c33d c323 b3bd
00000280: 40d5 f3be 4891 71bd 39e7 9f3d e54d 8b3c
00000290: 1beb 97bc 5c90 84bd 8104 6dbd 1fe5 b6ba
000002a0: de2e 4ebe 2090 063f 3b4d 273f 3bc1 0ebd
000002b0: 1232 a1be ab65 e1bb af6d 77bd 0868 86bc
000002c0: f431 38bc 5b18 9ebd 486d 61bd 0648 6abe
000002d0: 1c36 983f dc9c a73f 93fc 083f ece3 e9be
000002e0: 2ec9 a4bd 737f debd 30a4 93bd 7afa 683c
000002f0: 24da 1bbd 9282 023e 128b c9be 072e 393f
00000300: 0e0f 863f 432a e63e 284b 1fbf d6ce 18be
00000310: 4e68 a1bd fb81 56bd d5f0 623c a13c 7f3d
00000320: 7dfd 8f3e 0150 8dbe c85f dbbe 43a0 35be
00000330: 7269 5bbf b52b 2fbf 79be 97bd 7a19 7ebd
00000340: 8860 af3c 2b18 9fbd d960 803d 61a8 663e
00000350: 8ed3 f23c 6c19 c5be 3efe 8abe 61f4 c5be
00000360: c771 5bbe f463 e2bd 0b86 febd 2b16 40be
00000370: 7ecd 11be 57bf 683d d1b9 b63d 4b4d da3c
00000380: ca71 21be 4202 5dbd 1617 3fbe 0b23 bbbd
00000390: d5db 66be f366 66be 688a 1bbe 3100 c43d
000003a0: 481b 8d3d 92bc 3fbd 6680 ccbc d71b e2bd
000003b0: 0eed c0bd ce5e 2fbe 0726 44be 8e9d 50be
000003c0: 6991 21be 051b 15bc cc2b 25bf 4d33 bcbe
000003d0: e66f 5bbe 1ec3 88be ae21 46be 80bb 7e3c
000003e0: ea1c 8ebd 259b 89be 573e a9be 4739 e6be
000003f0: a981 09bf a9b9 9cbe f6c0 693b 46ad a83d
-1.1565022 -0.58131677 -0.17546846 -0.2528939 -0.062844194 -0.15891218 -0.1683698 -0.10108053
-0.020839402 0.17086984 -0.5222181 -0.13846026 0.09214375 0.2095335 0.12969744 0.07494646
0.25501525 0.12876093 0.33622158 -0.058431584 -0.46449006 -1.1446383 0.20603067 -0.08248209
0.36112323 0.32579216 0.27495816 0.30305642 0.14311843 0.3999196 0.33114862 0.36761615
-0.1802954 -0.12560095 0.062958345 0.2504072 0.16865629 0.011874779 0.077920265 0.091957666
0.074883915 0.26761103 0.08920607 0.124134794 -0.0316735 0.15492246 0.2899519 0.19423565
0.20965 0.05705291 0.09993037 0.01797647 0.36820543 0.3243983 0.38864312 -0.07944912
0.40653813 0.24217449 0.083950885 0.07194902 0.002308064 -0.14700852 -0.195363 0.14538266
-0.022953283 -0.1924785 -0.107676536 0.26093906 0.16735995 0.18619952 0.19709039 -0.02114629
-0.14006035 -0.11394082 0.1842916 0.07020686 -0.42104965 -0.18106645 0.09927145 0.13551237
0.109079026 0.069643915 -0.04432373 -0.14673346 -0.10743518 0.09279362 0.20421268 -0.47126022
-0.17628342 0.19771717 0.26897842 0.25328416 0.16387306 0.097047865 0.04601519 0.03981303
0.3103355 0.42643163 -0.23086022 0.2606822 0.38039052 0.30660516 0.07036075 0.11476948
0.19627897 0.07038454 -0.0214022 0.34625953 0.39636073 -0.2568349 -1.0601883 0.26064807
0.30730945 0.15525855 0.1892981 -0.029423764 0.017817792 -0.31463104 0.2070091 -0.49735793
-1.4007862 -0.06930284 -0.052993905 0.03444442 0.049259987 0.0991582 0.16831249 0.10390997
-0.0869484 -0.18838446 -0.036029004 0.2794395 -0.08591733 -0.008127382 0.16034007 0.14978075
0.14791036 0.10988985 0.048143074 0.057961583 -0.042349573 -0.052909706 0.12375523 -0.111277
0.04100113 0.04132781 -0.07120835 -0.089612395 -0.12387654 -0.1746107 -0.030463757 -0.04067132
-0.073208906 0.010526427 -0.14079235 -0.07016348 0.02546659 -0.111366265 0.09562695 -0.087470554
-0.47623634 -0.05897644 0.07807774 0.017004916 -0.018544724 -0.06472847 -0.057865623 -0.0013953781
-0.20135066 0.5256367 0.6535222 -0.034852248 -0.31483513 -0.006878575 -0.060407337 -0.016407028
-0.0112423785 -0.07719489 -0.05503586 -0.22879037 1.1891513 1.3094745 0.535104 -0.45681703
-0.080461845 -0.10864153 -0.07209051 0.0142198745 -0.038049832 0.12745121 -0.39363915 0.7233586
1.0473344 0.44954118 -0.62224054 -0.14922652 -0.07881223 -0.052370053 0.013851364 0.06231368
0.28123084 -0.276001 -0.42846513 -0.17736916 -0.8570777 -0.68426067 -0.07409377 -0.062036015
0.021408334 -0.077682815 0.06268472 0.22525169 0.029641893 -0.38495958 -0.27147096 -0.3866301
-0.21430121 -0.11054221 -0.124279104 -0.18758456 -0.14238545 0.0568231 0.089221604 0.026648184
-0.15766063 -0.05395723 -0.1866115 -0.09137543 -0.22544797 -0.2250021 -0.15189517 0.09570349
0.06889969 -0.046810694 -0.024963569 -0.11040466 -0.094202146 -0.17126009 -0.19155131 -0.20372602
-0.15778126 -0.00910068 -0.64519954 -0.3675789 -0.21429405 -0.26711363 -0.19348785 0.015547633
-0.06939109 -0.26876178 -0.33055374 -0.44965574 -0.5371347 -0.30610397 0.0035667992 0.08236174

fc.bias f4 [8]
00000000: 90c2 42bf 9c2e 05bf c319 69bf f5ff 163e
00000010: 057e e8be 28ef b43f ac80 c13e 0791 853e
-0.7607813 -0.52024245 -0.91054934 0.14746077 -0.45408645 1.4135485 0.3779348 0.2608721
