Baseline_Results/k=5/max/local/Feature_Extraction/BloodMNIST/Net/Run_2/Best_Weights.pt (torch, 9789 bytes, 4 tensors)

conv1.weight f4 [3, 3, 3, 3]
-1.4109479 -0.8210605 -0.13854286 0.06693114 -0.07421238 0.58467513 0.18524712 0.33851615
0.6107047 -1.0940694 -0.89596283 -0.57731324 -0.2197665 -0.14216076 0.29205456 -0.048356526
0.15970203 0.14290851 0.27556333 -0.33212075 0.5289263 -0.070312165 -0.911844 -0.06421621
-0.046627674 0.15132558 -0.2042436 -0.45267853 -0.10836507 -0.28519627 -0.3258532 -0.046411745
0.19511469 -0.3013287 0.08957649 -0.3616298 0.10186757 0.25766146 0.5019435 0.498862
0.58769333 0.663786 0.03072385 0.570861 0.0050912574 0.28998107 0.42684928 0.4826286
0.6729503 0.51016444 0.71385676 0.4038991 0.3895539 -0.25388876 1.0432291 1.2154688
1.0125356 0.9445149 1.0993989 1.2099388 0.7833126 0.8127434 0.790959 -0.37273055
-0.58128566 -0.56347394 -0.53450984 -0.70179886 -0.43171418 -0.30434036 -0.39339337 -0.3428755
-0.5416976 -0.421521 -1.0968114 -0.6901408 -0.7834201 -0.81566346 -0.41426784 -0.30441692
-0.5099087
00000000: f199 b4bf 0531 52bf 2ede 0dbe 3213 893d
00000010: a9fc 97bd 45ad 153f 6cb1 3d3e fd51 ad3e
00000020: 2557 1c3f 770a 8cbf d25d 65bf cdca 13bf
00000030: 780a 61be 9792 11be 2d88 953e 7e11 46bd
00000040: ee88 233e 9c56 123e a316 8d3e bb0b aabe
00000050: b767 073f d3ff 8fbd 9c6e 69bf ca83 83bd
00000060: a9fc 3ebd 18f5 1a3e 3c25 51be 7bc5 e7be
00000070: 81ee ddbd 3f05 92be 3bd6 a6be 3e1a 3ebd
00000080: 25cc 473e c147 9abe e173 b73d 8b27 b9be
00000090: f29f d03d 34ec 833e 5f7f 003f d76a ff3e
000000a0: 1273 163f e1ed 293f 95b0 fb3c f223 123f
000000b0: 90d4 a63b 6678 943e fd8b da3e 191b f73e
000000c0: 7946 2c3f 239a 023f 51bf 363f ddcb ce3e
000000d0: 9c73 c73e b5fd 81be 8888 853f 7b94 9b3f
000000e0: c49a 813f bacb 713f 1ab9 8c3f 46df 9a3f
000000f0: 2d87 483f f40f 503f 4a7c 4a3f 8ad6 bebe
00000100: 23cf 14bf d43f 10bf a3d5 08bf 17a9 33bf
00000110: a409 ddbe 80d2 9bbe db6a c9be 618d afbe
00000120: b2ac 0abf 9ad1 d7be 5164 8cbf 11ad 30bf
00000130: 388e 48bf 52cf 50bf ea1a d4be 89dc 9bbe
00000140: 6089 02bf

conv1.bias f4 [3]
-0.53175616 0.39224336 -0.80950403
00000000: 2c21 08bf 1fd4 c83e a83b 4fbf

fc.weight f4 [8, 243]
0.21093103 0.32907972 -0.055340458 -0.111627325 0.10206129 0.0811589 0.30832562 0.23673075
0.24578716 0.28576925 0.119582154 -0.023442551 0.026415333 -0.07598577 0.013566737 0.17199254
0.122828014 -0.07737668 0.032399066 -0.12231722 -0.052491453 0.1387121 0.039219804 -0.008848572
0.03706932 0.0663543 -0.111824706 0.22946498 0.027164534 0.1403581 0.15809402 0.04082949
-0.0077287657 0.09587777 0.2546381 0.12570055 0.13203482 0.053129338 -0.053939573 0.039337415
-0.111794 0.085810415 -0.16012275 0.051427126 0.10234963 -0.0039135152 -0.0774797 -0.16482577
-0.14223309 -0.055099685 -0.23997013 -0.07485893 0.19647865 0.26279387 -0.19297294 -0.0847203
-0.12782304 -0.17592087 -0.2328947 -0.30585292 -0.11981355 0.11785532 0.1472207 0.44617015
0.042970896 0.051221296 0.014736602 -0.017545056 -0.05045819 0.012981087 0.2531083 0.28728047
0.57800335 0.15851863 0.2658969 0.31847066 0.11842952 0.1220487 0.032086045 0.20453513
0.3303942 -0.08417924 -0.0789975 -0.046446566 0.05246505 0.024976566 0.037586845 -0.006074797
0.0026100755 0.029708534 -0.033499613 0.07284278 0.023986874 0.033694394 0.035869833 0.18845016
0.16322444 0.16659114 -0.029446442 0.0127482265 0.09653274 0.0057192296 0.02339948 0.08075761
-0.18920936 -0.102747835 -0.05005291 -0.14057325 0.11370563 0.09247789 -0.25083804 -0.17336926
-0.015275644 -0.053014275 -0.13796204 0.062050767 0.029287716 0.12603797 0.05725959 -0.018300198
-0.07280893 -0.68581545 -0.5051486 0.0053288946 0.012387346 0.025127051 -0.03178368 -0.053717896
-0.024020657 0.15569234 -1.1827253 -0.30411988 0.0039261146 0.10414769 0.045656994 -0.029454352
0.024560535 -0.14473028 -0.1506002 -0.2644043 -0.34277126 -0.2176249 -0.0924211 -0.03574862
0.12301804 0.04685253 -0.045260943 -0.16725372 0.19747673 -0.08743777 0.020667968 0.010745683
-0.07631394 0.13080499 0.08172641 0.021702329 -0.1056805 -0.16187333 -0.1530549 -0.14340037
-0.05177049 0.038822867 -0.21003966 -0.18413034 -0.07593548 0.03024553 0.011034854 -0.0753336
-0.011236001 -0.044178452 -0.26335475 -0.2316906 -0.084613495 0.025959115 -0.032088876 0.03058266
-0.07695896 -0.10242356 -0.06144656 -0.2986015 0.023982547 -0.096052535 0.015871407 0.024781264
0.23753314 0.18212026 0.06824428 0.033354197 -0.039463945 0.026550064 -0.05015166 0.074266344
0.288726 0.28317744 0.20874463 0.14405924 0.067468226 0.015949959 -0.050402492 0.09997951
0.17497051 0.001100941 -0.22466876 -0.24159425 0.12811744 0.33561307 -0.01866303 -0.0013369938
0.1589192 0.24242665 0.008426052 0.14921954 -0.14100762 0.006661212 0.15955055 -0.051112406
0.050330102 0.14915462 0.21503022 -0.14318526 -0.03815399 -0.120702736 -0.015453703 0.15603596
-0.04748986 -0.05246993 -0.029363029 -0.06688807 0.049232416 0.17916766 0.07329683 0.14247075
0.00057478785 -0.050403547 -0.1836612 -0.14091681 -0.12502334 -0.067491665 0.13330193 0.10691345
-0.054056767 -0.12239238 -0.19597849 -0.24828835 0.09081973 -0.07667813 0.19397703 0.20664331
0.09192315 -0.25587338 -0.01354613 -0.1236865 0.07961445 0.04141784 -0.02509349 0.08441691
00000000: 4efe 573e 237d a83e adac 62bd de9c e4bd
00000010: 8205 d13d a336 a63d dbdc 9d3e 8c69 723e
00000020: a1af 7b3e 5950 923e 7de7 f43d 980a c0bc
00000030: f864 d83c 6d9e 9bbd 0547 5e3c d01e 303e
00000040: 418d fb3d aa77 9ebd e2b4 043d 7381 fabd
00000050: 4701 57bd 8b0a 0e3e f2a4 203d 9af9 10bc
00000060: 00d6 173d c3e4 873d 5a04 e5bd def8 6a3e
00000070: 2888 de3c 09ba 0f3e 66e3 213e d33c 273d
00000080: 9641 fdbb 905b c43d ed5f 823e a5b7 003e
00000090: 2334 073e 269e 593d beef 5cbd 4520 213d
000000a0: 41f4 e4bd 5fbd af3d 38f7 23be 40a5 523d
000000b0: af9c d13d f23c 80bb adad 9ebd 16c8 28be
000000c0: 8da5 11be 35b0 61bd bbba 75be a44f 99bd
000000d0: b331 493e eb8c 863e b39a 45be d681 adbd
000000e0: 0be4 02be 9a24 34be f37b 6ebe c198 9cbe
000000f0: ce60 f5bd 215e f13d 06c1 163e 6a70 e43e
00000100: 4002 303d 6ccd 513d ca71 713c a6ba 8fbc
00000110: 3fad 4ebd a0ae 543c 6997 813e 6d16 933e
00000120: 07f8 133f b552 223e a323 883e 960e a33e
00000130: 2d8b f23d abf4 f93d a86c 033d a871 513e
00000140: 6e29 a93e 2a66 acbd 71c9 a1bd c13e 3ebd
00000150: 98e5 563d a89b cc3c aaf4 193d 170f c7bb
00000160: cd0d 2b3b 505f f33c e436 09bd 982e 953d
00000170: 1f80 c43c 2203 0a3d 3fec 123d 14f9 403e
00000180: 4f24 273e de96 2a3e aa39 f1bc f0dd 503c
00000190: f5b2 c53d 6068 bb3b 44b0 bf3c 3f64 a53d
000001a0: 19c0 41be 756d d2bd 4804 4dbd 6ff2 0fbe
000001b0: 7fde e83d 0c65 bd3d d86d 80be b687 31be
000001c0: b246 7abc 7f25 59bd ec45 0dbe f228 7e3d
000001d0: cbec ef3c 1910 013e 0889 6a3d 4cea 95bc
000001e0: d91c 95bd 9a91 2fbf 6b51 01bf 029e ae3b
000001f0: 4bf4 4a3c 3fd7 cd3c 9b2f 02bd 4c07 5cbd
00000200: f8c6 c4bc d06d 1f3e 8b63 97bf 9ab5 9bbe
00000210: a3a6 803b 624b d53d d402 3b3d 414a f1bc
00000220: 2d33 c93c 2d34 14be f036 1abe 0060 87be
00000230: b77f afbe 10d9 5ebe 4647 bdbd 256d 12bd
00000240: e2f0 fb3d 70e8 3f3d 8a63 39bd 8f44 2bbe
00000250: 5737 4a3e 9312 b3bd df4f a93c a90e 303c
00000260: 7c4a 9cbd bef1 053e 2d60 a73d 15c9 b13c
00000270: 056f d8bd 1fc2 25be 6cba 1cbe 8cd7 12be
00000280: 4b0d 54bd ba04 1f3d a314 57be aa8c 3cbe
00000290: 1084 9bbd 79c5 f73c 88cb 343c 8148 9abd
000002a0: 3417 38bc 77f4 34bd 6fd6 86be 4d40 6dbe
000002b0: d749 adbd 36a8 d43c a06f 03bd 7d88 fa3c
000002c0: a99c 9dbd 72c3 d1bd 63af 7bbd 4ce2 98be
000002d0: 0c77 c43c 31b7 c4bd c104 823c 1402 cb3c
000002e0: e33b 733e bc7d 3a3e a8c3 8b3d 699e 083d
000002f0: f2a4 21bd 857f d93c d46b 4dbd f418 983d
00000300: e5d3 933e a2fc 903e 27c1 553e 4484 133e
00000310: c82c 8a3d 7da9 823c d872 4ebd 0fc2 cc3d
00000320: 782b 333e 734d 903a 910f 66be 7c64 77be
00000330: 3831 033e 7ad5 ab3e 36e3 98bc 113e afba
00000340: b7bb 223e b13e 783e 6c0d 0a3c 02cd 183e
00000350: 4d64 10be 4c46 da3b 3861 233e 3e5b 51bd
00000360: f026 4e3d fdbb 183e e230 5c3e 289f 12be
00000370: 5c47 1cbd ff32 f7bd 8731 7dbc e4c7 1f3e
00000380: ba84 42bd b6ea 56bd bc8a f0bc 9dfc 88bd
00000390: eea7 493d ba77 373e a61c 963d dae3 113e
000003a0: 5cad 163a f373 4ebd ae11 3cbe 7f4c 10be
000003b0: 1e06 00be 1239 8abd 4d80 083e 70f5 da3d
000003c0: a16a 5dbd dba8 fabd 96ae 48be 4d3f 7ebe
000003d0: b2ff b93d 6c09 9dbd eaa1 463e 4e9a 533e
000003e0: 3442 bc3d d601 83be 96f0 5dbc 594f fdbd
000003f0: e70c a33d c1a5 293d dd90 cdbc c6e2 ac3d

fc.bias f4 [8]
-0.14309385 -0.6813608 -0.1939835 0.57670546 -0.41220513 0.68676853 -0.34357035 -0.25264323
00000000: 3287 12be a96d 2ebf 9ca3 46be f8a2 133f
00000010: 8d0c d3be 10d0 2f3f 74e8 afbe 745a 81be
