Baseline_Results/k=3/max/local/Feature_Extraction/BloodMNIST/Net/Run_2/Best_Weights.pt (torch, 13629 bytes, 4 tensors)

conv1.weight f4 [3, 3, 3, 3]
000000 2b fb 10 bf 47 07 e8 bd e3 70 90 be a3 99 6a bd
       -0.5663325 -0.11329513 -0.28211126 -0.057275426
000010 d6 6f bc 3c 94 b7 11 be e2 62 14 be 14 9c c4 bd
       0.023002546 -0.14230186 -0.14490846 -0.09600082
000020 34 73 2f be 15 a4 7a 3d 29 8a 9a 3e 5e 46 7c 3e
       -0.1713379 0.061191637 0.30183533 0.24636218
000030 f1 f8 d0 3e 09 c0 20 3f 7f d7 06 3f 8e 70 a8 3e
       0.40814927 0.6279302 0.5267257 0.32898372
000040 2f 69 b4 3e f0 2a b7 3d 40 a9 ca bb f2 e3 85 3e
       0.352365 0.089437366 -0.006184727 0.2615047
000050 d8 d5 c2 3e ae 2b 84 3e 45 07 4d 3f b4 c9 0e 3f
       0.38053775 0.25814575 0.8008922 0.55776525
000060 d3 44 e4 3c 42 30 14 3f 81 5b 3e 3e 02 00 d7 3e
       0.02786485 0.57886136 0.18589593 0.41992193
000070 15 ab f9 3e d4 df 74 3e 5a ff 01 3e 99 dd 0e 3e
       0.48763338 0.23913509 0.12695065 0.1395172
000080 51 ce b6 3e 54 cf ba bc 98 59 79 be 84 2d 27 3e
       0.35704282 -0.02280394 -0.24350584 0.16325957
000090 8a 88 64 be 11 74 a0 be a7 68 4b be 22 a3 e6 be
       -0.2231771 -0.31338552 -0.1986414 -0.45046335
0000a0 49 75 fa be ef c4 c7 be 6f 44 38 bf b3 40 2b bf
       -0.48917606 -0.39017436 -0.7197942 -0.668956
0000b0 ea 7d 27 bf 3d d5 8c bd 4b 1b a4 bd 6a 9e 79 be
       -0.65426505 -0.068766095 -0.08013018 -0.24376836
0000c0 bd 8a 12 be 97 1a 91 be 0a 8e 85 be f8 55 3f be
       -0.14310737 -0.283406 -0.2608493 -0.18685138
0000d0 ea ad 85 bf d7 7a 98 bd e4 f3 64 3f 57 73 6f 3f
       -1.0443699 -0.07445305 0.8943465 0.9353537
0000e0 06 9b 4e 3f 79 78 5d 3f 24 27 91 3f cb 30 87 3f
       0.80705297 0.8651195 1.134007 1.0561765
0000f0 93 ac f7 3e 8b a2 32 3f 7e ba fb 3e 64 50 e0 be
       0.4837385 0.6977927 0.4916572 -0.43811333
000100 91 b1 29 bf 45 44 16 bf 30 62 9d be 98 73 bd be
       -0.6628657 -0.5869792 -0.30738974 -0.37002254
000110 42 0a a8 be 34 78 91 be f9 65 56 be d3 fa c4 be
       -0.32820326 -0.2841202 -0.20937337 -0.38472614
000120 0d 1b b7 be 33 9d 44 bf 3d cc 52 bf f2 c4 ae be
       -0.35762826 -0.76802367 -0.8234289 -0.34134632
000130 8d 9d 0c bf 64 87 40 bf 3c 5c d9 be 0a d7 aa be
       -0.54927903 -0.7520659 -0.42453182 -0.33367187
000140 f3 5a 4f bd
       -0.050623845

conv1.bias f4 [3]
000000 da 19 33 3f 52 89 f4 3e 81 e5 83 3e
       0.6996132 0.47761017 0.25761035

fc.weight f4 [8, 363]
000000 43 d7 4a 3a a4 f1 b0 bd 77 e5 a1 bd 60 03 05 be
       0.0007737765 -0.08639839 -0.07905095 -0.12989569
000010 51 4b a3 3c 86 50 ba 3d 78 f9 13 3d 36 32 2c bd
       0.019933375 0.0909739 0.036126584 -0.042040072
000020 ad 2b fb 3c 9f b2 c6 3d 95 e7 cb 3d b0 cf 77 bd
       0.030660475 0.09702038 0.0995628 -0.0605008
000030 f3 78 59 bc 55 91 02 bd 41 d3 7a 3d 17 3d 00 3d
       -0.013273465 -0.03187688 0.061236624 0.03130826
000040 d8 ec 1a 3d fa 25 06 3e 5e 36 03 3e 00 83 de bc
       0.037823528 0.13100424 0.12813708 -0.027162075
000050 68 89 37 3d 01 3c 32 3d 8c 7e c5 bd 53 01 73 3d
       0.044808775 0.043514255 -0.096432775 0.059327435
000060 8c e6 89 3d 95 a7 67 ba 8f 4f e7 bd 05 63 1d 3e
       0.067334265 -0.00088369224 -0.112944715 0.15369804
000070 20 46 28 3d 32 e9 ab bd 77 4c 8b be 73 0c b2 bd
       0.0410825 -0.08394088 -0.27206776 -0.08693781
000080 dd ad cb bb bb 76 ec bd aa ac fa 3b 2e ae 26 be
       -0.0062157945 -0.115460835 0.0076499777 -0.16277382
000090 fe 13 8b 3d 15 c8 fb bd b3 09 b9 bb 3f ba 08 be
       0.067909226 -0.12294022 -0.005646908 -0.13352297
0000a0 bf aa 14 3e 13 f4 d1 3b 99 49 57 3d c4 ad 35 3d
       0.1451826 0.0064072697 0.052560423 0.04435517
0000b0 85 1c cd 3d 6a f4 7d 3d 6b ee 2a bc 0c 38 22 3e
       0.10015205 0.06200067 -0.01043282 0.15841693
0000c0 74 5c ff 3c d7 ae 2a bf ec 4a 5d bd b1 57 f9 3c
       0.031172015 -0.66673034 -0.05402653 0.030437322
0000d0 ae 91 e2 bd dc 12 82 3c fd ee ab bd 0b 49 24 3d
       -0.110629424 0.015878133 -0.08395193 0.04010872
0000e0 31 98 33 3b dc 8c ea 3d 3e 87 32 be a1 bc 8c be
       0.0027403946 0.11452648 -0.17434403 -0.27487662
0000f0 e0 00 02 3f cc 10 c1 bd f9 8f ee be ff 7b 4b 3e
       0.50782585 -0.09427032 -0.46594217 0.1987152
000100 1d 5d ca bc 72 e7 cf bc 7e 65 86 bd ec 68 8b bd
       -0.024702603 -0.025378916 -0.06562327 -0.06807122
000110 36 89 44 3e ed a6 89 bc 15 d0 8c bd a9 98 9b bd
       0.19192967 -0.01680323 -0.06875626 -0.07597477
000120 4e 3a b7 be 4a ab 0f be 8c 55 e9 3d 57 c9 b4 3d
       -0.3578667 -0.14030185 0.1139327 0.08827465
000130 52 ce cd bc 7c 43 7e 3c e8 ff 72 3c 11 06 04 3e
       -0.025122795 0.015519019 0.014831521 0.12892939
000140 e9 aa 21 3e 4f 2f 31 be 30 3f 04 bf c4 f5 61 be
       0.15787853 -0.17303203 -0.51658916 -0.22066408
000150 32 a8 c4 bd 86 28 b7 3d 27 2c 48 bd 25 dd c3 3c
       -0.09602393 0.08943276 -0.048870232 0.02390916
000160 fc 64 96 bc eb 9e cb 3c a7 44 a6 bd c3 98 47 3d
       -0.0183587 0.024856051 -0.08118563 0.04872967
000170 c6 54 ee bc 94 20 4c be 39 db 46 bd 2d 04 71 3a
       -0.029093158 -0.19934303 -0.04854891 0.00091940427
000180 04 98 6a bd e0 1d 66 bd 60 9e 84 bd 18 62 aa bd
       -0.05727388 -0.056180835 -0.0647552 -0.08319491
000190 48 1f 2d 3d 7a 52 dc bd 5e 11 c9 bd f6 48 27 bd
       0.04226616 -0.10757919 -0.09817766 -0.040841065
0001a0 75 63 b0 3d 49 30 1c be 3c a7 b7 3b 45 12 ae bd
       0.0861272 -0.15252794 0.0056046527 -0.084995784
0001b0 e2 87 ce 3d c4 5f c3 bd 15 e5 d6 3d 22 d3 5b bc
       0.10084511 -0.0953975 0.10492913 -0.013417037
0001c0 49 84 96 3c 43 56 9c bd e7 b9 10 be 14 ef 11 bd
       0.018373625 -0.076336406 -0.14133416 -0.035628393
0001d0 72 f3 57 3d 4a 2c 0f be 68 15 52 bd 3e 26 01 3d
       0.052722402 -0.13981739 -0.051289946 0.03153061
0001e0 d9 ed 09 be 3e 2b bd bf 52 83 c3 be d8 c1 95 3c
       -0.13469638 -1.4778821 -0.38186127 0.018280908
0001f0 4a 40 11 bd ee a9 fe 3d 48 5f cc 3d 6d e2 9a 3e
       -0.0354617 0.12434755 0.09979111 0.30250874
000200 79 9b b2 3d c5 69 a4 3a ae 05 a8 3d b7 63 49 bf
       0.0872106 0.0012543729 0.08204208 -0.7866778
000210 25 2b 5f bd 40 2e c7 3e 06 f1 52 3e be f7 47 3e
       -0.054484505 0.38902473 0.20599756 0.195281
000220 a0 d5 b7 3d db 5b 7f 3d 3a 7b c7 3d 7f eb 78 3e
       0.089762926 0.06234346 0.097403005 0.24308585
000230 22 df 94 3e 89 7a 26 3d cc 0f 95 3e 7e c4 11 3d
       0.29076487 0.040644202 0.29113615 0.03558778
000240 1b 00 9b 3d 2a b4 1b 3e a5 a8 d3 3e af 77 b2 3d
       0.075683795 0.15205446 0.41339603 0.08714234
000250 03 dc 24 be 17 8b f5 bc 10 83 37 3e 1f aa 17 3e
       -0.16099553 -0.02997355 0.1792109 0.1481099
000260 e2 23 21 3e 55 4d e3 3c 79 6a b7 3d 41 fc 3a 3e
       0.15736344 0.027746836 0.08955855 0.1826029
000270 d3 69 22 3e 2a 04 2e 3e 53 88 9b bd 6a 0f c9 bc
       0.15860681 0.16993776 -0.07594361 -0.024543483
000280 0e 06 b2 bd 46 9d 9c 3c 6e 70 28 3e f9 5c d2 bc
       -0.08692561 0.019117963 0.16449139 -0.025679098
000290 c6 9e 10 3e e9 d9 2d 3e eb 8c e3 3c ed 46 56 3d
       0.14123067 0.16977657 0.027777156 0.052313734
0002a0 47 df ba 3d e5 ae c0 3b 7b c2 09 be 19 54 38 be
       0.09124618 0.005880224 -0.13453095 -0.1800083
0002b0 01 bb 11 be f9 e4 26 3e 8a f2 79 3e 53 62 c2 3e
       -0.14231493 0.16298284 0.24408928 0.3796564
0002c0 dd b2 60 3e 9b 75 5f 3e bb 74 f1 3d d3 85 6f bc
       0.21943231 0.21822207 0.11789843 -0.0146193085
0002d0 bf 09 a9 bd 82 5d 8b be 8c 39 58 be bd 42 42 be
       -0.08253812 -0.27219778 -0.21115702 -0.18970771
0002e0 a5 c4 6f bb 7d 55 01 3e ee 02 d7 3d 05 bd a0 3e
       -0.0036585715 0.12630267 0.10498606 0.3139421
0002f0 0c 0d fe 3d 5f 1e fe 3d 3e f2 c2 3d fe 4c ba 3d
       0.12404832 0.124081366 0.0951886 0.09096716
000300 54 76 0c 3c 60 3e 4c bd a6 08 5d 3c bc 89 1f 3e
       0.0085731335 -0.049864173 0.0134908315 0.15579885
000310 82 04 db 3d 35 96 02 bd 52 ae 69 bc 01 bf cb bc
       0.10694219 -0.03188153 -0.014262753 -0.024871351
000320 c6 e4 d2 bb d2 c7 f0 bc 14 56 c7 bd 3a 62 7c be
       -0.0064359633 -0.029392157 -0.09733215 -0.24646845
000330 c1 5d 89 be c9 0b 32 be 0c 24 06 3d 8c 75 62 bd
       -0.2682934 -0.17387308 0.03274922 -0.055287883
000340 cd b3 8c 3d 0e cf 84 3d c3 71 af 3e c0 25 93 3d
       0.06870232 0.06484805 0.3426648 0.071849346
000350 14 b2 b7 ba 07 a1 18 bb f4 24 83 bd 2e 43 b7 bd
       -0.0014014863 -0.002328934 -0.064035326 -0.089483604
000360 9e fd 5d 3c 57 18 27 3e fd 51 0b 3e e2 92 7c 3e
       0.013549237 0.16317879 0.13605495 0.24665406
000370 6b 11 6c 3e dd a4 f6 3d b1 d6 ed 3d aa 9d 84 b9
       0.2305352 0.12043164 0.11613215 -0.0002529447
000380 cd 75 42 3d 27 65 8a 3d 71 7f 20 3e 13 9c e9 3c
       0.047475625 0.067575745 0.15673615 0.028516805
000390 a7 03 26 3d 27 89 1f 3e 60 ea 90 3e 5e 69 19 bf
       0.040530827 0.15579663 0.28303814 -0.599264
0003a0 cb 91 7b 3c 30 83 af 3e 84 0b 72 3d 96 42 90 bd
       0.015354584 0.34279776 0.059093013 -0.0704395
0003b0 61 b3 c4 3d 02 ba b7 3e 03 90 91 3d 2b c5 06 be
       0.09604526 0.358841 0.07107546 -0.13161151
0003c0 f7 26 4c 3e 95 b8 0f bf 28 e3 c6 be 84 4f 65 be
       0.19936739 -0.56141025 -0.3884518 -0.22393614
0003d0 66 44 00 be 2b 7e 79 be 0e 79 2a be c9 af 17 be
       -0.12526092 -0.24364536 -0.16647741 -0.1481315
0003e0 63 f3 cf bd 9f 43 ad bd 3c f2 f7 bd 9a 54 6f be
       -0.10153844 -0.08460163 -0.121067494 -0.23372117
0003f0 c2 14 a4 be 3b f7 82 be 67 1d 21 be af a1 8e bc
       -0.32047087 -0.25579247 -0.15733872 -0.017411081

fc.bias f4 [8]
000000 87 19 a7 be c0 a5 ef be 89 8c 4c be f6 be 9f 3e
       -0.32636663 -0.46806145 -0.19975485 0.3120038
000010 86 c6 e3 bd 95 2c 1d 3f a0 a4 7d be 7c 70 55 bd
       -0.1112185 0.6139615 -0.2476983 -0.052109227
