Baseline_Results/k=4/avg/local/Feature_Extraction/BloodMNIST/Net/Run_1/Best_Weights.pt (torch, 11645 bytes, 4 tensors)

conv1.weight f4 [3, 3, 3, 3]
000000 ab e0 8c be 05 48 af bd 93 74 f9 3c 1f 80 8a bd
       -0.27515158 -0.085586585 0.030451095 -0.067627184
000010 cb 58 17 bf 71 ee dc be 5d d7 6d 3d fc 8a 08 bf
       -0.5911986 -0.43150666 0.058066715 -0.53337073
000020 7a c9 21 bf a2 91 07 bf 8a 77 03 bf 4c a4 aa be
       -0.63198054 -0.52956593 -0.5135428 -0.33328474
000030 3c 8c b9 be 4a 4e e7 be 3e 59 21 bf 7c 18 b9 be
       -0.36239803 -0.45176917 -0.630268 -0.36151493
000040 09 4f cc be 3e 2c 85 be 3a ec 01 3f 64 7f 27 3f
       -0.3990405 -0.26010317 0.5075108 0.6542876
000050 a5 90 28 3f b3 d3 f5 3e 14 73 82 3e 62 e5 30 3d
       0.6584571 0.48013076 0.25478423 0.043187506
000060 6c 84 25 3f 57 3c 4d 3e 6b 36 a2 3e 87 51 f8 3e
       0.64655185 0.20042549 0.31682143 0.484997
000070 fa ce 20 3e a2 2c 18 3e fe 8f 83 3e 36 4b 2a 3e
       0.15703955 0.14860776 0.25695795 0.16630253
000080 83 79 2f 3e e7 62 04 3f 6b 61 d2 3e dd 2e b0 3e
       0.17136197 0.51713413 0.4108995 0.34410754
000090 0d 41 b6 be 5a 44 02 bf f3 0b bb be 46 da 02 bf
       -0.35596505 -0.50885546 -0.36532554 -0.5111431
0000a0 ca 24 05 bf 45 e7 f2 be 3b a4 94 be 08 f9 a7 be
       -0.5200926 -0.4744207 -0.29031548 -0.32807183
0000b0 ef cb 04 bf e3 33 67 3e 4b 3c a8 3e ce c7 f6 3e
       -0.5187368 0.22578387 0.328585 0.48199314
0000c0 33 53 b7 3e 26 90 85 3e 20 db de 3e 58 ff 39 3d
       0.35805663 0.2608654 0.43526554 0.04540953
0000d0 f3 50 33 3e 2d 1f 8e 3d 08 27 68 bf b4 32 18 bf
       0.17511348 0.0693954 -0.90684557 -0.59452367
0000e0 7a 0c 07 bf 0c 3e b8 be 24 62 7f bd 7a 01 08 3d
       -0.5275341 -0.35984838 -0.062349454 0.033204533
0000f0 7c c7 97 be 83 0d cc bc 60 35 3a bd 80 a0 82 be
       -0.29644382 -0.024908787 -0.04546106 -0.25513077
000100 a5 e2 52 3e 9a b7 6a 3e 60 f9 55 bd 4a 12 2f 3f
       0.2059427 0.22921601 -0.052239776 0.6838728
000110 01 98 4f 3f 21 3c a8 3e ed c4 65 3f 98 61 63 3f
       0.81091315 0.32858375 0.8975361 0.8882079
000120 85 d6 77 bd 7f f4 5d 3e f8 2e 8f 3e 3b 9b 66 bc
       -0.060507316 0.21675299 0.27965522 -0.014075096
000130 54 65 3f 3f 5e 4d 81 3f a8 33 ef 3d 89 02 f3 3e
       0.7476399 1.0101736 0.116797745 0.47462872
000140 ca c6 22 3f
       0.6358458

conv1.bias f4 [3]
000000 5c 5f 3c 3d fd a6 25 be 15 ae 81 3f
       0.04598938 -0.16176982 1.0131251

fc.weight f4 [8, 300]
000000 8d a1 bd 3e 69 ad 45 be ad 64 e8 bd b4 8d ff bd
       0.37037316 -0.19304432 -0.113473274 -0.124781996
000010 3c 16 9d bd e2 10 c9 3b 4a bd e0 bd cc 74 09 be
       -0.076702565 0.006136046 -0.10973604 -0.1342346
000020 97 b7 93 bd 46 e0 9b bc e6 46 06 be d3 b9 5f be
       -0.07212751 -0.01902784 -0.13112983 -0.2184823
000030 c5 4a 63 3d 08 09 82 3d 12 ce cb 3d c4 68 36 3e
       0.055491228 0.06349379 0.09951414 0.17813402
000040 bd 1b b0 3d b2 c3 26 3e 09 f3 17 3c 40 f7 16 be
       0.08599041 0.1628559 0.009274253 -0.14742756
000050 60 52 ce bd 25 0c 56 bb 7b 52 e1 3d 76 12 23 3e
       -0.100743055 -0.0032661047 0.1100206 0.15925011
000060 37 d9 f9 3d 83 ca 70 3e d9 10 3a 3e 8e 8e b6 3d
       0.121996336 0.23514752 0.1817049 0.08913909
000070 ec 64 14 3d 29 ad fa bd a3 e0 ab 3d 6f 69 26 3e
       0.03622906 -0.12240059 0.083924554 0.16251157
000080 2b 23 77 3e e3 1c 34 3e e4 3c f4 3d 52 35 37 3e
       0.2413451 0.17589144 0.119256765 0.17891434
000090 05 14 ce 3d 64 e7 01 3e 82 75 f2 3d 0d b7 eb bc
       0.10062412 0.12685925 0.11838819 -0.028773809
0000a0 fb fa 0d 3d 33 1c fd 3d 3c 3f 4c 3e 5b 17 20 3e
       0.03466318 0.12358894 0.19945997 0.1563391
0000b0 50 0e eb 3c 29 14 47 3d 9a fd f3 3d 7f 65 bd 3d
       0.028693348 0.04860321 0.11913605 0.092478745
0000c0 e0 a1 08 3e 54 68 5e 3c 3d a1 a5 bb 54 41 21 3e
       0.13343 0.013574678 -0.0050546215 0.15747577
0000d0 2c e8 64 3e 31 3c 2f 3e 2a 45 f6 3d 4e 0c 4a 3d
       0.22354192 0.17112805 0.12024911 0.04932814
0000e0 84 34 92 3c 49 1c a5 3c dc 57 f7 3d e4 0e 97 bd
       0.017847307 0.020155089 0.12077305 -0.07375887
0000f0 99 f9 4d bd d3 b3 7c bc 00 e1 20 3d 24 5d 1e 3d
       -0.050286863 -0.015423733 0.039277077 0.038663045
000100 d0 d5 8c 3d c8 78 fb 3d 5b 67 ea 3d 79 f7 e6 bb
       0.06876719 0.122788966 0.11445495 -0.007048544
000110 f6 5a 82 3d 90 27 34 be cc 6b 70 bc 6c 5e 28 bd
       0.06365006 -0.17593217 -0.014674138 -0.041105673
000120 76 d1 93 3c 81 f9 b6 3c 7b 1d 95 bc 3a 7d 37 bc
       0.018044215 0.02233577 -0.018202534 -0.01119929
000130 28 53 a7 3b 1c 58 39 bc 83 4a be bd fd 8a 3c be
       0.0051063485 -0.011312511 -0.09291556 -0.18412395
000140 1b d0 9a bd 80 e8 86 bc 7a cf c7 3d db 31 0a 3d
       -0.07559224 -0.016468287 0.0975637 0.033738952
000150 82 9b 02 3e f9 6e be 3d 8a af 18 bd 14 b4 11 3d
       0.12754634 0.0929851 -0.037276782 0.035572127
000160 51 ea a8 bd 35 d4 78 be 36 77 8f 3e 67 0b d8 3d
       -0.08247817 -0.242997 0.28020638 0.1054905
000170 4a 86 4e 3e b4 5b 0f 3e 33 fc 0b 3e c5 60 b1 3d
       0.20168415 0.13999826 0.13670425 0.086610354
000180 82 8c 46 3d 1a 69 72 3d f9 55 a2 bd 08 c7 f8 bd
       0.048473842 0.059182264 -0.07926554 -0.12147337
000190 f7 92 b1 be 07 3c 60 bd 06 05 cb 3d 79 8f 14 3e
       -0.34682438 -0.054744747 0.099130675 0.14507855
0001a0 2d b2 44 3d 50 fd f7 3d bb 84 9d 3d 11 a8 f2 3d
       0.048021484 0.121088624 0.07691332 0.118484624
0001b0 f3 3e c8 3d d6 d0 6a 3d 6d bd 77 be 2e 1c 22 bd
       0.097776316 0.057328068 -0.24193354 -0.039577655
0001c0 e6 0d e2 3d e1 e3 5a 3e cd d7 c5 3d c5 a5 c7 3d
       0.11037807 0.21375991 0.09660301 0.09748415
0001d0 fc 7c ba 3d 3f b2 40 3e 53 bc 0c 3e b9 fc 24 3e
       0.0910587 0.18817995 0.13743715 0.16112031
0001e0 0d 8f cf bd ab d7 9a 3c f0 b1 2e 3e 2a 21 52 3e
       -0.10134707 0.018901667 0.17060065 0.20520464
0001f0 1b ea 1b 3e ec e1 cf 3d d1 26 4f 3d de 9a 55 3d
       0.15226023 0.10150513 0.050574128 0.052149646
000200 79 a5 4f 3d 1a 48 8a 3d be 83 6e bc 56 dd be 3b
       0.050694916 0.067520335 -0.014557777 0.005824725
000210 2b 02 42 3e 33 b7 5d 3e 68 0d 3d 3d 73 bc 67 bc
       0.1894614 0.21651916 0.046155363 -0.014144051
000220 3c 4a 2c be 0b de cf bd c4 6f 22 bd 54 59 1a 3c
       -0.16825193 -0.10149773 -0.03965737 0.009420712
000230 f9 b6 02 bd b0 50 67 3d 07 a0 2a 3e 60 02 ac 3d
       -0.031912778 0.056473434 0.16662608 0.083988905
000240 48 a1 1d be f0 e7 00 be a3 47 7b be 68 ab 9c be
       -0.15393555 -0.12588477 -0.24539046 -0.30599523
000250 4d f8 0e bd 10 90 9b bd 92 23 96 bc 87 ed 46 3d
       -0.034904767 -0.07595837 -0.018327508 0.048566367
000260 27 de 0c 3e cb de b5 3c 6f bf 7a be 18 4e 3e be
       0.1375662 0.022200963 -0.24487089 -0.18584478
000270 49 8f 77 be 19 9f 97 be c9 99 7a 3c 8b f7 bb bd
       -0.24175753 -0.2961357 0.015295454 -0.091780744
000280 34 4d ea bc 1a ff 5f bb 85 09 0c 3d 54 be 9a bd
       -0.028601266 -0.0034179152 0.034188766 -0.075558335
000290 e9 ed 86 be a7 a6 98 be 17 32 b4 be 0d 57 73 be
       -0.26353386 -0.29814646 -0.35194466 -0.23763676
0002a0 7c 04 01 bd a2 ec 14 3d 8b 87 cf bd c6 f4 6d bd
       -0.031498417 0.036358483 -0.10133275 -0.058094762
0002b0 87 14 67 3c 34 ed a5 bc 4c db 63 be 1f 44 31 be
       0.014104015 -0.020254709 -0.22251624 -0.17311142
0002c0 24 ed 3f be 5b e6 d2 bd d6 e5 da 3d c0 e4 ff 3d
       -0.18742806 -0.10297843 0.10688369 0.124948025
0002d0 32 19 ac bd ff d9 f9 bb c8 55 7e 3d 08 9f 38 3d
       -0.08403243 -0.007624864 0.062093526 0.04507354
0002e0 fb 31 d4 bd a2 9c 2d bc b9 63 07 bd 61 e1 45 3d
       -0.103610955 -0.010596426 -0.033054087 0.04831064
0002f0 45 d5 94 3e 35 05 57 3e 41 1c 62 be 4b 81 20 3d
       0.29068962 0.2099808 -0.2208109 0.039185803
000300 04 ea 38 3e 92 e4 0d 3e 49 bd 73 3d 27 c5 0f 3e
       0.1805802 0.13856724 0.05950669 0.14040051
000310 b7 36 02 3e 47 bd 87 3e 29 1f aa 3e 66 75 d8 3e
       0.12716185 0.26511595 0.33226898 0.42277068
000320 ec 70 b8 bc 51 c2 f9 bd 70 9f da bd 0a 97 72 3c
       -0.022514783 -0.12195266 -0.106749415 0.014806518
000330 6b 22 17 3c 64 5d 65 3c 58 ad a5 3c 39 ba b9 bd
       0.0092245145 0.013999317 0.020224258 -0.09068722
000340 01 cc 5a bd 88 1c dd bc bd 9b 13 bc 33 bb 95 bd
       -0.05341721 -0.026991144 -0.009009299 -0.07311096
000350 a7 24 af 3d 49 96 5b 3e 38 1d d0 3d 06 d3 12 3e
       0.08551913 0.21444048 0.10161823 0.14338312
000360 c3 a7 46 3e 84 eb d6 bb 26 2a 83 bd bd ca ce 3a
       0.19399934 -0.0065588374 -0.064045236 0.0015776973
000370 67 57 9c bd 18 91 67 bc b4 6b 8c 3e fd 1e 82 3e
       -0.07633858 -0.014133714 0.2742592 0.25414267
000380 e5 4a b7 3d db 3c be bc 3a 55 19 3e 45 83 26 3e
       0.08949832 -0.023222378 0.14973918 0.16261013
000390 f6 2e 17 bd fe 68 02 bd e9 91 a6 bd 7a 61 60 3c
       -0.03691002 -0.03183841 -0.08133299 0.013695115
0003a0 3c 5b b1 3e b5 f5 82 be 37 1c 30 bf 1c ef 45 bf
       0.3463992 -0.25578085 -0.6879305 -0.77317977
0003b0 bc ba fc be 14 9b a8 3d bc 25 b7 3c 92 57 ab bd
       -0.49361217 0.08232704 0.02235686 -0.08366312
0003c0 ec 9a b4 bd fe f9 4b bd 97 46 9a 3e 6e af 5e bf
       -0.088186115 -0.049798958 0.3013198 -0.86986434
0003d0 c1 87 9f 3e af 8c ca 3e 25 79 73 bf c6 ad 64 bc
       0.3115826 0.39560458 -0.95106727 -0.013957446
0003e0 b0 cf ab bc a7 9f 19 be 00 83 81 bd 99 4e c7 3c
       -0.020973057 -0.15002309 -0.063238144 0.02432947
0003f0 8a b4 97 3e 4c 3e 9d bf 84 c3 32 3f 55 8b ef 3e
       0.29629928 -1.2284636 0.69829583 0.4678599

fc.bias f4 [8]
000000 a6 a8 21 bf cf 05 a2 3e 46 36 20 3f af 6c 9f bd
       -0.6314796 0.31645057 0.62582815 -0.077844016
000010 4a 73 ab bc 81 3f f8 bd 13 45 23 3e cb 7f 87 bd
       -0.020928998 -0.121214874 0.15944318 -0.066161714
