Baseline_Results/k=4/max/local/Feature_Extraction/BloodMNIST/Net/Run_3/Best_Weights.pt (torch, 11645 bytes, 4 tensors)

conv1.weight f4 [3, 3, 3, 3]
000000 e8 aa 22 be a7 70 b3 be 00 04 d5 be 9b 98 a9 be
       -0.15885508 -0.35046884 -0.41604614 -0.3312424
000010 17 a5 d7 be e6 7f 21 bf 9f b4 8b be c6 e0 17 bf
       -0.4211814 -0.6308578 -0.2728624 -0.5932735
000020 52 17 1f bf fa cb c8 bc 9c 26 8e be 3b 76 8a be
       -0.6214496 -0.024511326 -0.27763832 -0.27043328
000030 e6 b2 bb bd 1d 26 e4 be 78 12 d4 be c3 90 9f bd
       -0.091649815 -0.44560328 -0.4142034 -0.07791283
000040 a9 c2 09 bf 08 de b1 be c9 77 28 3e fa 80 e6 bc
       -0.5381265 -0.3473971 0.16451944 -0.028137673
000050 86 0b d5 3d 54 8f 57 3e 74 8c 32 bf 2a 55 0a bf
       0.104025885 0.21050769 -0.69745564 -0.540362
000060 74 77 46 3e 4d bb dd be 68 c0 55 3e b8 61 b5 be
       0.19381505 -0.43306962 0.20874178 -0.35426116
000070 59 06 5c bc a2 b4 9c bd 49 50 21 3c 35 aa a0 3d
       -0.013429248 -0.076516405 0.009845802 0.078449644
000080 52 83 e4 bb 90 f9 7b be e6 aa 53 bd 41 5f 9a be
       -0.0069736624 -0.2460692 -0.051676653 -0.30150798
000090 b9 23 08 3e c5 6c 4b 3e 92 f0 91 3e 93 bf fa 3e
       0.13294877 0.19865711 0.28503853 0.48974285
0000a0 72 21 2b 3f 60 3d c1 3e 2d b9 7d 3e b9 30 bf 3e
       0.6684791 0.37742138 0.2477767 0.3734186
0000b0 ed af 3a 3e c5 72 ec 3e 49 5b 21 3f f6 35 e2 3e
       0.18231173 0.46181312 0.63029915 0.44181794
0000c0 80 93 14 3f e6 21 29 3f 44 c0 fa 3d de 73 07 3e
       0.5803757 0.6606735 0.12243703 0.13227794
0000d0 a2 b5 4a 3e 19 24 af 3c ec a7 56 3f 5b e1 4a 3f
       0.1979585 0.021379517 0.8384998 0.79250115
0000e0 d0 ba 52 3f 33 1a 1d 3f 9e 02 4b 3f 2c 9a 80 3f
       0.82316303 0.613681 0.7930087 1.004705
0000f0 64 d2 62 3f c9 02 31 3f b0 ea 39 3f 8a b4 2e bf
       0.8860228 0.69144875 0.7262373 -0.6824423
000100 1d 74 0e bf 87 51 6d be fa 2d 1c bf 6b ee 01 be
       -0.55645925 -0.23175631 -0.61007655 -0.12688605
000110 e5 cd 7c be bb a4 a8 be cb ed 68 be 3f 56 21 be
       -0.24687918 -0.3293818 -0.22746961 -0.15755557
000120 df 78 0c bf 83 23 40 bf 70 bb 07 bf 1c 38 1b bf
       -0.54871935 -0.75054187 -0.5302038 -0.6063249
000130 8d 9e 39 bd f5 90 8f be 8c bd 0d bf dd bc f7 bd
       -0.04531722 -0.2804028 -0.5536735 -0.1209657
000140 86 91 07 bf
       -0.52956426

conv1.bias f4 [3]
000000 7e a6 13 be cb c9 a4 3e 22 f9 fb bd
       -0.1441898 0.32185206 -0.12303378

fc.weight f4 [8, 300]
000000 27 5b 34 be c9 dd 46 3e d1 27 6e 3e 2d f5 22 3d
       -0.17612897 0.19420542 0.23257376 0.0397846
000010 15 6e 70 3d 2d b6 1d 3e 8c ef 5d 3c 0c 75 5d 3e
       0.058698732 0.15401526 0.013545882 0.21626681
000020 5c 58 46 bd f9 0e 8c 3d 88 f2 50 ba 0e 0f eb 3d
       -0.04842411 0.06838793 -0.000797071 0.11477481
000030 79 7e b6 3d de a1 78 3d 88 31 df bc ef 88 d8 3d
       0.089108415 0.060701244 -0.027245298 0.10572993
000040 ba b6 fd 3d 7e a3 0b 3e 13 5c 2f 3e 9c 1d 70 3e
       0.12388368 0.13636586 0.17124967 0.23448795
000050 27 ba 29 3e 17 ea 20 3e 3e 7d 5f 3d 22 50 9d bd
       0.16574918 0.15714298 0.0545628 -0.076813
000060 61 12 d7 bd 6c 73 e5 3b 9e 02 1a bd b7 7f dc bd
       -0.105015524 0.0070022848 -0.037600152 -0.10766547
000070 8e af 91 3d cf d0 4e 3d dd 70 2b 3e fd e5 a7 3d
       0.071135625 0.050492104 0.16742273 0.08198164
000080 d5 02 8a 3d 99 19 1b 3e 1b 79 09 3d ee ab ac 3d
       0.067388214 0.15146483 0.03356276 0.084312305
000090 5c 95 cd bc 00 f0 1a be a0 a5 8d 3d 64 c1 1c 3e
       -0.025095634 -0.15130615 0.06916356 0.15308148
0000a0 8b 70 fc 3d f2 ca b8 bd 34 6c 74 3c 51 0f 34 3e
       0.12326153 -0.09023084 0.014918376 0.17583968
0000b0 5b e1 f5 3d e8 9a e7 3c 00 1a dc bc c9 65 ec bd
       0.12005874 0.028272107 -0.026867867 -0.115428515
0000c0 ae 9e 32 bd 21 1d 58 3d 50 90 51 bc 99 bc e1 bd
       -0.04360836 0.052762154 -0.012790754 -0.110223
0000d0 7c c8 97 bd fb 8a b0 3d 51 24 40 3e ca 3d c5 3d
       -0.07411286 0.086202584 0.18763854 0.09630926
0000e0 31 cd d8 bc d9 44 37 bd b5 1e 47 bd dd 49 12 3e
       -0.02646503 -0.044743393 -0.04861327 0.14285989
0000f0 33 f6 97 3d b3 9d cb bc f5 ec 93 3d 51 76 d4 3d
       0.07420006 -0.02485547 0.0722293 0.103741296
000100 2d 3f e6 3c 6a 2e 14 3c 3e c5 c9 bc 64 60 a1 bd
       0.028106296 0.009044269 -0.024630185 -0.07879713
000110 1b 00 d4 3b 76 58 9f 3d 1b 5d 7d 3d cc fd 87 3d
       0.006469739 0.077805445 0.06185637 0.06640205
000120 3c 35 d8 bb 3a a1 fc 3d 84 1f 50 ba f2 4d dd bd
       -0.006598143 0.12335439 -0.00079392665 -0.108058825
000130 06 91 01 ba a2 69 1b bd 6b e1 b0 bc f6 9b 3f bd
       -0.00049425696 -0.037942536 -0.021591863 -0.046779595
000140 04 66 25 3e ed c0 24 3d 3b 3e 97 bd f0 f3 b7 3c
       0.16152197 0.04022305 -0.073849164 0.022455186
000150 48 57 bd 3c 4f ac 99 bd 1b 1f ab bd ec 3c f3 bd
       0.023112908 -0.075035684 -0.08355542 -0.11876854
000160 31 20 ac 3d 24 a8 50 3e 08 08 c2 3e 20 2d 52 3e
       0.084045775 0.2037664 0.37896752 0.20525026
000170 67 0a e1 3d 74 68 95 3d df 15 28 3e 7f d8 bc 3d
       0.10988312 0.072953135 0.16414593 0.09220981
000180 74 38 14 3e c3 da 23 3e 47 18 56 bc f0 b7 58 3e
       0.1447466 0.1600142 -0.013067312 0.21163917
000190 9a 48 41 bd 98 0e 91 bd b4 16 6d bd dd db b8 bd
       -0.04718838 -0.07082862 -0.05788298 -0.090263106
0001a0 29 80 c1 3c 24 5a cb bc d4 03 92 bd 00 81 96 bd
       0.023620682 -0.024823256 -0.071296364 -0.073488235
0001b0 43 53 66 3c 8c 11 84 bd 98 42 de 3b ae 8c aa 3d
       0.014057937 -0.06448659 0.006782841 0.08327614
0001c0 5d 70 f3 3c bf 73 53 3d 94 b6 81 3d f9 7c a8 3d
       0.029716665 0.051624056 0.06333652 0.08226962
0001d0 4e 8a 12 3e 85 d6 c6 3d 29 31 84 3d 31 df 4e 3c
       0.14310572 0.09708885 0.06454689 0.012626455
0001e0 72 f6 4f bc 91 e9 99 3d e2 25 5f 3d 3f 7d fa 3d
       -0.0126930345 0.075152524 0.054479487 0.1223092
0001f0 84 b2 23 bd d4 81 b0 3c 7c f3 06 be 13 c3 bb 3b
       -0.039965168 0.021546282 -0.1317882 0.005730042
000200 82 5f 8d 3c 18 3e 09 bc 6d 5b 9e 3b f4 50 d7 3d
       0.017257456 -0.008376621 0.004832676 0.105134875
000210 ce c9 16 bd b6 f9 07 be 97 e4 19 3d cd 76 09 bd
       -0.03681355 -0.13278851 0.037571516 -0.033560563
000220 af d6 7e 3c a9 36 20 be 89 0c 55 bc eb ce 4e 3d
       0.015554114 -0.15645851 -0.013003477 0.0504903
000230 cd 8a c4 3d 9a 45 55 3d d4 61 32 be b3 0d a6 bd
       0.09596787 0.05206833 -0.17420131 -0.08108082
000240 40 c8 ca be fa ec d6 be 8e 07 27 be 20 52 f7 bb
       -0.39605904 -0.41977674 -0.16311476 -0.007547632
000250 3e fc ae bd fa fc e9 bd 11 f4 ee bc ae dc be bc
       -0.08544205 -0.114252046 -0.029169114 -0.023298588
000260 46 07 90 3c 2a 28 ef bc 9a 9c 2e bf 5c fa c6 bd
       0.017581593 -0.029193956 -0.68207705 -0.09715721
000270 51 a9 51 be 52 dd cb 3d 98 ce 79 3d e2 1a 9c 3c
       -0.20474745 0.09954323 0.06098804 0.019055787
000280 b6 83 00 bd 50 e7 54 3a 35 7f a9 bd b5 d5 44 3e
       -0.03137561 0.00081216265 -0.08276216 0.19222148
000290 76 c1 85 be 28 4f 09 bf 55 a8 55 be e4 26 2d bc
       -0.2612416 -0.5363641 -0.20864995 -0.010568354
0002a0 f2 e9 da bd fe fd f4 3c a1 1b 48 3d 82 91 8a 3d
       -0.10689153 0.02990627 0.048854474 0.06766035
0002b0 9b 84 18 bd bf 66 b0 bd 2a b4 2c be ab 69 e3 bd
       -0.037235837 -0.08613347 -0.16865602 -0.11104139
0002c0 e7 92 31 be 6d 03 a0 bd 9a a7 ce bd 68 53 14 bd
       -0.17341195 -0.078131534 -0.10090561 -0.036212355
0002d0 72 c5 87 3d 05 d6 95 3d 8a 5b 79 3a de 52 01 be
       0.066294566 0.073162116 0.00095122366 -0.12629268
0002e0 da 4f e2 bd ed 60 d1 3d 82 ac 1d be b3 44 8f bd
       -0.11050387 0.10223565 -0.15397838 -0.06995525
0002f0 53 e4 60 3c e6 8c 9b bd 3f 51 0d 3d 62 f7 e7 3d
       0.013726312 -0.075952336 0.03450131 0.113264814
000300 fa 8f 8b 3d 3d 2d 82 bd f5 be fc bd b9 ad bf bd
       0.06814571 -0.06356285 -0.1234111 -0.09359307
000310 6c 11 77 3d dd c4 29 be 73 a0 ab 3c 95 f0 8f bd
       0.06031935 -0.16579004 0.020950532 -0.07028309
000320 48 62 91 be fa 5f 83 be 3e ad 06 be 09 0c dd bd
       -0.28395295 -0.25659162 -0.13152024 -0.10793311
000330 9d 61 ad bd 33 ce 07 be 5a 19 39 bd d4 d8 10 be
       -0.08465884 -0.13262253 -0.045190193 -0.14145213
000340 9c 2b dc bd 81 78 43 be a3 99 85 be 39 31 ee bd
       -0.10750505 -0.19088937 -0.26093778 -0.11630482
000350 01 71 06 bd 52 5a 31 3c a0 fa 14 3d fd fc 97 bc
       -0.032822613 0.010824757 0.036371827 -0.018553251
000360 f3 e7 00 bd ac 37 66 bd d3 90 70 bd a6 89 61 be
       -0.031471204 -0.056205437 -0.058731865 -0.22025165
000370 cd 51 73 be 8b ba 91 bd 38 cc c7 3d a7 86 c2 3c
       -0.23761673 -0.071156584 0.097557485 0.023745848
000380 78 d9 f6 3d 52 c0 1e 3e b5 20 04 bd 72 78 dd 3d
       0.120531976 0.15503052 -0.032257754 0.10813989
000390 0e 83 34 3c 1a ef b1 bd c6 bc ec bd 89 26 eb bc
       0.011017574 -0.08688183 -0.11559443 -0.028704898
0003a0 34 29 1f bd 64 49 97 3e a6 b6 f0 3e ef 88 91 3e
       -0.038857654 0.2954818 0.4701435 0.28424785
0003b0 d9 44 76 3e 86 24 38 3e 40 8d 4d 3e eb cf 7c bd
       0.24049701 0.17982683 0.20073414 -0.061721724
0003c0 59 f6 c9 bd 90 38 8a bc 06 a6 97 bc e8 a8 70 3e
       -0.0986144 -0.016872674 -0.018511783 0.23501933
0003d0 72 46 6b be 91 ef 4f 3b 12 ef 02 be b5 2d 70 3d
       -0.22976092 0.0031728486 -0.1278651 0.05863734
0003e0 99 da 37 3e 58 0f 51 bd 01 4f e0 bc c3 a3 e0 3c
       0.17954482 -0.051040024 -0.027381422 0.027421838
0003f0 9d 3b 98 3e 2b 5b 79 3d 07 15 bf be d3 44 19 bf
       0.2973298 0.06087796 -0.3732073 -0.5987064

fc.bias f4 [8]
000000 bd 59 87 be 37 2b 57 be bd 1d 95 be 30 ce 9a 3e
       -0.26435652 -0.21012579 -0.2912425 0.30235434
000010 6b 1d 87 bd e4 c4 09 3f fd 0c 97 be 2e 0b c3 bc
       -0.06597408 0.53816056 -0.29502097 -0.023809042
