Baseline_Results/k=4/max/local/Feature_Extraction/BloodMNIST/Net/Run_2/Best_Weights.pt (torch, 11645 bytes, 4 tensors)

conv1.weight f4 [3, 3, 3, 3]
-0.49584237 0.023788497 -0.46313006 0.16024224 0.31477293 -0.035366237 0.04717124 0.1961094
-0.16279241 -0.12989222 0.19754487 -0.15871952 0.4339177 0.7125829 0.39974275 0.33117568
0.52698964 -0.012753083 0.24364209 0.33695248 0.19380225 0.4511653 0.6505807 0.4478733
0.21191059 0.55424196 0.032260023 -0.106612675 -0.22078098 -0.421674 -0.42450026 -0.46675313
-0.4735809 -0.4320334 -0.7066916 -0.6828859 0.061212216 -0.27686512 -0.11800923 -0.18442175
-0.38504148 -0.34807995 -0.33969834 -0.37927544 -0.3482215 0.19467685 -0.11452921 0.18063231
0.2013417 -0.54468566 -0.43090943 0.521692 -0.6042058 0.31570083 1.027032 1.085493
0.8426292 0.95270014 0.934599 1.257938 0.7832065 0.6431512 0.66425973 -0.40550783
-0.6648244 -0.67399293 -0.4253362 -0.6762207 -0.2849768 -0.23148493 -0.3808438 -0.31448576
-0.48695275 -0.5861175 -0.9722515 -0.43698612 -0.73739064 -0.33300832 -0.32832116 -0.37226442
-0.4336318
00000000: 0ddf fdbe 18e0 c23c 621f edbe 8b16 243e
00000010: eb29 a13e 30dc 10bd a136 413d e7d0 483e
00000020: 0eb3 26be 7702 05be 3449 4a3e 5f87 22be
00000030: 762a de3e d56b 363f 15ab cc3e dc8f a93e
00000040: cbe8 063f 4ff2 50bc 507d 793e 0985 ac3e
00000050: 1974 463e 23ff e63e 758c 263f a64f e53e
00000060: 17ff 583e cde2 0d3f 1623 043d bf57 dabd
00000070: 6914 62be a8e5 d7be 1958 d9be 44fa eebe
00000080: 3279 f2be 7b33 ddbe bee9 34bf 9cd1 2ebf
00000090: a9b9 7a3d 44c1 8dbe d3ae f1bd 0ed9 3cbe
000000a0: 2824 c5be 8937 b2be f1ec adbe 6430 c2be
000000b0: 174a b2be 5e59 473e 4a8e eabd adf7 383e
000000c0: 852c 4e3e 8570 0bbf 29a0 dcbe 9b8d 053f
000000d0: 3bad 1abf 8aa3 a13e c975 833f 6ff1 8a3f
000000e0: 8cb6 573f 28e4 733f e141 6f3f 1d04 a13f
000000f0: 3980 483f 8fa5 243f ed0c 2a3f b99e cfbe
00000100: ef31 2abf cd8a 2cbf abc5 d9be cd1c 2dbf
00000110: 7be8 91be 630a 6dbe f5fd c2be 4704 a1be
00000120: df51 f9be cc0b 16bf 79e5 78bf a5bc dfbe
00000130: a2c5 3cbf 1180 aabe b619 a8be 7199 bebe
00000140: fd04 debe

conv1.bias f4 [3]
0.36041534 -0.1620865 -0.6851183
00000000: 5c88 b83e 01fa 25be ea63 2fbf

fc.weight f4 [8, 300]
-0.13968037 -0.07259349 -0.024991341 -0.087107725 -0.051389936 -0.06703364 -0.13603131 -0.0856953
-0.0070297606 -0.05637586 -0.043834668 0.07688644 0.109772004 0.071765706 0.08488144 0.20010318
0.17036164 0.048156712 0.14960892 0.03849934 0.010384848 0.15472794 0.04659247 0.08466065
-0.083918184 0.002440433 -0.09517029 -0.08403785 -0.037636667 0.05815483 -0.037229754 0.039218694
-0.3350103 -0.116750434 0.0724742 -0.13850087 0.0016361189 -0.10089259 -0.008514136 -0.04336701
0.08911191 0.15339226 -0.2322588 -0.12698604 -0.38368905 -0.41835916 -0.23006494 -0.007663731
-0.061213605 -0.12797974 -0.22218683 -0.11839167 0.09306513 0.049327925 -0.49815208 -0.013231612
-0.35499907 0.11659766 0.06683244 0.16195667 0.002688243 0.10045802 -0.19582118 0.29409203
-0.114163816 -0.60159314 -0.24777544 -0.05813554 -0.15107398 0.0035644558 -0.02475942 0.06263248
-0.057979476 -0.17906071 -0.12656413 -0.14979914 -0.121888444 -0.12821217 0.0073284702 0.05451402
0.0071016396 0.031342458 -0.010222627 -0.037931904 -0.12478367 0.14269823 -0.06600298 0.007314563
0.09242701 0.008994157 0.04547963 0.16831726 0.1256302 -0.0651514 -0.14783345 -0.021904716
0.0385779 -0.0858861 -0.027381983 -0.06746272 -0.21729606 0.1739589 0.37231532 0.03681397
0.074419945 0.2084319 -0.027243959 0.256909 0.028526083 0.015827682 0.049173772 0.08380129
0.1395996 0.087155156 0.053056795 0.083861135 0.11088413 0.1700634 0.21232276 0.26374286
0.20004235 0.22785953 0.055346295 -0.06763591 -0.19574389 0.010064825 0.048458967 -0.19048409
0.09326522 0.006200191 0.15538898 0.10958777 -0.011804853 0.22496052 0.038731854 0.031789552
-0.004264424 -0.18776968 0.13269368 0.22498761 0.124614105 0.0041038655 -0.00011225307 0.10899257
0.1760458 0.045852024 -0.07003043 -0.1654252 -0.11886691 0.18902402 -0.027695132 -0.14962897
-0.05776693 0.1643539 0.19692013 0.039786816 -0.034609385 -0.06172607 -0.053508766 0.08831729
0.03616589 0.06787333 0.1458912 0.13356403 0.047110442 -0.009655199 -0.0059348224 -0.05416611
0.09141194 0.08424134 -0.0016680553 0.03916261 0.042199492 0.11092356 -0.11713477 -0.09168341
-0.059921134 -0.16075769 -0.033926167 -0.06482738 0.30613524 -0.025538377 -0.0946549 0.04891389
-0.07806636 -0.08254766 -0.08514093 -0.15576972 0.077480294 0.35846397 0.41856915 0.29835132
0.043817654 0.09369475 0.11641562 0.09969729 0.21472982 0.21494621 -0.05273948 0.27636334
-0.3583872 -0.12627035 -0.059997067 -0.1526463 0.016611723 -0.10993739 -0.02918204 -0.07947013
-0.12828763 -0.32441616 -0.22530463 -0.11876601 0.038241442 0.07646205 0.043177243 -0.13105051
-0.10105688 -0.16707388 -0.22348431 -0.23080306 -0.16708563 -0.09957515 -0.029115947 0.0029287855
0.21126413 0.18632309 0.08877501 -0.01785771 0.08112643 -0.013620949 -0.030093586 0.019105846
0.09921747 0.44454357 0.5314033 0.5907672 0.3557573 0.31583235 0.10734299 0.13101302
-0.12518135 -0.004225338 0.29619914 0.13605636 -0.06373509 -0.5217038 -0.30361354 -0.01036147
0.025903875 0.060819104 -0.05547604 0.18791318 0.07880632 0.3838298 -0.57642996 -0.78287905
00000000: 5f08 0fbe e5ab 94bd a4ba ccbc 8965 b2bd
00000010: 417e 52bd ef48 89bd cb4b 0bbe 0481 afbd
00000020: e859 e6bb 60ea 66bd fb8b 33bd a376 9d3d
00000030: 25d0 e03d e6f9 923d 52d6 ad3d d9e7 4c3e
00000040: 4873 2e3e f93f 453d 1533 193e 7cb1 1d3d
00000050: 3625 2a3c 0071 1e3e bfd7 3e3d 9062 ad3d
00000060: 4cdd abbd acef 1f3b a4e8 c2bd 091c acbd
00000070: e828 1abd c233 6e3d 3a7e 18bd c8a3 203d
00000080: 7886 abbe da1a efbd 5a6d 943d 2cd3 0dbe
00000090: 0a73 d63a c6a0 cebd e07e 0bbc 9ba1 31bd
000000a0: 4e80 b63d dc12 1d3e 40d5 6dbe a108 02be
000000b0: e472 c4be 2c33 d6be 2596 6bbe 0920 fbbb
000000c0: 1ebb 7abd 1f0d 03be f284 63be 5577 f2bd
000000d0: ee98 be3d 140c 4a3d ca0d ffbe 67c9 58bc
000000e0: 70c2 b5be c1ca ee3d 72df 883d f8d7 253e
000000f0: 3c2d 303b efbc cd3d 5985 48be 3b93 963e
00000100: b8ce e9bd 0202 1abf d8b8 7dbe 881f 6ebd
00000110: 23b3 1abe a599 693b 44d4 cabc 7545 803d
00000120: e37b 6dbd b15b 37be 079a 01be f264 19be
00000130: a6a0 f9bd 0d4a 03be aa23 f03b 184a 5f3d
00000140: dfb4 e83b f360 003d ce7c 27bc 7c5e 1bbd
00000150: 958e ffbd 7c1f 123e 922c 87bd 00af ef3b
00000160: 5f4a bd3d 3b5c 133c d948 3a3d 5c5b 2c3e
00000170: 34a5 003e 196e 85bd a761 17be 8571 b3bc
00000180: dc03 1e3d 0de5 afbd 2e50 e0bc e529 8abd
00000190: dc82 5ebe 4822 323e 1da0 be3e 3fca 163d
000001a0: 7c69 983d 2c6f 553e b92e dfbc 9489 833e
000001b0: 88af e93c 0ea9 813c 706a 493d 03a0 ab3d
000001c0: 33f3 0e3e 677e b23d 1552 593d 63bf ab3d
000001d0: 3817 e33d 1a25 2e3e 236b 593e 4e09 873e
000001e0: e7d7 4c3e 0254 693e ccb2 623d b284 8abd
000001f0: 1671 48be f0e6 243c e97c 463d 430e 43be
00000200: d601 bf3d f92a cb3b 4a1e 1f3e 8e6f e03d
00000210: 2469 41bc 0d5c 663e 4ba5 1e3d c335 023d
00000220: 95bc 8bbb b246 40be dae0 073e 2763 663e
00000230: ae35 ff3d b879 863b 6869 ebb8 7f37 df3d
00000240: 5a45 343e 55cf 3b3d 1d6c 8fbd 3965 29be
00000250: 7f70 f3bd 838f 413e e7e0 e2bc 5638 19be
00000260: 049d 6cbd 644c 283e 6ea5 493e 80f7 223d
00000270: 92c2 0dbd 7ad4 7cbd 022c 5bbd b2df b43d
00000280: af22 143d 2c01 8b3d 8164 153e 02c5 083e
00000290: e1f6 403d d730 1ebc e678 c2bb 48dd 5dbd
000002a0: 2f36 bb3d b986 ac3d a6a2 daba f968 203d
000002b0: 60d9 2c3d e42b e33d 5be4 efbd 83c4 bbbd
000002c0: dd6f 75bd aa9d 24be 2af6 0abd 38c4 84bd
000002d0: c2bd 9c3e dc35 d1bc 6eda c1bd ee59 483d
000002e0: 41e1 9fbd bf0e a9bd 5e5e aebd 1982 1fbe
000002f0: fdad 9e3d 9788 b73e b24e d63e 81c1 983e
00000300: 247a 333d 08e3 bf3d 506b ee3d 182e cc3d
00000310: 22e2 5b3e dc1a 5c3e 5a05 58bd 7f7f 8d3e
00000320: 877e b7be 044d 01be 7cbf 75bd 504f 1cbe
00000330: 4f15 883c db26 e1bd 2c0f efbc 3cc1 a2bd
00000340: d55d 03be e019 a6be 42b6 66be 983b f3bd
00000350: 0fa3 1c3d 2398 9c3d 9fda 303d 1b32 06be
00000360: e9f6 cebd 6a15 2bbe 12d9 64be a357 6cbe
00000370: 7f18 2bbe 0eee cbbd 9184 eebc def0 3f3b
00000380: a055 583e 7bcb 3e3e accf b53d 554a 92bc
00000390: 9d25 a63d 672a 5fbc d386 f6bc dd83 9c3c
000003a0: 8732 cb3d 379b e33e 0c0a 083f 853c 173f
000003b0: d225 b63e c7b4 a13e a4d6 db3d 4728 063e
000003c0: 8a2f 00be b474 8abb 6aa7 973e 5c52 0b3e
000003d0: 8b87 82bd 618e 05bf 3c73 9bbe 28c3 29bc
000003e0: 5d34 d43c 741d 793d d83a 63bd 506c 403e
000003f0: 3565 a13d 5785 c43e ea90 13bf c36a 48bf

fc.bias f4 [8]
-0.4241861 -0.45140085 -0.484143 0.58871955 -0.20919454 0.6983836 -0.3120556 -0.0046931957
00000000: ec2e d9be 031e e7be 97e1 f7be 53b6 163f
00000010: 1837 56be 45c9 323f c0c5 9fbe 61c9 99bb
