Baseline_Results/k=4/max/local/Feature_Extraction/BloodMNIST/Net/Run_1/Best_Weights.pt (torch, 11645 bytes, 4 tensors)

conv1.weight f4 [3, 3, 3, 3]
000000 d0 64 ef be 33 7f 22 bf f7 55 d0 be c8 5a b1 be
       -0.467566 -0.6347534 -0.40690586 -0.34639573
000010 d0 79 37 bf df 24 04 bf 20 9e 2a bf 71 9b 44 bf
       -0.71670246 -0.5161876 -0.6664753 -0.76799685
000020 bb 21 1c bf e6 c5 d3 be 77 10 e9 be 4c e8 5f be
       -0.6098897 -0.41361922 -0.45520374 -0.21865958
000030 d1 1f 6b be de de 54 be 29 f9 cb be a0 0c c5 be
       -0.22961356 -0.20788142 -0.39838532 -0.38486195
000040 06 37 56 be 18 57 ac 3d b0 c7 e7 3e f1 78 21 be
       -0.20919427 0.08415049 0.45269537 -0.15768792
000050 42 a1 df 3e 24 e4 9c bd 78 3e 4b bf 30 39 dd be
       0.43677717 -0.07660702 -0.79392195 -0.43207693
000060 48 2f ad 3e e5 0f ab bd e7 6e e4 3d 03 70 41 3f
       0.33825135 -0.08352641 0.111539654 0.7556154
000070 bc cb 6d 3e c5 6a 89 3d 09 a5 fe 3e 61 9e 33 3f
       0.2322225 0.06709818 0.49735287 0.7016354
000080 d3 0b cd 3e 6b e7 4b 3f 07 8e 67 3f de c6 f7 3e
       0.40048084 0.7964999 0.9045109 0.4839391
000090 e0 5f 4a be e7 a8 f1 be a8 77 20 be 2e a0 1a bf
       -0.19763136 -0.47199175 -0.15670645 -0.60400665
0000a0 a9 98 c4 be 10 72 3f be 9c 0a a1 be b2 33 ae be
       -0.3839772 -0.18695855 -0.31453407 -0.34023815
0000b0 a3 b7 e7 be 80 75 79 be 5a 7d fc be e7 48 69 bc
       -0.4525729 -0.24361229 -0.49314386 -0.014238573
0000c0 60 4f a6 be 0b 6e 03 be 8c ba a3 3e 7c 17 c5 be
       -0.32482433 -0.12834947 0.3197826 -0.3849448
0000d0 fb 17 b7 be 0b 5b 1a bf 31 95 f8 be 46 d8 db bd
       -0.35760483 -0.6029517 -0.48551324 -0.1073461
0000e0 b5 ab 1c bb 52 d4 16 3e 90 89 d0 3e 1f 7f 9a 3e
       -0.0023906056 0.14729431 0.40729952 0.3017511
0000f0 bd d3 00 3d 25 30 03 3f 44 b7 92 3e cf 85 9e be
       0.03145193 0.5124534 0.28655446 -0.30961463
000100 2d 42 1e 3e 63 a6 15 3d 3e 84 80 bd ce aa 11 3f
       0.15454932 0.036535632 -0.06275223 0.5690125
000110 39 9d 82 3e 03 d0 ed bd 9f 17 35 3f 4c 08 a8 3e
       0.25510576 -0.11611941 0.7073917 0.3281883
000120 7a 7b 88 be 30 2f 79 be e5 ed e3 bc 2e 88 e5 bc
       -0.26656705 -0.24334407 -0.027823398 -0.028019037
000130 f0 96 6e 3e 03 25 73 3e b3 fd 95 bd 48 cc 67 3e
       0.23299766 0.23744588 -0.0732378 0.22636521
000140 fe 0f 28 3b
       0.0025644298

conv1.bias f4 [3]
000000 b5 42 12 be 4f e8 49 bf 3a 30 5a 3f
       -0.14283259 -0.788701 0.8522984

fc.weight f4 [8, 300]
000000 a0 4e c2 be a6 b7 86 3e a4 8c 19 3e 16 1d aa 3d
       -0.3795061 0.26311988 0.14995056 0.08306329
000010 43 f6 af 3d 1e 96 83 3e 95 e1 07 be bf e0 09 3e
       0.085918926 0.25700468 -0.13269646 0.1346464
000020 2c 44 d2 3c bd dc 52 3d b2 24 c6 3b c0 7d cc 3c
       0.025667273 0.051480044 0.006046855 0.024962306
000030 81 a9 08 3e a3 8e eb 3d bb 49 8c bd 20 07 99 3d
       0.1334591 0.11501815 -0.068500005 0.07472062
000040 7c 66 e3 3d ca 2f 7c 3e 85 71 09 3e 50 63 23 3e
       0.11103532 0.24627605 0.1342221 0.15955853
000050 99 c3 ab 3d 2a 98 52 3e 33 d8 ea 3d b3 57 0b bc
       0.08386917 0.20565858 0.11467018 -0.008504796
000060 a1 f6 00 be c6 6e a0 bc 08 a4 93 3d 4f e7 3b be
       -0.12594081 -0.01958407 0.07209021 -0.18349956
000070 ab c6 9a 3d 0f f4 ce 3c d4 74 28 3e b7 de fb 3d
       0.07557424 0.02526286 0.16450816 0.12298339
000080 12 ae e6 3c 9d 47 c6 3d ca 41 27 3d 0a 9c ea 3d
       0.028159175 0.09681628 0.040834226 0.11455543
000090 c1 0c 1c bd 60 22 2a be f8 c8 af 3d 22 25 70 3e
       -0.0380981 -0.16614676 0.085832536 0.23451665
0000a0 83 95 fd 3d c5 0a fb 3b f1 70 b6 bc 0e 27 ee 3d
       0.12382033 0.007661196 -0.022270652 0.11628543
0000b0 07 22 05 3e 0a cd 00 3e 08 b3 88 3d 88 dc 30 be
       0.13001262 0.12578216 0.066747725 -0.17271626
0000c0 54 db 11 be 33 74 0a 3e 65 1c 44 3b 43 fa a5 bd
       -0.14243823 0.13520889 0.002992415 -0.08104374
0000d0 26 22 37 bd 90 1e cf 3d a3 aa 35 3e aa 63 cf 3d
       -0.0447103 0.10113251 0.17740874 0.10126431
0000e0 d0 a9 11 3b 8e 32 46 bd ec a0 00 bd 4d bd 1f 3e
       0.002222646 -0.048388056 -0.031403467 0.15599556
0000f0 34 52 37 3d 93 ba 92 3c ce f5 f8 3b ec 01 eb 3d
       0.04475613 0.017911231 0.0075976616 0.11474976
000100 f5 1e 1e 3e 1e f3 f3 3d 05 e9 00 3e 7d de 11 bd
       0.15441497 0.11911605 0.1258889 -0.035612572
000110 65 72 9c 3d 60 28 6f 3d e1 0e 85 bc 78 9a 46 3e
       0.076390065 0.058388114 -0.016242446 0.19394863
000120 83 8a 2d bb 7b e6 aa 3d 1d 80 48 bd 2d 62 ff bd
       -0.0026480264 0.08344742 -0.048950303 -0.124698974
000130 dd 7e 0d 3d c9 03 66 39 1a 7c 9d bd 4a fd 4f 3d
       0.034544814 0.0002193592 -0.07689686 0.050778665
000140 fe 0b 38 3e f6 2f 7d 3d 75 db c3 3c f9 07 c1 3c
       0.17973325 0.061813317 0.023908356 0.023563372
000150 e4 54 49 bd d9 29 f2 bd 3f 47 d7 bd 55 a8 ea bd
       -0.049153224 -0.11824388 -0.10511636 -0.11457888
000160 6c f0 27 3e 65 23 a4 3d 3a 16 9d 3e c5 b7 82 3e
       0.16400307 0.080145635 0.3068102 0.2553083
000170 7b 81 21 3d 81 5f 2f 3d 7b 92 33 3e da e4 b2 3d
       0.039430123 0.04281569 0.17536347 0.08735056
000180 97 3b 86 3e 84 0f 92 3e f4 45 ca bd 41 a4 67 3e
       0.26217338 0.28527462 -0.09876624 0.22621252
000190 f3 67 9f bf fd eb 86 bd bd ea 08 be 2b 19 32 3d
       -1.2453598 -0.0658798 -0.13370796 0.043481033
0001a0 b9 5d 43 3e 43 3c 98 be bb b7 0c bf 83 70 cf be
       0.19078721 -0.29733476 -0.5496785 -0.40515527
0001b0 01 5d 74 bd 33 2b 7c bf cb 69 21 bf 98 2a 1c bb
       -0.059659008 -0.98503417 -0.6305205 -0.0023829099
0001c0 d4 23 52 3d e3 07 78 3e 6c ca 11 3f 56 5f ec 3d
       0.0513037 0.24221759 0.56949496 0.115416214
0001d0 60 08 18 bd ca 59 06 be 15 07 9b 3e 8c 38 1e bf
       -0.037117362 -0.1312019 0.3027884 -0.61805034
0001e0 77 a9 17 bf 5b 79 bd 3c 79 a1 c2 3e 5b 31 8b 3e
       -0.5924296 0.023129156 0.3801382 0.27186093
0001f0 9e 97 3d 3f f2 44 4e 3f 0c d8 59 3f cc f4 1d 3f
       0.74059474 0.8057395 0.85095286 0.61701655
000200 25 de 13 3f 90 a7 a2 bd cf d1 68 be 43 8c 01 3f
       0.5776084 -0.07942116 -0.22736286 0.5060465
000210 fb ea 10 3f f2 c9 29 bc 0f dd 97 3e ba 80 77 3d
       0.5660855 -0.010363089 0.29660842 0.060425498
000220 2f 17 84 be 92 1d 8c bd fd 5a 08 3f 89 39 e9 bd
       -0.25798938 -0.068415776 0.5326384 -0.11387927
000230 b8 e3 3b bc 55 9d 1a 3f d8 91 15 3f 46 92 8b 3c
       -0.011467867 0.6039632 0.58425665 0.017037522
000240 94 51 53 bf ad 65 35 bf d5 c4 dd be 4e 5b ff be
       -0.82546353 -0.7085827 -0.43314233 -0.49874347
000250 e2 2a 47 3f 89 95 0e bf 0a cd b9 bd 83 a8 f4 3e
       0.7779981 -0.5569692 -0.09072311 0.47784814
000260 bc 52 c5 3e fa de 1f bd c5 df c7 be 63 b6 02 bf
       0.38539684 -0.039031006 -0.3903791 -0.5105955
000270 de eb 2a be be f3 01 be 16 56 2c 3f d2 fe 9a be
       -0.16691539 -0.12690637 0.67318857 -0.30272537
000280 4f f5 42 be c4 3a d5 3e d2 77 0d 3f 04 b8 17 be
       -0.1903889 0.41646397 0.55260956 -0.1481629
000290 74 e8 f2 be 58 58 00 be 02 88 91 3d 8f 66 9c 3d
       -0.47442973 -0.125337 0.071060196 0.07636749
0002a0 16 3e 85 3f cd 6b 59 bd 90 f8 a5 bd 05 0e a9 3e
       1.0409572 -0.053081322 -0.0810405 0.3301851
0002b0 c4 bb 01 3f 07 5e 3e 3e c7 ad bf be 01 5e 71 bd
       0.5067713 0.18590556 -0.3743727 -0.05892754
0002c0 5f 2f c0 3d 58 ca 65 be 6f 70 21 3f 07 e2 e4 bd
       0.09384035 -0.2244047 0.63062185 -0.11175924
0002d0 95 fc ce be f1 10 43 3e 87 61 ac 3e 99 d5 a3 3e
       -0.4042708 0.19049431 0.33668157 0.319989
0002e0 30 74 13 3f e9 65 66 3e e0 ed a9 3e 55 e1 0d 3d
       0.57599163 0.22499813 0.33189297 0.03463872
0002f0 1d 5e 2e 3f 23 d0 ac 3d 5e e5 61 bf 3e 05 81 bd
       0.68112355 0.084381364 -0.8824061 -0.06299828
000300 53 97 a7 3e 59 8e ca 3e ef c8 e4 3e ef 24 7a 3e
       0.3273264 0.39561728 0.4468455 0.24428152
000310 bc 93 be 3e fe 8a 61 3d 46 11 8f 3e 25 0b 0d bf
       0.37222087 0.055064194 0.27942866 -0.5509513
000320 4c 61 0c be d8 0d d9 bd d7 3a 9e bd 82 2b 7d bb
       -0.13708991 -0.105983436 -0.077260666 -0.003863067
000330 1f 75 77 bc b9 63 2c be 05 9c 28 be ef b8 0d be
       -0.015103607 -0.16834916 -0.16465767 -0.13840078
000340 a8 56 97 bd 28 ff 33 be e3 c1 a0 bd 44 f7 ca bc
       -0.07389575 -0.17577803 -0.07849481 -0.024776109
000350 7e e0 fe bb b4 ae ef 3d 02 d8 c1 3d 1b f8 15 3e
       -0.0077782264 0.11703244 0.09465028 0.14645426
000360 eb b4 0d 3e 11 b0 0c bd 0f 64 d1 3c 11 69 62 bd
       0.13838546 -0.034347598 0.025560407 -0.05527598
000370 15 2d c0 bd bd 55 2b 3d 29 7f 0a bb dd 8e e2 bc
       -0.09383599 0.041829813 -0.0021132922 -0.027656013
000380 b5 4a 9a 3d 3b dc 8a bc 43 15 f8 bd 69 07 23 bd
       0.075337805 -0.016950717 -0.1211343 -0.03980199
000390 f3 84 9f bd 5d a0 0f 3c bb 10 42 3b ef f0 86 bb
       -0.0778903 0.008766261 0.0029612023 -0.004118077
0003a0 1a e4 83 be c4 68 9d 3d 83 aa 7c bd 04 19 31 be
       -0.25759965 0.07685998 -0.06168605 -0.17294699
0003b0 df dd 7a 3d 42 21 8d bd 5c 72 8f 3d 75 d1 c6 bd
       0.06124675 -0.06891109 0.07004234 -0.097079195
0003c0 2d ab 0c 3d 25 25 b3 bd 49 08 cf ba cb d0 e3 bd
       0.034342933 -0.08747319 -0.0015795316 -0.111238085
0003d0 e1 8a 00 bf 3e 9c c4 be 07 a8 09 be b3 5b 5a b9
       -0.5021191 -0.38400453 -0.13443004 -0.0002082426
0003e0 2b 64 63 3c 38 d5 ab bd a5 d5 9e bd 95 db 48 bd
       0.013878862 -0.083902776 -0.07755593 -0.049037535
0003f0 ae 21 3f 3e 3b 2c 95 bd e5 5c e5 be 07 f5 d2 be
       0.18665192 -0.07283827 -0.44797435 -0.41202566

fc.bias f4 [8]
000000 85 3e d3 be 02 b7 35 bf 07 ee eb be 79 ea e0 3e
       -0.41258636 -0.7098237 -0.46080038 0.43928888
000010 b6 0e e8 bd 92 27 6c 3f 2b 06 f9 be cf 7d 19 3b
       -0.11330931 0.9224788 -0.48637518 0.0023420935
