Baseline_Results/k=3/max/local/Feature_Extraction/BloodMNIST/Net/Run_1/Best_Weights.pt (torch, 13629 bytes, 4 tensors)

conv1.weight f4 [3, 3, 3, 3]
0	0xbedcb61a	-0.43107682
1	0xbeae09f0	-0.33991957
2	0xbebd815e	-0.37012762
3	0xbe4997e4	-0.19686848
4	0xbeeb3047	-0.4593527
5	0xbed51dde	-0.4162435
6	0xbf3012db	-0.6877877
7	0xbf4dc445	-0.8037761
8	0xbf520564	-0.82039475
9	0xbef82d64	-0.4847213
10	0xbeef81ad	-0.46778622
11	0xbec54224	-0.38527024
12	0xbea1706b	-0.3153108
13	0xbe9e53fc	-0.3092345
14	0xbf10aa2e	-0.56509674
15	0xbef8920c	-0.48548925
16	0xbed201b9	-0.4101694
17	0xbe8e7680	-0.27824783
18	0x3f033626	0.512545
19	0xbdf791e4	-0.12088373
20	0x3f2b4d76	0.6691507
21	0xbba8157b	-0.005129514
22	0xbfaa283e	-1.3293531
23	0xbf2a0b94	-0.66423917
24	0x3ee6580d	0.44989052
25	0xbec58897	-0.38580772
26	0x3eb0bccb	0.34519038
27	0xbeb3a7b4	-0.35088885
28	0xbf4aadfd	-0.79171735
29	0xbf53848a	-0.82624114
30	0xbf16221a	-0.58645785
31	0xbf501d45	-0.8129466
32	0xbf51c312	-0.8193828
33	0xbe9bde28	-0.3044293
34	0xbeecdbd0	-0.46261454
35	0xbf0a5503	-0.5403597
36	0x3cc66d0a	0.024221916
37	0x3ca1442f	0.019685833
38	0x3e0709c5	0.1318732
39	0xbd1821ed	-0.03714173
40	0x3d151242	0.036394365
41	0x3e023ed2	0.12719277
42	0x3df6dd38	0.12053913
43	0x3e8437fb	0.2582396
44	0x3daeaa85	0.08528618
45	0x3f4106cd	0.75401
46	0x3f3f313d	0.74684507
47	0x3f6c7644	0.9236796
48	0x3f3c7064	0.73608994
49	0x3f05a872	0.5221015
50	0x3f56064c	0.8360336
51	0x3ee7c4f4	0.4526745
52	0x3eefa0a8	0.46802258
53	0x3f010343	0.503956
54	0xbf4c5593	-0.79818076
55	0xbefac5f3	-0.48979148
56	0xbee6ae8e	-0.4505505
57	0xbeb89fa3	-0.36059293
58	0xbe3f9bbc	-0.18711752
59	0xbd85a2c1	-0.065251835
60	0xbed53521	-0.41642097
61	0xbe0242ae	-0.12720749
62	0xbd0cfaef	-0.034418996
63	0x3e0b6cde	0.13615748
64	0x3ef4bfcc	0.4780258
65	0x3ea82c67	0.32846376
66	0x3dd5211a	0.10406704
67	0x3f11f79e	0.5701846
68	0x3f0f69e6	0.56020963
69	0x3e4756e3	0.19466738
70	0x3f33b5aa	0.7019907
71	0x3f356417	0.7085585
72	0x3e314554	0.17311603
73	0x3e7c7a52	0.24656036
74	0x3e66909d	0.22516103
75	0x3e2ec1d7	0.17066132
76	0x3f07d5f8	0.53060865
77	0x3f335d44	0.7006419
78	0x3e63728d	0.22211666
79	0x3ec68561	0.38773635
80	0x3eb35429	0.35025147

conv1.bias f4 [3]
0	0xbe7b73cd	-0.24555893
1	0x3f5902c9	0.84769875
2	0x3f83e247	1.0303429

fc.weight f4 [8, 363]
0	0xbf4b7788	-0.79479265
1	0xbe66dd88	-0.22545445
2	0xbf0da29a	-0.55326235
3	0x3e408889	0.18802084
4	0x3db81fd1	0.089904435
5	0xbd684092	-0.056702204
6	0x3e1151f6	0.14191422
7	0xbe010ec6	-0.12603292
8	0x3deda602	0.11603929
9	0xbe16b00a	-0.14715591
10	0x3dfb974d	0.12284718
11	0x3ddd6de6	0.10811977
12	0x3e42be97	0.19018017
13	0x3e3a655f	0.18202733
14	0x3dad1053	0.08450379
15	0x3dbebfd7	0.09313934
16	0x3e1b9eef	0.15197347
17	0xbd4c8ec6	-0.049940847
18	0x3dfc06be	0.123059735
19	0x3cde444e	0.02713218
20	0xbddb3ff3	-0.10705557
21	0xbe780c63	-0.24223475
22	0xbea74c1f	-0.32675263
23	0xbdd77663	-0.10520627
24	0x3d0d1ad1	0.034449402
25	0x3e0f6f9f	0.14007424
26	0x3cb28aa6	0.021794628
27	0x3be0e741	0.006863505
28	0x3db8c055	0.090210594
29	0x3e1355d7	0.14388214
30	0x3df91a2b	0.12163194
31	0xbd76c168	-0.06024304
32	0x3e8f4e37	0.2798936
33	0x3e2e43ca	0.17018047
34	0x3d863020	0.06552148
35	0x3ddfb257	0.109226875
36	0x3e412d8b	0.1886503
37	0xbdb15355	-0.086584724
38	0xbd7feb32	-0.06248016
39	0x3cb625d0	0.022234827
40	0xbd092674	-0.033483937
41	0x3cd2aecd	0.025718117
42	0xbd1e69a6	-0.038674973
43	0x3e2183a0	0.15772867
44	0x3cff8c0d	0.031194711
45	0x3dcfd1b7	0.10147422
46	0x3dcca1ff	0.09991836
47	0x3d855b1b	0.065115176
48	0x3caf1919	0.021374272
49	0x3d595586	0.053060077
50	0x3d7d1d02	0.061795242
51	0xbd7b7a74	-0.061396077
52	0x3dba82ac	0.09106955
53	0x3e093483	0.13398938
54	0x3e20b607	0.15694438
55	0x3e1f3bfe	0.15550229
56	0x3d98b467	0.07456284
57	0xbdca35f5	-0.09873573
58	0x3c51e50c	0.012810957
59	0x3cf0997a	0.029370058
60	0x3e5790e1	0.2105136
61	0x3e18399a	0.14865723
62	0xbd92e91a	-0.07173367
63	0xbde467ab	-0.111525856
64	0x3e4cf078	0.20013607
65	0x3e0667e6	0.13125572
66	0x3e1264a9	0.14296211
67	0x3cf74573	0.030184483
68	0x3c9194ea	0.017771203
69	0xbd2d64d9	-0.042332504
70	0x3d9c4773	0.07630815
71	0x3d927a6a	0.07152255
72	0x3d310517	0.043217745
73	0x3ce41af8	0.027844891
74	0x3cfba432	0.030717943
75	0x3e08f924	0.1337629
76	0xbd866991	-0.06563104
77	0xbdb72f8d	-0.089446165
78	0x3c44f91a	0.012022281
79	0x3e101f77	0.14074503
80	0x3d401bf6	0.046901666
81	0x3cef3c11	0.029203447
82	0xbc62cd75	-0.01384293
83	0xbdf59948	-0.11992127
84	0x3d4ed40a	0.050495185
85	0xbd58b33d	-0.05290531
86	0xbc7965ae	-0.015221996
87	0x3da24acd	0.07924423
88	0xbe104abd	-0.1409101
89	0x3df2e378	0.118597925
90	0x3dc770ad	0.09738288
91	0x3b1362e2	0.0022489359
92	0x3d4c8abc	0.049936995
93	0xbdccdb66	-0.100027844
94	0xbdc7727f	-0.09738635
95	0xbe12def6	-0.14342865
96	0x3df674e6	0.12034015
97	0x3db792c7	0.089635424
98	0x3db0c949	0.08632142
99	0x3e1ea1f1	0.15491463
100	0x3e103347	0.14082061
101	0x3e6420af	0.22278093
102	0x3d982fe9	0.07431013
103	0x3b56d6ab	0.003278176
104	0x3dde29a4	0.10847786
105	0x3df6cb80	0.12050533
106	0x3e53c46a	0.20680395
107	0xbd39a5d5	-0.045324165
108	0x3d6775b6	0.056508742
109	0xbd59401b	-0.05303965
110	0xbe3abf5f	-0.18237065
111	0x3e5a02f6	0.21290192
112	0xbd1c94a9	-0.03822771
113	0x3dffc303	0.124883674
114	0x3c3f3f66	0.01167283
115	0x3de32a99	0.11092109
116	0x3e447742	0.19186118
117	0xbb2d41ee	-0.0026437002
118	0xbe290f4f	-0.16509746
119	0x3e2126db	0.15737478
120	0xbd50ed64	-0.051007643
121	0x3f908de3	1.12933
122	0x3f1475ed	0.5799244
123	0x3eb745d9	0.35795477
124	0x3e86df40	0.263422
125	0xbe5343cd	-0.20631333
126	0x3e42de33	0.19030075
127	0x3e1c9101	0.1528969
128	0xbd698ca8	-0.057018906
129	0x3e150004	0.14550787
130	0x3d808095	0.06274525
131	0x3f3f9227	0.74832386
132	0x3c30fbff	0.010802268
133	0xbe937069	-0.287967
134	0xbe208e46	-0.15679273
135	0xbe061b19	-0.13096274
136	0xbe644de3	-0.22295336
137	0xbe032e91	-0.12810732
138	0xbe1ed3a1	-0.15510418
139	0xbe314f1a	-0.17315331
140	0xbdbf942a	-0.09354432
141	0xbe449d84	-0.19200712
142	0xbd4fa7e2	-0.050697215
143	0x3dd84245	0.10559515
144	0xbeb2d3f8	-0.34927344
145	0xbde558e2	-0.11198594
146	0xbd321326	-0.043475293
147	0xbd06ba70	-0.032892644
148	0x3d12a211	0.03579909
149	0xbc0719b4	-0.008245874
150	0x3d5d644d	0.054050732
151	0xbce1c72f	-0.027560798
152	0xbdc0d605	-0.09415821
153	0xbe1fb3d6	-0.15595946
154	0x3eb7641d	0.35818568
155	0xbd98436a	-0.07434733
156	0xbc7b9683	-0.015355709
157	0xbd24e82a	-0.04026047
158	0x3e1193a3	0.14216475
159	0x3d9ab703	0.07554438
160	0x3e30440d	0.1721346
161	0x3e1883ce	0.1489403
162	0xbca36a2c	-0.019948088
163	0xbe1510cd	-0.1455719
164	0xbe1d2fa8	-0.1535021
165	0xbb1b442f	-0.0023691764
166	0xbde5a66b	-0.11213382
167	0x3de9a92f	0.11409222
168	0x3db6d701	0.089277275
169	0x3e0ef4d5	0.13960584
170	0x3d8f8d2c	0.07009348
171	0x3dada5a7	0.08478861
172	0x3db7794d	0.08958683
173	0x3e0fc1ae	0.14038727
174	0x3cda9f19	0.026687192
175	0xbcd31500	-0.02576685
176	0xbda8ea99	-0.08247871
177	0xbdd16527	-0.102243714
178	0x3d8b4721	0.06800676
179	0x3df924ca	0.1216522
180	0x3e25f0f4	0.16205198
181	0x3e10d8cc	0.14145201
182	0xbccfef81	-0.025382759
183	0xbd1c9937	-0.038232055
184	0xbcb97395	-0.022638122
185	0xbcbdeeea	-0.023185212
186	0xbd715c6e	-0.05892604
187	0xbd9e88c3	-0.07740929
188	0x3d75a36e	0.05997031
189	0xbdbbc850	-0.09169066
190	0x3d2d2a5f	0.042276736
191	0x3dbeef54	0.09322992
192	0x3cae0d86	0.021246683
193	0xbd9578c6	-0.07298426
194	0xbdfc97ca	-0.12333639
195	0xba676c18	-0.0008828058
196	0xbd35925a	-0.044329025
197	0x3e6bf39f	0.23042153
198	0xbe2a6c04	-0.16642767
199	0x3dc691bc	0.096957654
200	0xbd7f6848	-0.06235531
201	0x3de1a3dd	0.110175826
202	0x3da6ed8d	0.08150778
203	0x3d7ebb7c	0.062190518
204	0x3c6b18c0	0.014349163
205	0xbd71089b	-0.058846097
206	0xbc57497d	-0.01314008
207	0x3c996a13	0.018727338
208	0x3e8df85f	0.27728555
209	0xbe4388ac	-0.19095105
210	0x3dd49f4a	0.103819445
211	0xbe2eef0e	-0.1708338
212	0x3d965d30	0.07341993
213	0x3e27052c	0.16310567
214	0x3b5ee40d	0.003401044
215	0x3e031f83	0.1280499
216	0x3dcbd498	0.099526584
217	0xbdb9550f	-0.09049427
218	0xbd3a1c50	-0.045437157
219	0xbe929018	-0.2862556
220	0xbde746d7	-0.112928085
221	0x3d5212ea	0.05128757
222	0x3d065f4f	0.032805737
223	0x3e0ce20d	0.13758107
224	0x3d954972	0.07289399
225	0xbd83dc24	-0.06438473
226	0x3e4c79b0	0.19968295
227	0x3db1793f	0.08665704
228	0xbe01ff01	-0.12694933
229	0xbdc4f81f	-0.09617638
230	0xbdd840d6	-0.105592415
231	0x3ed6c7a9	0.41949204
232	0xbdebe705	-0.11518673
233	0xbe569c99	-0.20958175
234	0xbe158dab	-0.14604823
235	0xbd02f0c4	-0.031967893
236	0x3b01dbd7	0.0019814873
237	0x3e9db8a6	0.30804938
238	0x3e4ac5d1	0.19802023
239	0xbe4d625f	-0.20057057
240	0xbde0b491	-0.1097194
241	0x3d9ee09a	0.07757683
242	0x3d90f2a8	0.07077533
243	0xbe217fcb	-0.15771405
244	0x3bd355b5	0.006449426
245	0x3d12e9b6	0.035867415
246	0x3cd78ddf	0.026312767
247	0x3d6df45a	0.05809436
248	0xbcdcb146	-0.02694
249	0xbd419c8d	-0.04726844
250	0xbcd10689	-0.025515812
251	0x3dd3b93a	0.103380635
252	0x3df956fa	0.121747926
253	0x3c8ccf67	0.01718874
254	0xbd39ea98	-0.04538974
255	0xbbbd5cc8	-0.0057788827

fc.bias f4 [8]
0	0xbdf5e8cf	-0.12007295
1	0x3ec6ceb3	0.38829574
2	0xbf3e40d0	-0.74317646
3	0xbe1edefb	-0.15514748
4	0xbdf79431	-0.12088812
5	0x3f3e0e90	0.7424097
6	0xbe8e18e3	-0.27753362
7	0xbd4c9caf	-0.049954113
