Baseline_Results/k=5/max/local/Feature_Extraction/BloodMNIST/Net/Run_1/Best_Weights.pt (torch, 9789 bytes, 4 tensors)

conv1.weight f4 [3, 3, 3, 3]
00000000: e24e e9be f20b d0be c6c9 e9be 99a4 48be
00000010: 6d8d d0be 798e a2be b2a6 e6be 0595 99be
00000020: 0b2c 0dbf fdb8 babe 5924 d9be e7c3 cfbe
00000030: 113c 6cbe 3004 84be d262 14bf 78f1 d4be
00000040: ccd1 81be 139b 84be d583 1e3f be81 96be
00000050: 512b bf3e e189 a5bd 94d7 9dbf 5799 11bf
00000060: 79b1 ed3d 1959 81be 3f44 32bd bfbd 5ebf
00000070: 2471 fabe 2e13 a7bf 67fc e4be fc06 cabe
00000080: ce51 6dbf 9e12 7cbf ae34 05bf ecd7 7ebf
00000090: ee24 cabd c211 613e efee 843e ec86 6f3c
000000a0: 89a7 2b3e e470 9b3e 2038 1fbd d80f 983e
000000b0: 4975 983d 41aa 193f 871c 333f cded 773f
000000c0: 3445 5c3f e8fe a93c 1c0d 5f3f 590d 4b3f
000000d0: 452b 243f 05c4 ab3f 9678 76bf e9f9 f1be
000000e0: fd5e febe 4b83 80be 9859 7dbe 0aa6 68be
000000f0: 91e3 fabe 3ff2 a1be 7147 9dbe f73c 4ebd
00000100: 5768 003f 9d77 d73e 50e6 ac3e 3a1a 1f3f
00000110: 1a69 2a3f c1eb bb3e 7d04 4a3f b7a5 593f
00000120: 3f5f 263f 36af 4b3f a89d 313f 58de 173f
00000130: c169 ef3e 81a3 223f f2ec 8e3e 7acd 5a3d
00000140: 55c3 cc3d
-0.45567995 -0.40634114 -0.45661753 -0.19594039 -0.407329 -0.31749323 -0.45049053 -0.29996505
-0.5514533 -0.3646926 -0.42410544 -0.4057915 -0.23069789 -0.25784445 -0.5796329 -0.41590476
-0.25355375 -0.25899562 0.6191991 -0.2939586 0.37337735 -0.08082939 -1.2331414 -0.56874603
0.11606116 -0.2526329 -0.043522116 -0.8700828 -0.48914444 -1.3052728 -0.44723818 -0.39458454
-0.9270295 -0.9846591 -0.5203351 -0.9954822 -0.09870325 0.2197943 0.25963542 0.01461957
0.16763128 0.30359566 -0.038871884 0.29699588 0.07444245 0.6002541 0.69965404 0.9684723
0.86043096 0.020751432 0.8712938 0.7931724 0.64128524 1.3419195 -0.9627775 -0.4726098
-0.49681845 -0.2510017 -0.24741209 -0.22719589 -0.49001744 -0.31630132 -0.30718568 -0.05035111
0.5015921 0.42083445 0.33769464 0.62149394 0.6656662 0.36703303 0.789131 0.85018486
0.64989084 0.79564226 0.6938119 0.59323645 0.4676037 0.6353074 0.2791515 0.053418614
0.09998194

conv1.bias f4 [3]
00000000: cf7f 38bf 1e78 883f 4c58 1b3f
-0.7207002 1.0661657 0.60681605

fc.weight f4 [8, 243]
00000000: cfa1 943e cc7f c33d 8033 5b3d 48a2 9a3d
00000010: b0e3 7ebd d96b b43d 244b f13d 3efe 0f3e
00000020: 81a8 a13e 3b81 323e 333b bdbb 0160 3bbd
00000030: 958f aa3d dcad 56be 7fb8 82bd 10f3 32bc
00000040: bc81 2abe 6dad 9a3d 67d1 ee3d cf2f 63bd
00000050: f271 813b a83c d23d 9fb7 82bd 2c2a 293c
00000060: 0a0f b7bd 51f9 90bd 6e2f 533e a167 f1bc
00000070: ffb6 e4bc cc8d c13d 4b42 733e ce21 bf3d
00000080: 62a6 953d 0a55 633c 8ffa 01be 5c81 693d
00000090: 7ef4 41be 0252 ddbd 2c9d 2e3d 5f35 113e
000000a0: 520b ac3d 6cba 9a3c fa7b 01bd c402 0cbd
000000b0: be8a 96bd 1394 0fbe f4eb 163d 650d c03d
000000c0: 865e 4e3e 1bb6 023e 7529 c23d f413 9e3d
000000d0: ca20 813d 3a85 80bc 4879 f13d 1f9a f7bb
000000e0: 6e8d 783d eb21 1e3e d20a 1d3e 0165 b33d
000000f0: 5b66 643d cf14 073d 1173 d43d 0c5a 293e
00000100: a11e ffbd ef68 ad3d 96a0 b13d 29c6 f5bd
00000110: 835c bf3c bf79 01bc fc33 423d 7166 4c3c
00000120: 275c 9c3e a40b 75ba 5b50 d33d 696a bbbc
00000130: ef6e 8abd 83df 86bd 2f20 95bb cfe2 b6bc
00000140: 7f72 613e a466 f5bd 6d55 373c 0afe 5fbd
00000150: 4638 f03c ec95 263c 6f84 a1bd 5a1c 613d
00000160: 5a12 24bd c428 bcbd 4563 6dbb 7ece e93c
00000170: 795f b03d 2a6a 923c 5620 973d fad0 733d
00000180: b78c 473e d72f 333e 0d1c f0bd f218 633d
00000190: ed87 573e 0375 453e 0d66 243e b4ee f23d
000001a0: dad9 803d 9175 063e b5d8 923d e48f 163d
000001b0: fd77 7ebc ac12 3d3e 2ffe 633d 5939 263d
000001c0: 0c39 f73a 6e70 283d b056 97bd 1d44 27bd
000001d0: 241e 7cbb 88de 3abc 8a97 3cbd a247 023c
000001e0: 1a9d 9abd 202a 89bd acaa c7bd 8599 ffbd
000001f0: 91c5 6bbd a0bd c8bd e10a dfbc 81e2 293c
00000200: a601 71bd df00 d1bd 9fe0 27bb af75 b3bd
00000210: 51f0 65bd c4e9 3aba 5f8c 6bbd 6212 c9ba
00000220: 731a ca3c ff3d 6a3d 5245 98bd fe2a 9bbc
00000230: 9060 b8bc de98 cbbc 9d34 38bc 245f 843d
00000240: 0e0d 17bb 0c69 163e 90c5 a73d 0bfd 19bd
00000250: f521 df3c 9ecf 46bd 2133 8ebc e80e 48ba
00000260: 8bea 5a3d 721d 723a 8197 033c ff0b 303e
00000270: c77d 1e3e 0807 883d 68f1 2e3e a983 223e
00000280: af53 083e 9dc1 3abd e0f1 ffbc 4376 adbc
00000290: 7841 453d a08e 093d b82b f6bc 6474 02be
000002a0: 0937 09be 166f 923c 44cf 38bb c66a 7cbd
000002b0: f69d 35bd da5d 82bc 2f88 fc3c 215c 2f3e
000002c0: 86ab c63d 8465 8e3d 5ac6 173d 6242 1bbd
000002d0: 5fe5 a53d efe8 e73c adbf 5cbd 2f5d bfbd
000002e0: 6dc1 ab3d aed1 14be 8476 72bd a48f 13be
000002f0: cb63 ecbd 1718 c73d 5e19 b03c 9c7e 8cbe
00000300: 0ef5 12be 0ad3 79bd 6217 57bd 393c 47be
00000310: 7a4b 263d 354d 8ebd 2594 8f3d 480a d73d
00000320: cd1d 7d3d a952 81bd 62a5 60bf 30df 7ebe
00000330: f2a5 353d b8b5 4b3e a92c e7bd 938d f7bd
00000340: a207 b1bc 6272 023d f646 553e 0bde 9abf
00000350: 02e7 1fbe e927 cd3d 628d 503d ee34 71bc
00000360: 4b7a 973c 846a efb9 0e9b c0b9 cddb 7bbe
00000370: f0fd 72be f11d 92be d765 a7bd b857 b0bc
00000380: 4074 01bd 5206 ae3c 60ba f33c b658 2fbd
00000390: a4a7 4dbe 63ee 773e 8a49 9e3d 731b 3a3c
000003a0: 0968 f83c 6272 d7bd 0a2f fd3c b5b7 a1bc
000003b0: 07cf e63c bced bb3a deba f1bd f941 8ebd
000003c0: d971 f1bd 7a60 a2bd 049f 14be 52e8 7c3d
000003d0: cd04 923d aef6 703d 5284 413d 49a1 333e
000003e0: 3257 043d 7f10 2f3e 335c 433e 83e1 c53d
000003f0: 0be6 9f3d a87e 2c3d a224 03be d0cd 0f3d
0.290297 0.0954586 0.05351591 0.07550484 -0.06222886 0.08809633 0.1178191 0.1406183
0.3157387 0.1743211 -0.0057748794 -0.045745853 0.08328167 -0.2096476 -0.06382846 -0.010922208
-0.16651052 0.075526096 0.11661034 -0.055465516 0.003950351 0.102654755 -0.06382679 0.010324996
-0.08938415 -0.07078803 0.20623562 -0.02946836 -0.02791929 0.09450874 0.23755758 0.093326196
0.07307126 0.013875255 -0.12693237 0.057008132 -0.18940923 -0.108066574 0.04263036 0.14180516
0.08400597 0.018887721 -0.031612374 -0.034182325 -0.07350682 -0.1402133 0.036846116 0.09377555
0.20153245 0.1276478 0.094805636 0.077186495 0.06305082 -0.015688527 0.11790711 -0.0075562145
0.060681753 0.15442626 0.15336159 0.08759499 0.055761676 0.03297883 0.1037351 0.16538256
-0.12457014 0.0846728 0.086732075 -0.12000687 0.023359543 -0.007902562 0.047412857 0.012475596
0.30539057 -0.0009347743 0.10318061 -0.022877889 -0.0675944 -0.065856 -0.0045509557 -0.022324948
0.22016333 -0.11982468 0.011189801 -0.05468563 0.029323708 0.01016758 -0.07886588 0.05495868
-0.040056564 -0.09187463 -0.00362225 0.028540846 0.0861196 0.017872889 0.073792145 0.059525467
0.19487272 0.17498718 -0.117241 0.05544371 0.21047945 0.19282918 0.16054554 0.11861935
0.06291552 0.13130786 0.0717024 0.03675832 -0.015531537 0.18464154 0.05566233 0.040582035
0.0018861606 0.041122846 -0.07389581 -0.040836442 -0.0038470114 -0.011405595 -0.046042956 0.007951649
-0.07549496 -0.06697488 -0.0974935 -0.124804534 -0.05756146 -0.09801793 -0.027226867 0.010368944
-0.058839463 -0.10205244 -0.0025616062 -0.08762681 -0.056137387 -0.00071301707 -0.057506915 -0.0015340562
0.024670815 0.05718803 -0.07435097 -0.018941399 -0.022506982 -0.024853166 -0.011243013 0.06463459
-0.0023048553 0.1468851 0.08191979 -0.037594836 0.027237872 -0.048537843 -0.017358365 -0.0007631616
0.053446334 0.0009235955 0.008031727 0.17192076 0.15477668 0.06641966 0.17084277 0.15870537
0.13313173 -0.0455948 -0.031243265 -0.021174556 0.04815814 0.033583283 -0.030050144 -0.12739712
-0.133999 0.017875236 -0.0028199712 -0.061625265 -0.044340096 -0.015913893 0.030826656 0.17124988
0.09700684 0.06952956 0.037054397 -0.037905104 0.0810039 0.028309314 -0.053893734 -0.09343945
0.083865024 -0.14533111 -0.059195057 -0.14410263 -0.115424715 0.09721392 0.021496471 -0.27440345
-0.14351293 -0.06099228 -0.052512534 -0.19456567 0.040599324 -0.0694832 0.07010678 0.10500008
0.061796 -0.06314594 -0.87752354 -0.24889827 0.04434771 0.19893539 -0.11287815 -0.1208755
-0.021610085 0.031847365 0.2082785 -1.2099012 -0.15615466 0.10017378 0.050916083 -0.014722092
0.018490931 -0.00045664993 -0.00036736618 -0.24595566 -0.23729682 -0.28538468 -0.08173721 -0.021526203
-0.031605005 0.021243248 0.029751956 -0.04280921 -0.20083481 0.24212031 0.0772887 0.0113590835
0.030323045 -0.10519864 0.030906219 -0.019740919 0.02817489 0.0014337818 -0.1180322 -0.06946177
-0.11789293 -0.07928558 -0.14513785 0.061744995 0.07129822 0.058829002 0.04724533 0.17541994
0.03230972 0.17096137 0.1907814 0.096621536 0.07807549 0.042112976 -0.12806943 0.035108387

fc.bias f4 [8]
00000000: 9f07 a5bd 1324 83be 82b5 56bf 26ad bfbd
00000010: a752 25bf 5d31 bd3f 3be8 4abd 923f eabd
-0.08058094 -0.2561346 -0.8387071 -0.09359197 -0.6457924 1.478069 -0.04953788 -0.11437906
