Baseline_Results/k=4/avg/local/Feature_Extraction/BloodMNIST/Net/Run_3/Best_Weights.pt (torch, 11645 bytes, 4 tensors)

conv1.weight f4 [3, 3, 3, 3]
0.64911085 0.5109609 0.10649194 0.4471321 0.4081989 -0.25574705 0.45526138 0.15029985
-0.23801209 0.27017382 -0.05917325 -0.36920747 0.18831234 -0.4016951 -0.7262625 0.017755372
-0.75899327 -0.75372744 0.5836507 0.61560345 0.24732673 0.7829974 0.43387341 0.03979614
0.30072796 -0.021014675 -0.29365957 -0.48336136 -0.18490882 -0.2294091 -0.3403143 -0.17924279
-0.09373544 -0.38935384 -0.23910058 -0.28677386 0.080292486 0.26935628 0.31950778 0.2950662
0.75511736 0.64296013 0.27078938 0.50918597 0.46289083 0.23516989 0.55837595 0.40802464
0.33667994 0.6898571 0.4394585 0.21408819 0.38963157 0.512375 0.5994714 1.0832756
0.83087766 0.46701518 1.2003493 1.1188929 0.8222205 0.90284014 0.7395149 -0.9122695
-0.34859937 -0.26484594 -0.8062188 0.1679276 -0.2151617 -0.49047032 -0.15526973 -0.21266277
-1.1736221 -0.79866594 -0.7283272 -1.1432419 -0.08967046 -0.32912484 -0.95132804 -0.27211982
-0.24513918
00000000: 212c 263f 55ce 023f 7218 da3d 80ee e43e
00000010: 72ff d03e 47f1 82be 0518 e93e 34e8 193e
00000020: 71b9 73be 3954 8a3e a65f 72bd c308 bdbe
00000030: f3d4 403e fbaa cdbe 57ec 39bf b773 913c
00000040: 624d 42bf 48f4 40bf 226a 153f 3098 1d3f
00000050: 3843 7d3e 8572 483f a824 de3e 4701 233d
00000060: 04f9 993e f826 acbc 8c5a 96be 247b f7be
00000070: bd58 3dbe 38ea 6abe ad3d aebe 6c8b 37be
00000080: 5ef8 bfbd 6359 c7be c8d6 74be 06d4 92be
00000090: 6370 a43d 11e9 893e 8696 a33e eb12 973e
000000a0: 5f4f 413f 0999 243f e8a4 8a3e 035a 023f
000000b0: 0700 ed3e 60d0 703e baf1 0e3f 9be8 d03e
000000c0: 5061 ac3e 7a9a 303f b400 e13e ef39 5b3e
000000d0: ca7d c73e 022b 033f f576 193f c6a8 8a3f
000000e0: 66b4 543f 9d1c ef3e 0ca5 993f e237 8f3f
000000f0: 0b7d 523f 8820 673f d950 3d3f 7e8a 69bf
00000100: 9e7b b2be e399 87be 5b64 4ebf 36f5 2b3e
00000110: 5953 5cbe ed1e fbbe 07ff 1ebe 45c4 59be
00000120: 4039 96bf 5f75 4cbf a773 3abf c055 92bf
00000130: 25a5 b7bd 0d83 a8be 3c8a 73bf 4a53 8bbe
00000140: c405 7bbe

conv1.bias f4 [3]
-0.33610448 1.2310283 -0.020161856
00000000: e315 acbe 5692 9d3f 7a2a a5bc

fc.weight f4 [8, 300]
-0.03306452 -0.07389923 -0.048848137 0.01931179 0.20287287 0.19058333 0.19011019 0.21072738
-0.0052464493 -0.13034874 -0.088014275 0.057003327 0.099931225 0.23326534 0.2277926 0.16756538
0.13990904 0.32315388 0.17868152 0.038998805 -0.029764874 0.19502491 0.33397532 0.38446176
0.3207191 0.22055072 0.08861831 0.3960423 0.28708115 0.19403672 0.0053224 0.19433416
0.33900988 0.29620737 -0.05193735 -0.076889515 -0.24500981 0.015928019 0.32287765 0.30660427
0.10807793 0.13031575 0.19022575 0.03993929 -0.6672072 -0.6446583 -0.6025816 -0.36722037
0.40324095 0.2548906 0.28460014 0.11651623 0.12654063 -0.09441511 -0.6705367 -0.18385702
-0.26557398 -0.27448994 0.4984118 0.23186895 0.2516929 0.09310591 0.21228099 -0.0398939
-0.5972008 -0.33117598 -0.43949753 -0.31297365 0.50445247 0.25480774 0.2445855 0.21452798
0.23774527 0.25700068 -0.41039625 -0.5800391 -0.4916883 -0.011524605 0.4028722 0.24784829
0.019727973 0.116195016 0.20011492 0.37529513 0.14769782 0.129631 0.2268379 0.59337264
0.4201263 0.26701328 -0.019394431 0.14136206 0.21751805 0.3888293 0.45651805 0.35536242
0.31193727 0.44611856 0.27729914 0.32678005 0.08280612 -0.091357835 -0.08045791 -0.09375416
0.01562664 0.034520384 0.0010329803 -0.077452525 -0.030546159 0.06802539 0.021686085 -0.018678833
-0.07964372 0.01656991 -0.06825633 -0.11588815 0.034951597 0.015047424 -0.015224339 0.06712968
-0.07618608 -0.11092708 -0.06718948 0.014711459 -0.13523114 -0.2281601 -0.09932479 -0.0105783
-0.023615079 0.08575023 -0.103058584 -0.08913322 -0.1093361 -0.22990337 -0.29158768 -0.46943694
-0.48338658 -0.19050427 -0.05433331 0.15557866 -0.06878552 -0.20899296 -0.18294074 -0.3129218
0.23398447 0.14054702 -0.84775233 -0.3558857 -0.11470043 0.01723491 -0.10777624 -0.182484
-0.054850884 -0.14320272 1.1710327 1.2066177 -0.58595026 -0.25299492 -0.057764143 0.05779186
-0.073135175 -0.16341801 -0.14396644 -0.3759534 -0.20487563 -0.5677516 -1.1505253 -0.34155858
-0.04843833 0.13370708 -0.027488714 -0.08755862 -0.075207666 -0.14197151 -0.3709746 -0.56263876
-0.6534555 -0.25280598 -0.12023275 0.032431945 -0.053795543 -0.10740682 -0.07602787 -0.023330692
-0.1875059 -0.22061536 -0.16977803 -0.1526779 -0.072483435 0.09030363 0.06410856 0.016175952
-0.031008799 -0.014368996 -0.103019334 -0.14692576 0.0123342825 -0.064593196 0.060413733 0.1884616
-0.6084304 -0.4412198 -0.1890519 -0.060145617 -0.055770174 -0.08214089 -0.032047227 -0.20169814
-0.21477981 -0.35830858 -0.41412857 -0.09732733 0.13439314 0.21380365 0.17920317 0.11933964
0.13399552 0.08740809 0.070521474 -0.12730981 -0.24743107 0.11440262 0.39114633 0.33842912
0.15974602 0.18075064 0.2017617 0.17916115 0.12700027 0.07489918 -0.09927743 0.19767764
0.31639084 -0.001226327 -0.25364247 -0.23702888 -0.017498631 0.028955419 0.1445859 0.10063945
-0.11384233 0.14461185 0.16781613 -0.46826774 -0.29166028 -0.071894206 -0.33550727 -0.024033982
0.06317088 -0.02521181 -0.092069104 0.09457715 0.26567355 -0.929628 -0.08643763 -0.22047302
00000000: aa6e 07bd 7b58 97bd fc14 48bd c233 9e3c
00000010: e8bd 4f3e 4728 433e 3fac 423e ebc8 573e
00000020: 68ea abbb 247a 05be d440 b4bd 527c 693d
00000030: bea8 cc3d 1cdd 6e3e 7742 693e 4296 2b3e
00000040: 5144 0f3e 6d74 a53e 4af8 363e 36bd 1f3d
00000050: 77d5 f3bc 9cb4 473e d0fe aa3e 2cd8 c43e
00000060: 4b35 a43e 0cd8 613e 847d b53d 0ec6 ca3e
00000070: 4dfc 923e 90b1 463e 8767 ae3b 89ff 463e
00000080: b492 ad3e 7ea8 973e 42bc 54bd 4078 9dbd
00000090: dae3 7abe 7a7b 823c 3850 a53e 3cfb 9c3e
000000a0: f657 dd3d 7e71 053e 8aca 423e 6297 233d
000000b0: 17ce 2abf 5408 25bf ca42 1abf 4f04 bcbe
000000c0: 9975 ce3e 0581 823e 1cb7 913e 10a0 ee3d
000000d0: de93 013e b65c c1bd 4ba8 2bbf 0445 3cbe
000000e0: 50f9 87be f289 8cbe d52f ff3e 0e6f 6d3e
000000f0: e4dd 803e 50ae be3d 3060 593e c967 23bd
00000100: 27e2 18bf e68f a9be d205 e1be 153e a0be
00000110: cc23 013f 2976 823e 9f74 7a3e 39ad 5b3e
00000120: 7f73 733e 9895 833e 751f d2be 717d 14bf
00000130: 92be fbbe b2d1 3cbc 4445 ce3e f1cb 7d3e
00000140: 8f9c a13c a7f7 ed3d edea 4c3e af26 c03e
00000150: 193e 173e fdbd 043e 3248 683e 45e7 173f
00000160: cb1a d73e f7b5 883e 12e1 9ebc 37c1 103e
00000170: 0dbd 5e3e a214 c73e bcbc e93e 10f2 b53e
00000180: 3eb6 9f3e a769 e43e 27fa 8d3e b74f a73e
00000190: 4196 a93d d119 bbbd 1ec7 a4bd 2e02 c0bd
000001a0: 7003 803c 3f65 0d3d 1165 873a 6e9f 9ebd
000001b0: f03b fabc e550 8b3d 04a7 b13c 5a04 99bc
000001c0: 3f1c a3bd 9fbd 873c fac9 8bbd c456 edbd
000001d0: 6829 0f3d 7889 763c 826f 79bc 497b 893d
000001e0: 7307 9cbd bd2d e3bd a39a 89bd 5508 713c
000001f0: 087a 0abe cda2 69be cc6a cbbd 9b50 2dbc
00000200: 6974 c1bc d19d af3d 6110 d3bd 7a8b b6bd
00000210: 9beb dfbd ca6b 6bbe fb4a 95be 0a5a f0be
00000220: 727e f7be 8d13 43be 9b8c 5ebd 0350 1f3e
00000230: 6cdf 8cbd 4002 56be d154 3bbe 4937 a0be
00000240: a099 6f3e 8feb 0f3e 4c06 59bf a736 b6be
00000250: 0fe8 eabd 3a30 8d3c cab9 dcbd 16dd 3abe
00000260: 52ab 60bd bca3 12be 66e4 953f 7372 9a3f
00000270: d600 16bf 8d88 81be 189a 6cbd 28b7 6c3d
00000280: e5c7 95bd 0d57 27be f06b 13be f77c c0be
00000290: ebca 51be 2b58 11bf 6a44 93bf c4e0 aebe
000002a0: 4567 46bd 82ea 083e 0330 e1bc ef51 b3bd
000002b0: 7a06 9abd fb60 11be 62f0 bdbe 1809 10bf
000002c0: dc48 27bf c96f 81be 973c f6bd 5cd7 043d
000002d0: b758 5cbd 1bf8 dbbd 80b4 9bbd 0220 bfbc
000002e0: 8c01 40be fee8 61be 4bda 2dbe 9857 1cbe
000002f0: 3272 94bd 1cf1 b83d 594b 833d 6e83 843c
00000300: 2a06 febc f06b 6bbc cdfb d2bd b573 16be
00000310: bb15 4a3c 7049 84bd 6474 773d 14fc 403e
00000320: 18c2 1bbf 90e7 e1be d296 41be 405b 76bd
00000330: 446f 64bd 7c39 a8bd f443 03bd f589 4ebe
00000340: 3def 5bbe 3974 b7be a908 d4be 8d53 c7bd
00000350: 5b9e 093e 58ef 5a3e 0981 373e 5768 f43d
00000360: 1f36 093e 0303 b33d 906d 903d 815d 02be
00000370: 925e 7dbe ec4b ea3d 5544 c83e 9546 ad3e
00000380: 7694 233e b216 393e 9e9a 4e3e 0576 373e
00000390: 5c0c 023e be64 993d f751 cbbd 026c 4a3e
000003a0: fbfd a13e b5bc a0ba 6ddd 81be b3b7 72be
000003b0: 4a59 8fbc ea33 ed3c 530e 143e 0e1c ce3d
000003c0: 2b26 e9bd 2115 143e fed7 2b3e cac0 efbe
000003d0: 7f54 95be 453d 93bd 9cc7 abbe eae2 c4bc
000003e0: bc5f 813d ff88 cebc ba8e bcbd aab1 c13d
000003f0: 5d06 883e 1afc 6dbf 3606 b1bd aec3 61be

fc.bias f4 [8]
-0.302273 -0.113888696 0.7875517 0.4748094 -0.09516788 0.22329324 -0.610617 -0.85918224
00000000: 87c3 9abe 7a3e e9bd fd9c 493f 381a f33e
00000010: 61e7 c2bd fca6 643e 6551 1cbf 5ef3 5bbf
