Baseline_Results/k=5/avg/local/Feature_Extraction/BloodMNIST/Net/Run_1/Best_Weights.pt (torch, 9789 bytes, 4 tensors)

conv1.weight f4 [3, 3, 3, 3]
0	0xbe886662	-0.26640612
1	0x3dc60cb1	0.096703894
2	0x3e23240a	0.15931717
3	0x3d035495	0.032063086
4	0xbed433d1	-0.41445783
5	0xbe210072	-0.15722826
6	0x3b93fb81	0.0045160656
7	0xbedf4f34	-0.43615115
8	0xbee5bd8e	-0.4487118
9	0xbf328239	-0.69729954
10	0xbf313baf	-0.69231695
11	0xbef10c13	-0.47079524
12	0xbf0e674f	-0.55626386
13	0xbf2a8dfe	-0.6662291
14	0xbf460c17	-0.773622
15	0xbf0b651c	-0.54451156
16	0xbf17e6ce	-0.59336555
17	0xbebe4968	-0.3716538
18	0x3f051357	0.51982635
19	0x3f4da5ef	0.8033132
20	0x3f39aa9a	0.7252594
21	0x3f001fc1	0.5004845
22	0x3ede7f4f	0.43456504
23	0x3e8ab979	0.2709463
24	0x3ee539a7	0.44770548
25	0x3e400692	0.18752506
26	0x3eacf96f	0.33784053
27	0x3efd14fa	0.49430066
28	0x3e619c84	0.22032362
29	0x3e3b01f1	0.1826246
30	0x3e91d1ab	0.28480276
31	0x3e83e006	0.25756854
32	0x3e72bc6c	0.2370469
33	0x3f00b156	0.50270593
34	0x3ee34ccb	0.44394526
35	0x3eba9b5b	0.36446652
36	0xbed717e7	-0.42010424
37	0xbf092b6d	-0.5358189
38	0xbed511f5	-0.41615263
39	0xbf098abb	-0.5372731
40	0xbf00185b	-0.50037163
41	0xbef855c5	-0.48502937
42	0xbeb6425a	-0.35597497
43	0xbebb0f1b	-0.36534962
44	0xbf15d1b9	-0.58523136
45	0x3ea61e2b	0.3244489
46	0x3ee6ada1	0.45054343
47	0x3f13a5e8	0.5767503
48	0x3efaff3a	0.49022847
49	0x3edac434	0.42727816
50	0x3f1023d5	0.56304675
51	0x3e27be85	0.16381271
52	0x3e9b39d1	0.30317548
53	0x3e237fda	0.1596674
54	0xbf4bff81	-0.79686743
55	0xbef70677	-0.4824712
56	0xbeeb434b	-0.45949778
57	0xbe94d530	-0.290689
58	0xbdf88ca5	-0.12136201
59	0xbe1dcc43	-0.15409951
60	0xbeab513d	-0.33460417
61	0xbe60a4b2	-0.21937826
62	0xbe8ad86e	-0.27118248
63	0x3cb2b6f1	0.021815749
64	0x3f0664cb	0.5249755
65	0x3ef22c82	0.47299582
66	0x3e3dc0b5	0.18530543
67	0x3f550578	0.8321147
68	0x3f458d76	0.7716898
69	0x3ed0390f	0.40668532
70	0x3f53e74c	0.82774806
71	0x3f48d138	0.7844424
72	0x3df0cc22	0.11757685
73	0x3edea987	0.43488714
74	0x3ede3152	0.43397003
75	0x3dead6c3	0.11466744
76	0x3f38ce9a	0.7219025
77	0x3f4bc483	0.7959673
78	0x3e16a484	0.14711195
79	0x3eaef6f3	0.34172782
80	0x3eda55aa	0.42643481

conv1.bias f4 [3]
0	0xbe6e1c94	-0.23253089
1	0xbdbf6fff	-0.093475334
2	0x3fa1fcde	1.2655294

fc.weight f4 [8, 243]
0	0xbeb555e4	-0.35417092
1	0xbe5c93f3	-0.21540813
2	0xbdad2e5c	-0.08456108
3	0x3a675f2d	0.0008826133
4	0x3e189e0c	0.1490404
5	0x3e234e07	0.15947734
6	0x3c835749	0.016032832
7	0xbdb4ef52	-0.08834709
8	0xbd74335e	-0.0596193
9	0xbdc806df	-0.097669356
10	0x3b9e488d	0.004830426
11	0x3d30022a	0.042970814
12	0x3e1d11e0	0.1533885
13	0x3e42c6af	0.19021104
14	0x3dee4e55	0.116360344
15	0x3d494071	0.04913372
16	0xbddc1bda	-0.107475
17	0xbda863db	-0.08222171
18	0x3c8739fd	0.016507143
19	0x3df785c5	0.120860614
20	0x3e22a4f8	0.15883243
21	0x3e1815b6	0.14852032
22	0x3e0a19b2	0.13486364
23	0x3e45fa75	0.19333823
24	0x3d06a8d7	0.032875862
25	0x3d53cf6e	0.051711492
26	0x3d46677c	0.048438534
27	0x3d9e64a0	0.077340364
28	0x3e492891	0.19644381
29	0x3e44a170	0.19202209
30	0x3e321b58	0.17393243
31	0x3e4982f6	0.19678864
32	0x3e56a581	0.20961572
33	0x3debbbae	0.115104064
34	0x3cc932a4	0.02456028
35	0x3df6ea0f	0.12056362
36	0x3b7e06f3	0.0038761466
37	0x3dc66c1d	0.0968859
38	0x3df130ff	0.117769234
39	0x3da4d6f4	0.080488116
40	0x3e088fe9	0.13336147
41	0x3dd62f55	0.104582466
42	0x3dbf0f63	0.09329107
43	0x3da3c144	0.07995847
44	0x3d8f2e10	0.069912076
45	0x3ae177c4	0.0017201831
46	0x3df24c4f	0.11830961
47	0x3db0e2a2	0.08636977
48	0x3db3719b	0.08761903
49	0x3dfdd5ca	0.12394293
50	0x3e128c29	0.1431128
51	0x3de500ff	0.111818306
52	0x3da5f15a	0.08102675
53	0x3d39e012	0.045379706
54	0x3d692329	0.056918297
55	0x3cd09e74	0.025466181
56	0xbb782d2c	-0.0037868721
57	0x3cc8087c	0.024418108
58	0x3e039213	0.12848692
59	0x3d8cecb5	0.06881086
60	0xbcaa2042	-0.020767335
61	0xbdcbc80b	-0.099502645
62	0xbe31f162	-0.17377236
63	0xbdf0ca73	-0.11757364
64	0x3a8169c4	0.000987344
65	0x3de04983	0.10951521
66	0x3e057b35	0.13035281
67	0x3d89e160	0.0673244
68	0x3e003e69	0.12523808
69	0xbd1575c4	-0.036489263
70	0xbde10f73	-0.10989275
71	0xbe8ce827	-0.27520868
72	0xbde0e886	-0.1098185
73	0x3d4235ad	0.04741447
74	0x3e19a415	0.15003999
75	0x3e5e6f38	0.21722114
76	0x3e9243bc	0.28567302
77	0x3e68f2e6	0.22748908
78	0x3df7291a	0.120683864
79	0xbc3aed6d	-0.011409146
80	0xbedc5e73	-0.4304081
81	0xbe186cc6	-0.14885244
82	0xb9a38f7a	-0.0003119668
83	0x3c86a8bd	0.016437883
84	0x3e0ecb7c	0.1394481
85	0x3dbb52c1	0.091466434
86	0x3ca62815	0.020282784
87	0x3e1620ff	0.14661025
88	0x3dda59f4	0.106616884
89	0x3dd69de6	0.104793355
90	0xbc7d5786	-0.015462762
91	0xbcce1f69	-0.025161462
92	0x3e1b2ef3	0.15154628
93	0x3e288535	0.16457064
94	0x3e65b8f6	0.22433838
95	0x3e235426	0.15950069
96	0x3e15e65d	0.14638658
97	0x3e1cae22	0.15300801
98	0x3e07768b	0.13228814
99	0xbd248154	-0.0401624
100	0x3ca66b00	0.020314693
101	0x3e37bfa2	0.17944196
102	0x3e23ad0b	0.1598398
103	0x3e1bd417	0.15217625
104	0xbd2ab7f7	-0.04167935
105	0xbd93b13d	-0.0721154
106	0xbc8c2350	-0.017106682
107	0x3d989fe8	0.07452375
108	0xbd5f4b0f	-0.05451494
109	0x3d9a4a31	0.07533682
110	0x3c74c984	0.014940623
111	0xbdaeabf2	-0.0852889
112	0xbda73e81	-0.081662185
113	0xbe47be67	-0.19506226
114	0xbebfc91e	-0.37458128
115	0xbe0ff531	-0.14058377
116	0x3cc8caac	0.024510704
117	0x3d1dc268	0.03851548
118	0x3ccddef4	0.025130726
119	0x3dd4cdb2	0.10390796
120	0xbd948d43	-0.07253506
121	0xbd4bd10a	-0.049759902
122	0xbe535d55	-0.20641072
123	0xbea921e9	-0.33033684
124	0xbd95833e	-0.07300423
125	0x3d2e1a94	0.042505816
126	0x3bfa58e8	0.007639993
127	0x3d154f72	0.036452718
128	0xbd8f6942	-0.07002498
129	0xbe65bd34	-0.22435457
130	0xbdcda304	-0.100408584
131	0xbeb53887	-0.3539469
132	0xbeca7a01	-0.39546207
133	0xbd4c85d7	-0.049932327
134	0x3daea980	0.08528423
135	0x3c01789a	0.007902289
136	0xbd54284a	-0.051796235
137	0xbd3b606d	-0.045746256
138	0xbe971049	-0.29504612
139	0xbe7f3820	-0.24923754
140	0xbebe2b7c	-0.3714255
141	0xbec77c9d	-0.3896226
142	0xbdbadb40	-0.0912385
143	0x3e32e617	0.17470585
144	0xbb30c4e6	-0.002697283
145	0x3d94f27e	0.07272814
146	0x3d263e27	0.040586617
147	0xbdf157c3	-0.11784317
148	0xbcb0f185	-0.02159954
149	0xbe189715	-0.14901383
150	0xbdf5f453	-0.12009492
151	0x3dffa331	0.12482298
152	0x3e944623	0.2895976
153	0x3d61faf6	0.055170976
154	0x3d892e92	0.06698336
155	0x3e1dff64	0.15429455
156	0x3e46907b	0.19391052
157	0x3ddd5c43	0.10808613
158	0x3e57e395	0.2108291
159	0x3e1e3917	0.15451466
160	0x3ea1e15c	0.31617248
161	0x3ed1b8f3	0.40961418
162	0xbd83ce0f	-0.06435787
163	0xbe1db566	-0.1540123
164	0xbd0cae37	-0.03434583
165	0xbdcff41d	-0.10153983
166	0xbe3ae8ea	-0.18252912
167	0xbd923124	-0.07138279
168	0xbdd23e6c	-0.10265812
169	0xbdac5f31	-0.08416594
170	0xbdd882fd	-0.10571859
171	0xbd9559d3	-0.07292523
172	0xbdc5aeef	-0.096525066
173	0x3e3353de	0.17512462
174	0x3e544f68	0.20733416
175	0x3e57fefc	0.21093363
176	0x3e612620	0.219872
177	0x3e030166	0.12793502
178	0xbd2d22e8	-0.042269617
179	0xbd84785f	-0.064682715
180	0xbcb7ec33	-0.022451496
181	0x3c9ceb09	0.019155042
182	0x3e74d8eb	0.23910873
183	0x3e3b9b61	0.18320991
184	0x3e477f14	0.1948207
185	0x3e51e41b	0.20497172
186	0x3e3781f4	0.17920667
187	0xbbbc2770	-0.005742006
188	0xbd3a196b	-0.045434397
189	0xbe2865f9	-0.1644515
190	0xbd3c5ec8	-0.045988828
191	0x3e5794e5	0.21052893
192	0xbf2f7dd7	-0.6855139
193	0xbf53983c	-0.82654166
194	0xbf5d396a	-0.8641573
195	0x3d423044	0.04740931
196	0x3d96a17f	0.07355022
197	0xbdc9ba77	-0.098500185
198	0xbe157600	-0.14595795
199	0x3d801d08	0.06255537
200	0x3f033db5	0.5126603
201	0xbf4f58fb	-0.8099515
202	0xbec5cef4	-0.38634455
203	0xbf7a96b9	-0.97886235
204	0x3e7b7319	0.24555625
205	0x3e25b66a	0.16182867
206	0xbe5c14a2	-0.21492246
207	0xbdfc5cf1	-0.12322415
208	0x3d9ea400	0.07746124
209	0x3ecb808b	0.39746508
210	0xbf6df5f0	-0.92953396
211	0xbfaca4ac	-1.3487754
212	0xbfd88c3a	-1.6917794
213	0x3d12d089	0.035843406
214	0x3d16c318	0.03680715
215	0xbe567d01	-0.20946123
216	0xbd2aa04e	-0.041656785
217	0xbd0dd101	-0.03462315
218	0x3e9a8552	0.3017984
219	0xbe02ac9f	-0.12761162
220	0xbeca0d23	-0.39463148
221	0xbf1bad10	-0.6081095
222	0x3c98313b	0.018578162
223	0xbc8d1693	-0.017222678
224	0xbe3cf9f1	-0.1845472
225	0xbde86daa	-0.11349042
226	0xbd81f7b0	-0.06346071
227	0x3e22f137	0.15912329
228	0x3d7fd5b1	0.06245965
229	0x3d358ecb	0.04432563
230	0x3d177c15	0.03698357
231	0x3dee4f96	0.116362736
232	0xbcbbd435	-0.022928337
233	0xbe133ca5	-0.14378603
234	0xbd8629a6	-0.065509126
235	0xbdd6fadb	-0.10497066
236	0xbd3adfee	-0.045623712
237	0xbdbdec23	-0.09273555
238	0xbe8b10ca	-0.27161247
239	0xbe6beb9f	-0.23039101
240	0xbd956264	-0.07294157
241	0xbe1aacc0	-0.15104961
242	0xbe0f1ab8	-0.13975036
243	0x3f9f080b	1.242433
244	0x3ea76f16	0.3270194
245	0xbb8f4903	-0.0043727173
246	0xbda281f2	-0.07934941
247	0xbbd896cf	-0.0066097747
248	0x3c57c63a	0.0131698195
249	0x3de4c2ea	0.111699894
250	0x3e62ebca	0.22160259
251	0x3eef3162	0.46717364
252	0x3f0be966	0.5465301
253	0xbd9561c1	-0.07294036
254	0xbe454aff	-0.1926689
255	0xbe07a454	-0.1324628

fc.bias f4 [8]
0	0xbf4c6e2d	-0.79855615
1	0x3effc9c5	0.49958625
2	0x3f3ce966	0.7379364
3	0xbe4267e3	-0.18984942
4	0x3ce8fc66	0.028440665
5	0xbe5da343	-0.2164431
6	0x3ecdceab	0.40196738
7	0xbe7dedee	-0.24797794
